Q3/1500.ckpt (torch, 378652 bytes, 8 tensors)

fc1.weight f4 [256, 67]
0.25598893 -0.12294719 0.08077689 -0.08026476 -0.99244857 1.2344571 0.7777877 -0.0128023345
1.2647567 0.077234015 2.0943494 -1.1407534 0.5042116 -0.9959561 1.1035402 -1.3787491
-0.7380455 1.0173533 -0.8961525 -0.03617165 0.9508424 0.2793055 0.82310957 0.21006563
-0.18527415 0.99044573 0.30416858 -0.8248542 0.44609123 0.0038945395 -0.12868348 1.095876
0.6094876 -0.45419186 -0.11906128 0.0955335 0.033801083 -1.3865955 1.4107974 -0.8330795
0.369407 -0.02011018 -0.024125217 0.2019059 0.033984516 0.06465062 0.04438809 -0.040584277
0.095390685 0.005576471 0.01107093 -0.05248475 0.014807254 -0.008438251 -0.0036211808 0.009750085
-0.018749233 -0.039097376 0.028841412 0.006390356 0.010837399 0.023617368 -0.03700139 -0.0145449415
0.03242197 0.0014695153 0.012910123 -0.02581871 0.20356467 0.36656627 0.88360655 -0.3373049
0.42731312 1.4829447 1.225284 0.4996404 -0.023854498 -0.28957918 -1.1226541 -0.9152271
0.5232221 -0.3381944 -0.42268938 -1.689765 0.1297636 -0.22479421 0.075899616 -0.09280851
0.6683541 -0.87938637 -0.15005249 0.0065504513 -0.6558301 0.31711537 0.4597264 -0.5023671
0.18091522 0.13669313 -0.15723534 0.7605213 -0.013466263 0.08215403 -0.114815004 0.16515996
2.1059852 3.5227592 -1.1285 -0.08525271 0.0025291815 -0.0069500767 0.1730788 -0.051382378
0.061163947 0.083187714 -0.005931805 -0.030669136 -0.057883497 0.015367968 -0.049370855 0.007476459
-0.0058174483 0.004823431 -0.0094384765 0.0059576994 -0.013919798 -0.00024521447 -0.0053849947 -0.0039799083
0.0070605786 0.017137436 0.0026370392 0.0071512307 -0.003760324 0.008256272 -0.20645878 -0.029048774
-0.26226476 0.5065022 0.13542156 0.3386566 -0.23576348 2.826814 -0.95569575 0.084091336
-0.20824021 -0.39367598 -0.14436157 -0.098847136 -0.31336227 -0.59883875 0.45848483 -0.5079933
0.112360135 -0.00942585 0.7383824 1.0780519 -0.5346901 0.20977832 0.0053756703 -0.11164203
-0.21663186 -1.2241223 0.0084515605 0.1584096 -0.051838342 0.20841266 0.10488764 -0.0757401
0.18584873 -0.05942477 -0.10064665 1.4500152 -0.15036772 -0.6339457 0.11668731 -0.15080659
-0.26680645 -0.13282633 0.08216527 0.09916536 0.038721036 0.0051554376 0.048005372 0.035091948
0.0001466724 0.029907547 -0.018980037 0.0061474866 0.001706111 -0.05346547 -0.016557863 -0.022506714
0.088430084 -0.02335399 0.0030759855 -0.012644864 0.00940424 -0.006328052 0.0039447816 0.04070067
-0.0077302535 -0.32810187 0.25353616 1.6837947 0.122881204 -0.51328355 0.821959 0.18494952
0.3504401 0.19894195 0.43726727 0.8182508 -0.57514715 -0.7852234 0.006007975 -0.55702823
-0.4456856 1.2580359 0.9402187 0.49228433 0.50616354 0.41137943 1.9767581 -0.5081068
0.12561513 -0.003609406 -0.18639308 -0.8986156 -0.38509703 -0.7261252 -0.5759158 0.017743781
-0.1085811 0.26881936 -0.051274247 0.080149226 0.16639115 0.02288855 0.33838946 -0.91614
-1.184311 0.3188957 -0.24962167 0.4401897 -0.054045163 -0.03400811 0.037786797 0.016347246
0.104971685 0.12781474 0.10922402 0.02289676 0.13601002 -0.044674445 -0.0060549956 0.0009671409
00000000: fb10 833e bdcb fbbd 5b6e a53d da61 a4bd
00000010: 1c11 7ebf b102 9e3f 181d 473f e2c0 51bc
00000020: 8ce3 a13f de2c 9e3d d209 0640 3504 92bf
00000030: 0314 013f fbf6 7ebf ce40 8d3f da7a b0bf
00000040: 8df0 3cbf a238 823f 406a 65bf b928 14bd
00000050: 686a 733f 2101 8f3e 4fb7 523f 721b 573e
00000060: 82b8 3dbe da8d 7d3f fcbb 9b3e a529 53bf
00000070: 1266 e43e 883b 7f3b 9ac5 03be aa45 8c3f
00000080: 6107 1c3f d68b e8be 66d6 f3bd 11a7 c33d
00000090: 0173 0a3d f67b b1bf 0295 b43f b344 55bf
000000a0: ea22 bd3e 1bbe a4bc 3fa2 c5bc 6cc0 4e3e
000000b0: 5933 0b3d 8b67 843d 49d0 353d b33b 26bd
000000c0: 315c c33d d4ba b63b d962 353c 40fa 56bd
000000d0: 209a 723c 9740 0abc 5551 6dbb d2be 1f3c
000000e0: fe97 99bc 9224 20bd d344 ec3c 3166 d13b
000000f0: 598f 313c 3679 c13c c58e 17bd e84d 6ebc
00000100: e6cc 043d c09c c03a fb84 533c c281 d3bc
00000110: 4273 503e 93ae bb3e 0a34 623f 3ab3 acbe
00000120: c9c8 da3e 22d1 bd3f 1bd6 9c3f ded0 ff3e
00000130: 826a c3bc b943 94be 21b3 8fbf 534c 6abf
00000140: e2f1 053f d127 adbe be6a d8be 384a d8bf
00000150: c0e0 043e 7430 66be 4271 9b3d 6312 bebd
00000160: 4119 2b3f 771f 61bf 5ca7 19be 2ba5 d63b
00000170: 7be4 27bf f25c a23e 4261 eb3e 219b 00bf
00000180: d741 393e 49f9 0b3e 4d02 21be 86b1 423f
00000190: 9aa1 5cbc 5f40 a83d 2124 ebbd b11f 293e
000001a0: 76c8 0640 e374 6140 b072 90bf f998 aebd
000001b0: a0c0 253b 78bd e3bb 923b 313e 5476 52bd
000001c0: 0c87 7a3d 525e aa3d 965f c2bb d73d fbbc
000001d0: 3f17 6dbd eec9 7b3c 1839 4abd 15fd f43b
000001e0: 4ba0 bebb df0d 9e3b d7a3 1abc ce38 c33b
000001f0: dd0f 64bc 2190 80b9 9c74 b0bb e469 82bb
00000200: 6d5c e73b cf63 8c3c 2dd2 2c3b df54 ea3b
00000210: c56f 76bb 5145 073c ee69 53be b2f7 edbc
00000220: 9147 86be 21aa 013f f3ab 0a3e 6664 ad3e
00000230: fb6b 71be 85ea 3440 7aa8 74bf 1438 ac3d
00000240: ec3c 55be e68f c9be 85d3 13be 5e70 cabd
00000250: 0571 a0be 7f4d 19bf 86be ea3e d90b 02bf
00000260: 121d e63d e16e 1abc a106 3d3f 9bfd 893f
00000270: 73e1 08bf 21d0 563e 6426 b03b 94a4 e4bd
00000280: bed4 5dbe 0ab0 9cbf 6a78 0a3c 2036 223e
00000290: 7154 54bd 216a 553e 55cf d63d a01d 9bbd
000002a0: 214f 3e3e 6367 73bd d51f cebd 199a b93f
000002b0: fff9 19be 444a 22bf c2f9 ee3d 0b6d 1abe
000002c0: db9a 88be a003 08be 4446 a83d 3517 cb3d
000002d0: f399 1e3d f2ee a83b 48a1 443d 93bc 0f3d
000002e0: 13cc 1939 ac00 f53c 067c 9bbc db70 c93b
000002f0: 969f df3a 9cfe 5abd 5ba4 87bc 0060 b8bc
00000300: d51a b53d de50 bfbc 7996 493b 672c 4fbc
00000310: 3e14 1a3c 8c5b cfbb 3a43 813b bfb5 263d
00000320: 114e fdbb f8fc a7be 7ecf 813e 9686 d73f
00000330: 24a9 fb3d 8d66 03bf e86b 523f 6863 3d3e
00000340: e36c b33e 70b7 4b3e 7fe1 df3e e278 513f
00000350: d83c 13bf 6704 49bf 8cde c43b 6799 0ebf
00000360: e730 e4be 5207 a13f 2cb2 703f b10c fc3e
00000370: ef93 013f 53a0 d23e 6906 fd3f 4a13 02bf
00000380: 41a1 003e c98b 6cbb d4dd 3ebe ac0b 66bf
00000390: 702b c5be 57e3 39bf 386f 13bf 685b 913c
000003a0: c55f debd b1a2 893e f204 52bd 4725 a43d
000003b0: 7162 2a3e c580 bb3c 6241 ad3e 2788 6abf
000003c0: 8197 97bf 4c46 a33e d39c 7fbe 8b60 e13e
000003d0: 765e 5dbd 174c 0bbd 54c6 1a3d a9ea 853c
000003e0: 65fb d63d dee1 023e d8b0 df3d fc91 bb3c
000003f0: 3646 0b3e 8dfc 36bd fc68 c6bb ba87 7d3a

fc1.bias f4 [256]
-1.3277545 -0.4919701 -0.5529832 -0.907741 -1.1993784 -0.91690654 -0.5465816 -1.0330932
-0.30848464 -0.55888504 -0.8598776 -0.97097635 0.19480558 -0.70292497 0.30979502 -1.0370239
0.30713484 -0.6584216 -0.928206 -0.032870177 -0.7643041 -0.79411536 -0.27127376 -1.0974375
-1.0843949 -0.5844887 -0.39122084 -0.9066189 -0.6946371 -0.56020963 -0.608332 -0.5805328
-0.76956844 -0.04191831 -0.76520276 -0.39575422 -0.68003124 -0.8352527 -0.72181785 -0.9731893
-0.9192277 -0.53525746 -0.03242478 -0.4488683 -0.8209616 -1.2936544 -0.2668478 -0.66541445
-0.51842195 -0.6849492 -0.8475732 -0.47614303 -1.2309204 -0.037861034 -0.9123961 -1.2077125
-0.19659953 -1.1141162 -0.8324601 -0.04578934 -0.4202801 -0.7407582 0.10143825 -0.52904856
-0.09387548 -0.37389344 -0.90207916 -0.40081522 -0.35915375 -0.5179254 -1.0193299 -0.89827067
-0.25009233 -1.0911491 -1.4314599 -0.077883504 -0.46743828 -0.86084914 -0.86303455 -0.6603831
-0.1945701 0.29069737 0.063964784 -0.793194 -0.9427228 -0.13391733 0.023472698 -0.457777
-1.0894848 -0.2367275 -0.82913595 -0.9839344 -0.829062 -0.9636627 -1.2818544 -1.064573
0.3307199 -0.8367023 -0.35956755 -0.46627638 -0.050760046 -0.6077086 -0.93702406 -0.67331344
-1.0261359 -1.7215369 -0.46948564 -0.05996618 0.0047310586 -0.40429565 -0.6466044 -0.12757282
-0.5460717 -0.46436927 -0.33519906 -1.3680266 -0.6392485 -0.40355253 -0.4980008 -0.28835598
-0.80269444 -0.8739921 -0.9978747 -1.1639827 -0.4256269 -0.9402761 -1.0316466 -0.3713071
-0.84042597 -1.1289688 -1.0092273 -0.86103976 -0.24998727 -1.5139365 -0.9542279 -0.6745732
-0.32725173 -1.2041309 -0.45772907 -0.74334663 -0.005700664 -0.60920656 -0.46098623 -0.8692839
0.23098876 -1.1414044 -0.70913047 -1.1263746 -1.2245828 0.6594808 -0.46540093 -0.3863415
-0.49926785 0.2974957 -1.0641985 -0.6582054 -0.84017074 -0.29549655 -1.4297117 -0.2254837
-0.44749054 0.102101214 -0.5967164 -0.36556995 -1.0062283 -0.38595825 -0.58211106 -0.65868044
0.6558104 -0.71849054 -0.3214278 -1.0176191 -0.803329 -0.45201203 -0.092381075 -0.53023046
-0.91147155 -0.79031134 -0.5251244 -0.7004183 -0.5028908 -0.22811972 -0.24321006 -1.120651
-0.45883566 -0.31336322 0.05358054 0.053587843 -0.8749983 -1.1678576 -0.7165815 -0.69478816
-0.06328907 -1.1137561 -0.47690126 -0.432805 -0.50949633 -1.0161542 -0.87820613 -0.40630546
-0.71730274 -0.8844594 -0.98023576 -0.85627335 -1.3925936 -0.8880228 -0.7734038 -0.8452567
-0.77161574 0.045867242 -0.84691626 -0.6104133 -0.78533703 -1.435699 -1.2501639 -1.5288806
-0.3010163 -0.48286986 0.26953608 -0.45226267 0.31518927 -1.022246 0.5814721 0.079020254
-0.78343827 -0.19225073 -0.30979642 -0.3665053 -0.73370963 0.28336808 -0.49190694 -0.01989746
-0.11210289 -0.81151396 -0.27807292 -1.3224025 -1.1818308 -0.40164727 -1.0296617 1.1533881
-0.8466158 -0.5572055 -0.57507765 -0.59538203 -0.7611726 0.47657228 -1.126459 -0.4484785
-0.26912528 -0.8325584 -0.93962884 0.010811687 -0.37754118 -0.93154055 0.39049846 -0.6706828
00000000: dcf3 a9bf 81e3 fbbe 4f90 0dbf b761 68bf
00000010: 3b85 99bf 63ba 6abf c6ec 0bbf 663c 84bf
00000020: b3f1 9dbe 1713 0fbf f020 5cbf e891 78bf
00000030: 1d7b 473e e4f2 33bf 749d 9e3e 33bd 84bf
00000040: c740 9d3e 518e 28bf e99e 6dbf e1a2 06bd
00000050: 6fa9 43bf 254b 4bbf 65e4 8abe d578 8cbf
00000060: 74cd 8abf 0da1 15bf 194e c8be 2d18 68bf
00000070: bdd3 31bf e669 0fbf a5bb 1bbf cc9d 14bf
00000080: 7002 45bf 89b2 2bbd 54e4 43bf 4ca0 cabe
00000090: 8716 2ebf 1fd3 55bf 0ec9 38bf ef22 79bf
000000a0: 8252 6bbf a206 09bf d9cf 04bd 11d2 e5be
000000b0: 8a2a 52bf 7896 a5bf 46a0 88be 9a58 2abf
000000c0: 4db7 04bf d558 2fbf 8ffa 58bf 05c9 f3be
000000d0: cd8e 9dbf 2c14 1bbd ca92 69bf 5396 9abf
000000e0: 6351 49be 5c9b 8ebf 1b1c 55bf 9a8d 3bbd
000000f0: f42e d7be 54a2 3dbf dbbe cf3d ba6f 07bf
00000100: ca41 c0bd f66e bfbe a9ee 66bf a737 cdbe
00000110: 00e3 b7be c296 04bf 6779 82bf 11f5 65bf
00000120: 1a0c 80be c6aa 8bbf 143a b7bf 6381 9fbd
00000130: 1254 efbe 9c60 5cbf d5ef 5cbf de0e 29bf
00000140: 623d 47be 49d6 943e f8ff 823d c30e 4bbf
00000150: 4856 71bf a021 09be d149 c03c bf61 eabe
00000160: 3d74 8bbf b268 72be 4142 54bf 20e3 7bbf
00000170: 683d 54bf 99b2 76bf ce13 a4bf ee43 88bf
00000180: 1e54 a93e 1f32 56bf 3d19 b8be c7bb eebe
00000190: c4e9 4fbd ca92 1bbf cfe0 6fbf 455e 2cbf
000001a0: 6c58 83bf 525b dcbf 6c60 f0be 199f 75bd
000001b0: ff06 9b3b d7ff cebe de87 25bf 73a2 02be
000001c0: 5bcb 0bbf cfc1 edbe 369f abbe 7f1b afbf
000001d0: caa5 23bf 709e cebe f6f9 febe 65a3 93be
000001e0: 627d 4dbf f2bd 5fbf b774 7fbf 63fd 94bf
000001f0: c5eb d9be efb5 70bf ff0c 84bf f71b bebe
00000200: 2826 57bf 0d82 90bf 5c2e 81bf 1a6d 5cbf
00000210: aafc 7fbe acc8 c1bf 4848 74bf d4b0 2cbf
00000220: 8a8d a7be f620 9abf 775b eabe f74b 3ebf
00000230: a3cc babb f6f4 1bbf 6306 ecbe 6489 5ebf
00000240: 5188 6c3e 8a19 92bf 9389 35bf 0b2d 90bf
00000250: 21bf 9cbf bcd3 283f 0849 eebe 8ece c5be
00000260: 09a0 ffbe 5b51 983e a837 88bf 2680 28bf
00000270: 6e15 57bf 534b 97be cb00 b7bf 33e5 66be
00000280: 7b1d e5be 711a d13d 68c2 18bf fc2b bbbe
00000290: 17cc 80bf 529c c5be 3b05 15bf 489f 28bf
000002a0: 31e3 273f ffee 37bf 2f92 a4be 5841 82bf
000002b0: f8a6 4dbf 1f6e e7be 4a32 bdbd 2fbd 07bf
000002c0: 3356 69bf d851 4abf 8d6e 06bf 9d4e 33bf
000002d0: 74bd 00bf 3798 69be 0f0c 79be 7e71 8fbf
000002e0: 82ec eabe 2571 a0be 4577 5b3d ed7e 5b3d
000002f0: e3ff 5fbf 5c7c 95bf e371 37bf a3dd 31bf
00000300: b39d 81bd 8f8f 8ebf 672c f4be 9e98 ddbe
00000310: 5a6e 02bf 5711 82bf 1ed2 60bf 4507 d0be
00000320: 27a1 37bf ee6b 62bf bbf0 7abf bb34 5bbf
00000330: 8240 b2bf 7655 63bf cbfd 45bf be62 58bf
00000340: 9c88 45bf 4adf 3b3d 81cf 58bf 0c44 1cbf
00000350: d90b 49bf fcc4 b7bf 5f05 a0bf 5cb2 c3bf
00000360: cf1e 9abe b83a f7be a200 8a3e f98e e7be
00000370: 7d60 a13e f5d8 82bf 5bdb 143f 5fd5 a13d
00000380: 698f 48bf 60dd 44be a39d 9ebe 95a6 bbbe
00000390: 65d4 3bbf 9f15 913e 3adb fbbe ffff a2bc
000003a0: 3396 e5bd 61bf 4fbf 935f 8ebe 7c44 a9bf
000003b0: 3b46 97bf b6a4 cdbe f4cb 83bf 39a2 933f
000003c0: d0bb 58bf 05a5 0ebf 4a38 13bf f56a 18bf
000003d0: 35dc 42bf 4801 f43e cf2f 90bf f99e e5be
000003e0: caca 89be 8c22 55bf 848b 70bf 8123 313c
000003f0: 144d c1be 7179 6ebf 6aef c73e deb1 2bbf

fc2.weight f4 [256, 256]
-0.042340312 0.15391695 0.062723875 -0.14894669 0.09644688 0.034203686 0.20667931 0.056772042
0.06279276 -0.36024383 -0.06776777 0.12681451 -0.48913568 -0.48128682 0.18308258 -0.13544594
0.17031178 -0.24212044 -0.80347544 -0.012430047 0.3714512 0.23095214 -0.65062267 0.087500595
-0.17983088 0.19390069 -0.5216953 -1.5425493 -0.15127814 -0.2707269 0.007466191 0.17859702
-0.21809144 -0.061532408 0.24094646 0.16747622 -0.16647069 -0.19800258 -0.14070876 0.020375041
-0.802848 0.22142477 0.19851455 -0.07879297 -0.7029285 -0.011420514 -0.587376 0.34053135
0.030812485 -1.4157963 -0.48341113 -0.15232149 0.043419376 -0.33866763 0.57625014 -0.12708066
0.12898724 -0.41810384 -0.11830662 -0.269972 -0.086255774 -0.07102817 -1.0350634 -0.04302959
-0.4240963 -0.3222794 -0.22620581 0.40454668 -0.3651837 0.2556189 0.04299227 -1.0261306
-0.10032102 0.0785085 0.23099685 -0.98199785 -0.30186218 0.7479753 -0.2057908 -0.33028165
0.11233287 -0.14248972 -0.0017141557 0.04428162 -0.44576466 -0.0039715352 -0.39472026 -0.13891831
0.06296578 0.1692273 0.01809152 -0.21000187 -0.50850654 -0.4094885 -0.19046015 0.24843389
-0.1532625 -0.35622922 -0.047117554 -0.6670328 -0.4244608 0.4256167 0.16808416 -0.3361586
-0.14078759 0.15903413 -1.5490906 -0.3422201 0.19308257 -0.03377998 -0.17326075 -0.10918756
0.41513002 0.9692578 0.28168058 -1.1562698 0.019570772 0.14407517 -0.22324532 0.35598716
-0.62148976 -0.16495712 -0.029634535 0.20816295 -0.13987601 -0.38125056 -0.036871813 -0.13888672
0.06401485 -0.8925081 0.20956479 0.14053535 -0.39997372 -0.11562294 -0.3570101 0.03446516
0.007219033 -0.3042346 -0.14061308 -0.0377749 0.29211047 0.05912392 0.0025910945 0.1897875
0.21272473 -0.03675413 0.16793369 0.26331046 0.1285784 -0.338454 0.09180873 -0.23511104
-0.54351544 0.38814965 0.114674464 0.15272027 0.23167747 -0.025515689 0.20255172 0.37175938
-0.07498425 -0.416022 0.21676718 0.008594168 -0.30290815 -0.5937838 -0.08574738 0.22700278
-0.5991767 -1.1424311 -0.3640103 -0.4222562 -0.06252182 0.40523896 0.14098948 0.0021290195
-1.2105547 -0.15053362 0.16765207 -0.9765339 0.1072414 -0.7182058 -0.065264665 -0.32853118
-0.31289423 -0.07731071 0.18682165 0.16816334 0.101630926 0.20250084 -0.2345437 0.110801786
-0.21684511 0.45453775 0.1507821 -0.08416846 0.08358041 -0.1681759 -0.02992895 -0.2131817
0.08165561 -0.46118495 0.4484059 -0.25927347 -0.21547826 0.09573273 0.15863675 0.027527224
-0.14494787 -0.16354848 -0.22557911 -0.06762454 -0.54271615 0.050252937 0.019084202 -0.050679848
-0.1727484 -0.17646621 -0.1275966 -0.11989333 -0.20180471 -0.1981897 0.6379948 0.8764214
0.13664903 -0.28432193 0.002346499 0.14439929 -0.3227042 -0.02637898 0.15537716 -0.34394145
-0.34572348 -0.40701485 0.11889186 -0.05303958 -0.05706965 -0.13390143 -0.2796146 -0.1611949
-0.06093238 0.03343092 -0.049801987 -0.00868483 -0.20932111 -0.21068306 0.06326404 0.088809416
-0.06467176 0.05147515 -0.6861215 -0.33206227 0.1589265 -0.10729933 -0.10433878 0.87840515
00000000: 096d 2dbd 689c 1d3e 6075 803d 7b85 18be
00000010: f185 c53d 2a19 0c3d bea3 533e cd89 683d
00000020: 7e99 803d e171 b8be d4c9 8abd aadb 013e
00000030: fe6f fabe 3a6b f6be 007a 3b3e 57b2 0abe
00000040: 3666 2e3e 6cee 77be 91b0 4dbf 65a7 4bbc
00000050: da2e be3e b87e 6c3e 358f 26bf 8333 b33d
00000060: 9625 38be e78d 463e d38d 05bf 4172 c5bf
00000070: a8e8 1abe b79c 8abe f3a6 f43b 23e2 363e
00000080: 5d53 5fbe 6809 7cbd abba 763e e37e 2b3e
00000090: 4b77 2abe 30c1 4abe f515 10be 8fe9 a63c
000000a0: 7287 4dbf 2dbd 623e 6647 4b3e 355e a1bd
000000b0: 1ff3 33bf 1c1d 3bbc 465e 16bf 205a ae3e
000000c0: 776a fc3c d038 b5bf aa81 f7be 2afa 1bbe
000000d0: 84d8 313d d865 adbe 2185 133f 6f21 02be
000000e0: 3b15 043e b511 d6be be4a f2bd c539 8abe
000000f0: dea6 b0bd 3877 91bd f57c 84bf cc3f 30bd
00000100: 2623 d9be ce01 a5be 7fa2 67be be20 cf3e
00000110: 5cf9 babe 7be0 823e aa18 303d 3f58 83bf
00000120: 1b75 cdbd 10c9 a03d 708a 6c3e 3664 7bbf
00000130: ae8d 9abe 4f7b 3f3f d3ba 52be ad1a a9be
00000140: c70e e63d d3e8 11be 85ad e0ba a560 353d
00000150: 443b e4be a723 82bb c618 cabe 9a40 0ebe
00000160: 34f4 803d ec49 2d3e ab34 943c bb0a 57be
00000170: 7c2d 02bf 7aa8 d1be fc07 43be 7465 7e3e
00000180: d8f0 1cbe ad63 b6be 56fe 40bd a9c2 2abf
00000190: ed52 d9be 6fea d93e 411e 2c3e fb1c acbe
000001a0: 9f2a 10be d8d9 223e 9a48 c6bf 7937 afbe
000001b0: 70b7 453e e05c 0abd 446b 31be ba9d dfbd
000001c0: ec8b d43e 4721 783f 7038 903e a600 94bf
000001d0: e252 a03c 7188 133e 6c9a 64be f343 b63e
000001e0: f419 1fbf 85ea 28be 20c4 f2bc ab28 553e
000001f0: a83b 0fbe 4633 c3be e606 17bd 5238 0ebe
00000200: 381a 833d 697b 64bf 2798 563e 80e8 0f3e
00000210: 5bc9 ccbe b8cb ecbd 07ca b6be 572b 0d3d
00000220: a38d ec3b a3c4 9bbe e0fc 0fbe dbb9 1abd
00000230: 818f 953e ec2b 723d 5acf 293b a857 423e
00000240: 83d4 593e 808b 16bd cff6 2b3e a1d0 863e
00000250: 0eaa 033e d849 adbe 3706 bc3d f3c0 70be
00000260: d423 0bbf 8dbb c63e 72da ea3d b462 1c3e
00000270: dc3c 6d3e 4706 d1bc b869 4f3e 3f57 be3e
00000280: 5891 99bd d600 d5be 37f8 5d3e 8ece 0c3c
00000290: c716 9bbe 3702 18bf 539c afbd 6b73 683e
000002a0: a563 19bf 2f3b 92bf 8f5f babe f731 d8be
000002b0: 710b 80bd 7b7b cf3e 8c5f 103e 0587 0b3b
000002c0: 75f3 9abf 7c25 1abe fcac 2b3e 20fe 79bf
000002d0: 61a1 db3d 56dc 37bf 7ba9 85bd 3d35 a8be
000002e0: ac33 a0be 1455 9ebd 2d4e 3f3e 0333 2c3e
000002f0: e023 d03d 615c 4f3e 392c 70be 0cec e23d
00000300: a50c 5ebe 2cb9 e83e 9f66 1a3e 8360 acbd
00000310: 352c ab3d 4e36 2cbe 8f2d f5bc 4e4c 5abe
00000320: 0e3b a73d 6f20 ecbe 7595 e53e 7ebf 84be
00000330: 55a6 5cbe 860f c43d ac71 223e c680 e13c
00000340: 376d 14be 4179 27be 36fe 66be bc7e 8abd
00000350: 72ef 0abf 06d6 4d3d 7956 9c3c ac95 4fbd
00000360: f5e4 30be 8fb3 34be afa8 02be a28a f5bd
00000370: e5a5 4ebe 3ef2 4abe a153 233f 275d 603f
00000380: b9ed 0b3e a592 91be b8c7 193b 68dd 133e
00000390: 7c39 a5be bb18 d8bc 311b 1f3e 1819 b0be
000003a0: ab02 b1be 4064 d0be 937d f33d 0840 59bd
000003b0: dec1 69bd 751d 09be a529 8fbe 4710 25be
000003c0: 3b94 79bd dcee 083d 2bfd 4bbd d14a 0ebc
000003d0: 4658 56be 4dbd 57be 9490 813d b6e1 b53d
000003e0: a172 84bd 9bd7 523d a9a5 2fbf 1104 aabe
000003f0: a1bd 223e c0bf dbbd 92af d5bd 29df 603f

fc2.bias f4 [256]
1.2144566 1.2290174 -0.6865819 0.29981613 0.33807987 -0.088326916 0.64701873 0.41142353
0.49478775 -0.13674256 -0.09642267 0.5670188 -0.044974916 0.6925675 0.09040854 0.45583612
-0.020454869 0.47391656 0.52860427 0.20763864 -0.032388292 0.46594667 0.25740597 -0.02334277
0.024289876 0.0745153 0.015085196 0.6377196 0.08779474 0.3352151 -0.545791 0.2531119
0.4956016 0.15312232 0.30492392 0.48206648 0.04668155 -0.26011103 0.59929407 -0.06525757
-0.21096537 0.36051035 0.46918553 0.016741145 -0.525206 -0.33707088 0.21183202 -0.0557771
0.04139314 -0.27620745 0.5504775 0.567496 -0.08080032 0.45345193 0.88455033 0.43752378
-0.612259 1.237117 -0.42794567 -0.13984792 0.1588683 0.44559133 0.40408015 0.091510616
-0.073421665 -0.8363942 0.04564503 0.030099176 0.19177969 -0.2726168 -0.12160864 0.32832244
-0.16325885 -0.22592902 0.5067734 -0.008155318 0.98256594 -0.8567689 -0.053801488 0.66662663
0.114141636 0.24363224 -0.13816307 0.9574077 -0.003919217 0.5624231 -0.13759229 1.4211164
0.26987985 0.07591427 0.9375859 -0.02100495 0.11730364 -0.21459413 -0.08801247 -0.003396313
0.49421862 0.4345489 0.33554688 -0.5227439 -0.7397618 0.1263378 0.25717187 -0.25602353
0.278144 0.70807517 -0.32420132 0.0030814633 -0.7265041 -0.42875406 -0.5928169 0.45759994
-0.46136296 0.05728306 -0.6238587 -1.0717493 0.77762336 -0.062796935 -0.07907408 0.86796767
1.2928078 0.34937948 0.06589376 0.093981214 -0.1445752 1.0573552 -0.121297784 -0.20071483
-0.23250721 0.235394 0.092003115 0.34366134 0.99940026 0.19260171 0.17210299 0.017042017
0.45789674 -0.26433128 -1.2330211 -0.55781204 0.0155341765 -0.14092371 0.45040116 -0.5373993
0.7147353 1.0571506 0.69642085 0.581952 0.11238103 0.4169591 -0.5971702 0.0726718
-0.068045765 0.68013537 1.115464 -0.810531 0.2665359 0.7392699 -0.076785274 0.17385949
-0.29925027 -0.06514129 0.22977138 -0.3921027 -0.296822 -0.30320305 0.6829475 0.76798916
-0.10595065 0.39908236 -0.4578478 0.63612884 -0.069448605 0.0012960448 -0.09333152 0.123276666
0.5549629 0.16447179 0.1676712 -0.74569905 0.034043036 0.32882872 -0.29424226 0.41867867
-0.030995334 0.0594575 -0.14122684 -0.42374066 -0.17829682 0.13185127 0.8262776 0.33759496
0.41368058 0.18951464 0.64097846 -0.19637486 0.07560218 0.032172244 0.38070202 -0.10484791
-0.1378822 0.6981476 -0.22450832 -0.9154775 -0.1667451 -0.10532739 -0.1873883 0.019226218
-0.15977362 -0.3839837 0.09239168 0.6646167 -0.04571035 0.7407571 0.08042546 -0.021070538
0.08526703 -0.056167282 0.33299717 -0.13804424 0.25505126 -0.47841787 0.57089305 0.6074389
0.21699467 -0.2926351 1.5049845 -0.25766876 -0.20285547 0.08146307 -0.6750786 0.5345242
0.20935147 0.2687066 1.0109705 0.45649454 0.7420084 0.9353031 -0.076603204 0.081321366
0.89393085 -0.15142398 -0.07906245 0.6275924 0.4155741 0.2195667 0.8347332 0.06514855
1.0926136 0.00059659797 1.4656273 0.16705152 0.5872345 0.25510284 -1.065861 0.6431739
00000000: 5073 9b3f 7150 9d3f d5c3 2fbf 8081 993e
00000010: ce18 ad3e bee4 b4bd 05a3 253f 1ba6 d23e
00000020: d254 fd3e 3e06 0cbe 4079 c5bd 2528 113f
00000030: 9e37 38bd 1b4c 313f 1d28 b93d 5a63 e93e
00000040: f890 a7bc 31a5 f23e 9c52 073f 399f 543e
00000050: 96a9 04bd 9090 ee3e b7ca 833e 5639 bfbc
00000060: 90fb c63c 7a9b 983d e627 773c 9741 233f
00000070: bbcd b33d 50a1 ab3e f5b8 0bbf e297 813e
00000080: 7ebf fd3e 19cc 1c3e fd1e 9c3e 6bd1 f63e
00000090: 2735 3f3d 462d 85be 566b 193f c3a5 85bd
000000a0: 4e07 58be d094 b83e 1639 f03e ba24 893c
000000b0: e773 06bf 8e94 acbe 7eea 583e 8776 64bd
000000c0: da8b 293d 106b 8dbe 18ec 0c3f 6b47 113f
000000d0: a37a a5bd da2a e83e e471 623f 1e03 e03e
000000e0: 01bd 1cbf da59 9e3f b21b dbbe 4b34 0fbe
000000f0: 5fae 223e 8c24 e43e 98e3 ce3e eb69 bb3d
00000100: 195e 96bd ee1d 56bf 48f6 3a3d 8c92 f63c
00000110: e561 443e 6e94 8bbe f30d f9bd e119 a83e
00000120: 542d 27be f059 67be e7bb 013f e29d 05bc
00000130: 7189 7b3f 3555 5bbf f35e 5cbd 0ba8 2a3f
00000140: 17c3 e93d bb7a 793e 9f7a 0dbe ac18 753f
00000150: c66c 80bb f6fa 0f3f fee4 0cbe 24e7 b53f
00000160: b12d 8a3e f178 9b3d a105 703f 9312 acbc
00000170: e43c f03d 90be 5bbe e23f b4bd ad94 5ebb
00000180: 390a fd3e 327d de3e cdcc ab3e 8bd2 05bf
00000190: 0861 3dbf b25e 013e 08ac 833e 8415 83be
000001a0: e468 8e3e 6a44 353f b7fd a5be 60f2 493b
000001b0: 2cfc 39bf a785 dbbe d9c2 17bf 8a4a ea3e
000001c0: c437 ecbe a4a1 6a3d 34b5 1fbf 152f 89bf
000001d0: 5312 473f ae9b 80bd 97f1 a1bd 2133 5e3f
000001e0: ba7a a53f dee1 b23e 4ff3 863d 3979 c03d
000001f0: 850b 14be 6a57 873f f96a f8bd 3088 4dbe
00000200: 5f16 6ebe 200b 713e 216c bc3d 61f4 af3e
00000210: b2d8 7f3f 6239 453e c43b 303e b39b 8b3c
00000220: 7171 ea3e 6e56 87be a3d3 9dbf c5cc 0ebf
00000230: 0f83 7e3c 4e4e 10be fb9a e63e 0093 09bf
00000240: e5f8 363f b650 873f a348 323f cefa 143f
00000250: 0728 e63d aa7b d53e 25e0 18bf f4d4 943d
00000260: 945b 8bbd 5a1d 2e3f 86c7 8e3f f67e 4fbf
00000270: 6577 883e cb40 3d3f 9941 9dbd 3908 323e
00000280: 5537 99be cc68 85bd 3049 6b3e afc1 c8be
00000290: 0ef9 97be 6e3d 9bbe a6d5 2e3f f09a 443f
000002a0: a8fc d8bd 8654 cc3e 076b eabe 57d9 223f
000002b0: 123b 8ebd 0ce0 a93a 9924 bfbd 7a78 fc3d
000002c0: 0c12 0e3f 4b6b 283e 00b2 2b3e 22e6 3ebf
000002d0: b670 0b3d 3d5c a83e eca6 96be 0d5d d63e
000002e0: ede9 fdbc b589 733d c59d 10be 89f4 d8be
000002f0: 7193 36be 0504 073e ee86 533f 3fd9 ac3e
00000300: f1cd d33e 2010 423e 2a17 243f 7e16 49be
00000310: 51d5 9a3d 0bc7 033d 60eb c23e 80ba d6bd
00000320: fe30 0dbe cdb9 323f 82e5 65be bc5c 6abf
00000330: 3abf 2abe e3b5 d7bd b8e2 3fbe 4d80 9d3c
00000340: b29b 23be 8399 c4be d937 bd3d 5224 2a3f
00000350: c73a 3bbd 42a2 3d3f 1bb6 a43d 1f9c acbc
00000360: 7ba0 ae3d aa0f 66bd 9b7e aa3e 785b 0dbe
00000370: 1496 823e 30f3 f4be 0c26 123f 1e81 1b3f
00000380: da33 5e3e 45d4 95be 55a3 c03f 29ed 83be
00000390: 58b9 4fbe 1cd6 a63d f3d1 2cbf 94d6 083f
000003a0: 3b60 563e e993 893e 7b67 813f a7b9 e93e
000003b0: 43f4 3d3f 0670 6f3f 24e2 9cbd d18b a63d
000003c0: a7d8 643f e30e 1bbe 7eeb a1bd e5a9 203f
000003d0: 21c6 d43e 18d6 603e 13b1 553f 9a6c 853d
000003e0: c3da 8b3f 0365 1c3a ad99 bb3f 8e0f 2b3e
000003f0: 0055 163f d79c 823e 226e 88bf 0ba7 243f

mu.weight f4 [21, 256]
-0.003814566 -0.0009023472 0.017359652 0.14805722 0.18664858 -0.07729355 0.09637147 0.17690055
0.06945794 -0.044042856 0.085003756 0.121097215 -0.03093068 0.07961645 0.043912217 0.045942068
-0.21768421 0.12681252 -0.03213465 0.044118732 -0.14595783 0.029259432 0.060917445 -0.0265831
0.046788618 -0.057970818 -0.16617456 0.20097445 0.13637123 0.04496324 -0.10072433 -0.0443181
0.067274906 0.004112167 -0.15768042 0.108260736 0.1526019 0.02650023 -0.0033404175 0.019298626
-0.082576714 0.1257935 0.00019525802 -0.09355066 0.112732574 -0.09176088 0.046168763 0.17210539
-0.05258084 0.101380266 -0.026592491 0.059006907 -0.046157677 0.07237654 -0.09524331 0.005198725
0.015894804 0.016062446 0.06783906 -0.080248594 0.12039045 -0.026093327 -0.043386646 0.0082329335
-0.22024305 -0.21595737 0.100388125 -0.17553817 -0.117380984 -0.03875696 -0.04835368 -0.114251055
-0.039800473 -0.20468578 0.10706129 0.33904013 0.09187606 0.065770656 0.08137448 0.072114766
0.15864469 0.041749474 0.17472659 -0.15762639 0.011420518 -0.019084187 -0.07594894 0.20569038
0.03990496 -0.14713608 0.09947435 -0.10886926 0.0017643379 -0.021965953 0.02945156 0.07283597
0.005690501 -0.06168018 0.017891677 -0.21472192 0.03318163 0.00413783 0.18399358 -0.056670845
-0.023218915 -0.02203156 -0.31228247 -0.113018245 0.01107253 -0.08190892 -0.13165422 0.16946316
-0.117428504 -0.23944613 -0.07235805 -0.07643198 0.058889642 -0.0576211 0.016746756 0.1338512
0.08288795 0.16127107 0.0025501787 0.11417434 -0.09525352 0.10326248 -0.10206153 -0.19375652
0.076963075 -0.028706323 -0.031185875 0.10596842 0.23152228 -0.0078725675 -0.0041980078 -0.13491449
0.09795415 -0.2871335 -0.021977575 0.040767908 -0.07219804 -0.0076132244 -0.15293017 -0.09426986
-0.048767984 -0.05297652 0.04545651 0.060514178 -0.016293379 -0.029381605 -0.05882708 -0.083277255
0.023681797 -0.110196315 0.09874029 -0.13565049 -0.02955818 0.005845276 0.02990653 -0.11932293
-0.122296244 -0.006803958 0.002207137 -0.16370282 -0.005573873 -0.45633778 0.14948303 0.081511214
-0.046911985 -0.052822232 -0.019576477 -0.08009161 0.0023070981 0.22894883 0.07550126 0.08793655
0.025239924 0.04728208 -0.05905392 0.09655568 0.02747375 -0.08049616 -0.08129264 -0.034163978
0.00036242142 -0.07163807 0.080065034 -0.15642753 -0.22790468 0.063792065 0.08922183 -0.14865851
-0.01131666 -0.2789768 -0.06607908 -0.122407004 0.040132586 -0.10443905 -0.033744983 -0.2408606
0.07783828 -0.022667315 -0.0600683 -0.057587057 0.04814308 0.13282211 0.030831687 0.10350094
0.06493392 0.020245504 -0.40931305 -0.0059163757 -0.068650566 -0.016571745 0.03771004 0.01628151
-0.011304565 -0.104493044 0.1682733 0.017873479 0.0065958025 -0.06318769 0.09081493 0.016853692
0.09584537 0.15412088 -0.07830924 0.08456936 0.1807313 0.032465372 -0.19640918 -0.09553035
-0.17800118 0.006669721 -0.010526398 -0.03188603 0.011211985 0.09150908 -0.05915857 0.070349306
-0.019495407 -0.08003588 -0.05130989 0.12096699 0.09267961 -0.06300342 0.1270337 -0.038494296
0.11096002 -0.015694583 0.21932667 -0.102916464 0.0718528 0.038251493 -0.023875844 -0.11309051
00000000: ccfd 79bb 7f8b 6cba d435 8e3c 509c 173e
00000010: ce20 3f3e 154c 9ebd 685e c53d 6b25 353e
00000020: f73f 8e3d 4866 34bd 7316 ae3d d101 f83d
00000030: 5662 fdbc f30d a33d 4cdd 333d c02d 3c3d
00000040: 9ce8 5ebe 24db 013e 9f9f 03bd d8b5 343d
00000050: f875 15be 7ab1 ef3c 9284 793d cdc4 d9bc
00000060: 6ca5 3f3d cf72 6dbd aa29 2abe 3fcc 4d3e
00000070: e6a4 0b3e 602b 383d 8f48 cebd e586 35bd
00000080: 6dc7 893d 5bbf 863b fa76 21be ceb7 dd3d
00000090: ac43 1c3e 0317 d93c e8ea 5abb 2718 9e3c
000000a0: fb1d a9bd 03d0 003e 2dbe 4c39 7d97 bfbd
000000b0: 56e0 e63d 21ed bbbd 751b 3d3d 653c 303e
000000c0: 025f 57bd 75a0 cf3d 7fd8 d9bc 3ab1 713d
000000d0: d50f 3dbd 273a 943d ed0e c3bd 115a aa3b
000000e0: d235 823c 6495 833c 35ef 8a3d 6059 a4bd
000000f0: 458f f63d acc1 d5bc 32b6 31bd 6de3 063c
00000100: 6587 61be ee23 5dbe 4a98 cd3d 47c0 33be
00000110: 7165 f0bd 9ebf 1ebd 820e 46bd 75fc e9bd
00000120: d205 23bd 2699 51be f342 db3d ab96 ad3e
00000130: 8429 bc3d c4b2 863d aaa7 a63d e8b0 933d
00000140: c173 223e 7f01 2b3d 87eb 323e d068 21be
00000150: 201d 3b3c 7156 9cbc 1e8b 9bbd 80a0 523e
00000160: 6273 233d d7aa 16be 35b9 cb3d d9f6 debd
00000170: 5b41 e73a f1f1 b3bc 6644 f13c 062b 953d
00000180: 6277 ba3b 5ba4 7cbd 9191 923c 10e0 5bbe
00000190: 76e9 073d a296 873b d068 3c3e b01f 68bd
000001a0: 9835 bebc 887b b4bc 7de3 9fbe 1c76 e7bd
000001b0: 8f69 353c ddbf a7bd 5dd0 06be c087 2d3e
000001c0: 5b7e f0bd 5e31 75be 7530 94bd 5f88 9cbd
000001d0: 4436 713d 1a04 6cbd 7e30 893c 4a10 093e
000001e0: 28c1 a93d 3e24 253e e620 273b 3dd4 e93d
000001f0: 4714 c3bd 477b d33d a305 d1bd 1c68 46be
00000200: d19e 9d3d 8629 ebbc 8579 ffbc f905 d93d
00000210: 2d14 6d3e f1fb 00bc 718f 89bb 0627 0abe
00000220: 2f9c c83d 2a03 93be 510a b4bc 40fc 263d
00000230: 91dc 93bd 5b78 f9bb ba99 1cbe 8e10 c1bd
00000240: f0c0 47bd e8fd 58bd 9b30 3a3d b7dd 773d
00000250: b179 85bc b1b1 f0bc aaf4 70bd 448d aabd
00000260: 5400 c23c 9bae e1bd 5938 ca3d f6e7 0abe
00000270: ff23 f2bc bb89 bf3b 8afe f43c 955f f4bd
00000280: 7476 fabd bdf3 debb 9da5 103b b6a1 27be
00000290: 09a5 b6bb 1ba5 e9be 1412 193e 5aef a63d
000002a0: c826 40bd 205c 58bd d95e a0bc 1207 a4bd
000002b0: af32 173b 9071 6a3e 68a0 9a3d 1418 b43d
000002c0: f5c3 ce3c dbaa 413d 86e2 71bd fcbe c53d
000002d0: a110 e13c 2cdb a4bd c17c a6bd 87ef 0bbd
000002e0: 6103 be39 fbb6 92bd 23f9 a33d 8a2e 20be
000002f0: d85f 69be 6aa5 823d efb9 b63d f039 18be
00000300: 8369 39bc 0cd6 8ebe 7854 87bd 86b0 fabd
00000310: 1162 243d 24e4 d5bd 2e38 0abd 29a4 76be
00000320: ad69 9f3d ceb0 b9bc 2e0a 76bd 68e0 6bbd
00000330: ae31 453d 8502 083e bc92 fc3c 4df8 d33d
00000340: 13fc 843d e6d9 a53c 7b91 d1be 28de c1bb
00000350: ab98 8cbd 78c1 87bc d875 1a3d cd60 853c
00000360: c836 39bc 7300 d6bd d64f 2c3e 676b 923c
00000370: 9a21 d83b 8c68 81bd 2efd b93d c110 8a3c
00000380: 944a c43d ddd1 1d3e 9860 a0bd b332 ad3d
00000390: a011 393e 69fa 043d 7d1f 49be 6ba5 c3bd
000003a0: f145 36be ad8d da3b ea76 2cbc ed9a 02bd
000003b0: 79b2 373c 1d69 bb3d 4250 72bd 4c13 903d
000003c0: d5b4 9fbc dae9 a3bd 522a 52bd 8bbd f73d
000003d0: cfce bd3d f007 81bd 1f15 023e 32ac 1dbd
000003e0: 023f e33d ed91 80bc 2c97 603e dec5 d2bd
000003f0: 9027 933d 99ad 1c3d 4697 c3bc ff9b e7bd

mu.bias f4 [21]
0.4374015 0.02257138 -0.15913495 -0.46828485 0.046398908 -0.21050517 1.4432042 -0.6272486
0.3482989 -0.30879423 -0.13578427 0.32919684 0.80019087 0.1623382 0.66033095 0.64768034
-0.7384008 0.46192646 1.0001447 0.16841632 1.4060305
00000000: 17f3 df3e 9de7 b83c 46f4 22be 08c3 efbe
00000010: c80c 3e3d ab8e 57be eaba b83f 5d93 20bf
00000020: 3c54 b23e 471a 9ebe 080b 0bbe 7d8c a83e
00000030: 4fd9 4c3f fc3b 263e 730b 293f 61ce 253f
00000040: d607 3dbf a081 ec3e be04 803f 5475 2c3e
00000050: cff8 b33f

log_sigma.weight f4 [21, 256]
0.029270383 -0.016693398 0.0132302055 0.009106797 0.03720769 -0.06391627 0.01589886 0.027523087
0.0072744098 -0.012052567 0.01128208 0.021910919 0.009510459 0.010672497 -0.0007172981 0.0015876808
0.0020431639 0.017030591 0.017486868 0.016429082 -0.02975546 -0.0031562226 0.057228427 0.009096463
0.010994378 -0.001649104 -0.01634993 0.018691761 0.06205687 -0.0065414747 -0.013449075 -0.012257113
-0.009619761 0.024053462 -0.023449363 0.022561213 -0.004852676 0.022452021 0.00036943494 -0.020732123
0.0025766166 0.009729016 -0.0073570726 -0.040881384 0.049490876 -0.018311085 0.034508664 0.078581
-0.007969887 -0.023800721 -0.0038643975 -0.0059604687 -0.03734866 0.011925655 -0.014714488 8.660005e-05
-0.006070846 0.01012927 0.01330978 0.0058413725 0.03872489 -0.02108455 -0.02826059 -0.012057604
-0.029595662 -0.0060865805 -0.00075445196 -0.03847569 -0.01620042 -0.022259405 -0.019431619 -0.025558725
0.0105813015 -0.033891547 0.004250885 0.06622562 0.0012708652 -0.004464101 0.011258384 -0.005054593
0.04430811 -0.011162948 0.008446174 -0.019871268 0.0070947264 -0.002215588 -0.023851437 0.043578703
0.030859128 -0.016319714 0.027486568 -0.0301814 -0.005384939 -0.008336234 -0.0021216397 0.014356218
0.015265843 -0.0061129592 -0.004754557 -0.014327063 0.0034408378 0.008119708 0.016838694 -0.02159886
-0.022489125 -0.007876675 -0.025146632 -0.009347012 0.02496988 0.0065943664 -0.0018940512 0.045900602
-0.016653795 -0.026077567 0.012457973 0.0006419734 5.604355e-05 0.026651584 0.009002354 0.0054681096
0.0012090636 0.019460062 -0.0069376184 0.01987731 -0.039594334 0.02288193 -0.05848756 0.006514338
0.004737592 -0.010420242 -0.015718173 0.013356473 0.014505058 -0.01761455 0.010254957 0.01189399
0.02199468 -0.03212014 0.009195518 0.0030785177 -0.026057232 0.009091539 -0.021987453 -0.013097815
-0.021435596 -0.013241111 -0.003688588 0.013495325 0.012392161 0.00559661 0.02961888 -0.023758776
-0.013876337 -0.018091219 0.0067652618 0.004353898 -0.0025542537 -0.013985404 -0.0156952 -0.03368453
0.0035006409 -0.0035159239 -0.0077562355 0.00410327 -0.01966108 -0.013823513 0.032209266 -0.0002447908
0.0059272572 0.016982542 -0.031000776 -0.009517243 -0.013895766 0.05728953 0.028288903 0.024674796
-0.008518292 0.009072939 -0.016425394 0.011001703 0.005459116 -0.009709872 -0.016263327 0.024169315
-0.011339358 -0.007907191 0.023986278 -0.017328989 -0.04183115 0.02671377 0.009301825 -0.018199554
-0.008375243 -0.055420093 -0.021445347 0.0031956565 0.016910393 0.01775922 0.008815659 -0.051987205
0.0033992326 -0.01088028 0.01310653 0.0047889925 0.028833479 0.020057984 0.013994744 0.033307068
0.004463966 -0.0022523985 -0.01885536 -0.007265397 -0.022344356 0.004300626 0.007475491 0.0010546064
0.0035664449 -0.033549268 0.01781606 -0.023829784 0.012167444 -0.023131473 0.009235002 0.00013673883
0.0038348902 0.007622789 -0.027976956 0.011990766 0.05407732 0.010424408 -0.028365575 -0.026285294
-0.031269114 -0.0032166424 0.0062659704 -0.017194204 0.00834404 0.00925077 8.923635e-05 -0.0134569295
-0.011860169 0.01009671 -0.0062069893 0.030031092 0.003071804 -0.0020174764 0.014490182 -0.0142349955
0.031117233 -0.029133925 0.017019056 -0.026825337 0.010569161 0.0016916395 0.017631525 -0.021820026
00000000: 71c8 ef3c 98c0 88bc 81c3 583c ad34 153c
00000010: 1767 183d 89e6 82bd 533e 823c 1978 e13c
00000020: 2c5e ee3b 2178 45bc 79d8 383c 877e b33c
00000030: c2d1 1b3c b2db 2e3c 1009 3cba ba19 d03a
00000040: 9ae6 053b bd83 8b3c 9f40 8f3c 4896 863c
00000050: b9c1 f3bc a1d8 4ebb 5b68 6a3d 5509 153c
00000060: c321 343c bf26 d8ba 4af0 85bc 771f 993c
00000070: 582f 7e3d de59 d6bb 8259 5cbc 0fd2 48bc
00000080: 349c 1dbc c40b c53c e118 c0bc 4bd2 b83c
00000090: 3203 9fbb 4ded b73c b8b0 c139 6ad6 a9bc
000000a0: 74dc 283b 7366 1f3c 9913 f1bb 3d73 27bd
000000b0: f2b6 4a3d 2101 96bc f558 0d3d 13ef a03d
000000c0: 2194 02bc bbf9 c2bc d541 7dbb 0950 c3bb
000000d0: e9fa 18bd d363 433c 0915 71bc 0c9d b538
000000e0: f3ed c6bb 3df5 253c 4311 5a3c fc68 bf3b
000000f0: fe9d 1e3d 82b9 acbc c182 e7bc 428d 45bc
00000100: 9a72 f2bc f071 c7bb 6ac6 45ba af98 1dbd
00000110: beb6 84bc 5b59 b6bc 0f2f 9fbc 8860 d1bc
00000120: 325d 2d3c ddd1 0abd 024b 8b3b 4ca1 873d
00000130: 2993 a63a 9847 92bb 1675 383c 00a1 a5bb
00000140: 6c7c 353d cce4 36bc d261 0a3c 12c9 a2bc
00000150: e17a e83b 6633 11bb 1764 c3bc 957f 323d
00000160: 48cc fc3c ecb0 85bc 832b e13c fc3e f7bc
00000170: 2474 b0bb b394 08bc 350b 0bbb 5836 6b3c
00000180: 961d 7a3c 384f c8bb 1dcc 9bbb 0fbc 6abc
00000190: ae7f 613b 8608 053c 4df1 893c 18f0 b0bc
000001a0: 1d3b b8bc 2b0d 01bc 4f00 cebc 3624 19bc
000001b0: a28d cc3c 8e15 d83b d041 f8ba 4502 3c3d
000001c0: 8a6d 88bc 9fa0 d5bc 871c 4c3c 1b4a 283a
000001d0: 4e10 6b38 6c54 da3c 9c7e 133c d42d b33b
000001e0: 7179 9e3a b56a 9f3c f654 e3bb bed5 a23c
000001f0: ab2d 22bd e372 bb3c a790 6fbd 3a76 d53b
00000200: cd3d 9b3b aab9 2abc 66c3 80bc 1cd5 5a3c
00000210: 9fa6 6d3c 644c 90bc 6804 283c 03df 423c
00000220: 302e b43c 6890 03bd cca8 163c f5c0 493b
00000230: fa75 d5bc aef4 143c 081f b4bc 3898 56bc
00000240: b499 afbc 3ff1 58bc 3dbc 71bb 7f1b 5d3c
00000250: 7e08 4b3c c463 b73b 4ba3 f23c c4a1 c2bc
00000260: 9359 63bc 0934 94bc 21af dd3b 25ab 8e3b
00000270: 4465 27bb 0923 65bc 3893 80bc caf8 09bd
00000280: 026b 653b 6a6b 66bb 0528 febb b974 863b
00000290: 4610 a1bc 047c 62bc dded 033d 4457 80b9
000002a0: 7039 c23b f91e 8b3c 57f5 fdbc 36ee 1bbc
000002b0: 11ab 63bc 6da8 6a3d 21be e73c cc22 ca3c
000002c0: 4e90 0bbc aaa6 143c 8c8e 86bc 7d40 343c
000002d0: 62e2 b23b 2816 1fbc ab3a 85bc bafe c53c
000002e0: b7c8 39bc 2a8d 01bc df7e c43c 86f5 8dbc
000002f0: 2457 2bbd d6d6 da3c af66 183c 3b17 95bc
00000300: 5138 09bc 2e00 63bd 27ae afbc 386e 513b
00000310: aa87 8a3c c97b 913c 8e6f 103c 89f0 54bd
00000320: a9c5 5e3b 3443 32bc c5bc 563c fbec 9c3b
00000330: 3034 ec3c a450 a43c 364a 653c fe6c 083d
00000340: 7646 923b fa9c 13bb 8e76 9abc 9112 eebb
00000350: 830b b7bc 44ec 8c3b f7f4 f43b b83a 8a3a
00000360: 04bb 693b f56a 09bd fcf2 913c ae36 c3bc
00000370: f659 473c 377e bdbc 684e 173c 8d61 0f39
00000380: c852 7b3b 97c8 f93b ee2f e5bc eb74 443c
00000390: 2e80 5d3d 23cb 2a3c ec5e e8bc 4254 d7bc
000003a0: 0b14 00bd 4ece 52bb c552 cd3b dcda 8cbc
000003b0: 71b5 083c 8b90 173c 6724 bb38 747a 5cbc
000003c0: 2751 42bc ac6c 253c 0064 cbbb c403 f63c
000003d0: 5250 493b a337 04bb 3a68 6d3c e639 69bc
000003e0: 91e9 fe3c 45aa eebc 8c6b 8b3c cfc0 dbbc
000003f0: 462a 2d3c 01ba dd3a fd6f 903c e9bf b2bc

log_sigma.bias f4 [21]
-0.85277605 -0.93683004 -0.85455024 -0.5791593 -0.93561935 -1.2698402 -0.7486268 -0.63406914
-0.6081996 -0.561211 -0.81320864 -1.1764392 -1.01882 -0.6249462 -0.7201153 -0.7230576
-0.8342604 -1.0171274 -0.61970294 -0.7976964 -0.5746341
00000000: 884f 5abf 18d4 6fbf cec3 5abf c943 14bf
00000010: c084 6fbf 208a a2bf 02a6 3fbf 5b52 22bf
00000020: f8b2 1bbf 86ab 0fbf 712e 50bf 8f95 96bf
00000030: b268 82bf 79fc 1fbf 7a59 38bf 4e1a 39bf
00000040: 1792 55bf 3b31 82bf daa4 1ebf d535 4cbf
00000050: 381b 13bf
