Q3/2750.ckpt (torch, 378716 bytes, 8 tensors)

fc1.weight f4 [256, 67]
000000 27 b9 d2 bd e7 19 0a be 8d ea f5 be 3b 7e 9e be
       -0.10289221 -0.13486443 -0.4803051 -0.3095568
000010 e5 28 84 be f7 b5 57 3e 91 26 9a 3e 54 8c 18 c0
       -0.2581245 0.21065508 0.3010755 -2.383565
000020 b9 08 aa be 2b 51 03 3e 83 40 4e 3f 81 7b d7 be
       -0.3320978 0.12823932 0.8056719 -0.42086414
000030 5a d9 86 3e 3b fb 14 c0 e0 1f 52 3f 78 1e 38 c0
       0.263377 -2.327834 0.8207989 -2.8768597
000040 35 e8 9f 3e 22 f1 b5 3e c2 95 63 bf 84 cc 9c bf
       0.31231847 0.35535532 -0.8890039 -1.2249913
000050 26 e0 ef be 5b 89 9a 3e 7a 1d ba bd 73 06 45 be
       -0.468507 0.3018292 -0.090876535 -0.19240741
000060 48 85 8e bd 33 db 67 be 46 75 c7 bf e2 d4 79 bf
       -0.06959015 -0.22642212 -1.5582664 -0.9759046
000070 48 3c 5f 3e 26 dc 8d be 9b 0a 7d 3d a5 d9 af 3d
       0.21800339 -0.27707022 0.061777692 0.08586434
000080 d3 ec 8d 3d fc 26 bc bd 38 c9 18 be ee ed b5 3d
       0.06929936 -0.09187123 -0.14920509 0.08883272
000090 f1 b2 68 3e 76 49 2d bf 8a 6c 90 c0 b7 c3 d2 3e
       0.2272451 -0.6769022 -4.5132494 0.41164944
0000a0 e4 5e 79 3d 7d 59 72 3e 3d 6e 1b bd d6 e0 bf bc
       0.06088151 0.2366695 -0.03794693 -0.02342264
0000b0 1d 73 2e bd 0e 2a ed 3d ef 68 ee 3d e6 56 94 ba
       -0.04259025 0.11580287 0.11641108 -0.0011317402
0000c0 34 a6 b5 bc e7 ef 14 bd 60 d3 4f 3d b2 71 30 bd
       -0.022173978 -0.0363616 0.050738692 -0.04307718
0000d0 64 f8 27 3b 60 33 38 bb 5f 11 25 bc bf d3 0a 3c
       0.002563023 -0.0028106794 -0.010074942 0.008473336
0000e0 27 6f 5f bd 8f 11 8e 3c 44 5a f7 bb 87 fd 57 3b
       -0.054549363 0.017342357 -0.0075486023 0.003295751
0000f0 c5 1f f9 3b 76 ce 01 3b 75 12 f1 bb 8c 6a a4 b9
       0.007602664 0.0019806898 -0.0073569366 -0.000313599
000100 45 58 2f 3c 2c db d3 3b 9a 99 1e 3c c3 f9 ce 3d
       0.010702197 0.0064653363 0.009680176 0.10106232
000110 b8 0d 29 3e 02 9d 55 bf 92 62 22 be 8b 9b b9 3e
       0.1650914 -0.834427 -0.15857914 0.36251482
000120 51 7e 42 bf 11 d9 99 bd 0f d8 f5 3f 3c 02 28 3f
       -0.75973994 -0.07512105 1.9206561 0.6562841
000130 12 ef 4a 3f 8b ad b5 bd 23 9f 25 3d af 19 28 c0
       0.7927104 -0.08870991 0.040434968 -2.6265676
000140 01 c3 2d bf 82 0f fa be c1 16 84 be e0 cf 8b be
       -0.6787568 -0.48839957 -0.2579861 -0.27307034
000150 d3 89 e4 bf c5 5a 0e bf b9 19 06 c0 3e b8 98 3d
       -1.7854561 -0.55607253 -2.09532 0.074570164
000160 79 43 40 be d0 9b c2 3e 89 5a 56 3e 79 74 8d 3d
       -0.18775739 0.380095 0.20932974 0.06906981
000170 eb eb 73 be 43 28 ae 3f fb 32 c2 3f 14 24 4d 3f
       -0.23820464 1.3606037 1.5171808 0.80133176
000180 88 99 e6 3d 4a 90 8d 3c d9 91 24 3e 1f 78 1e 3e
       0.112597525 0.017280716 0.16071261 0.1547551
000190 43 61 64 bd b7 b8 bd 3c 63 c1 d2 bd 3a 44 2d 3e
       -0.05575682 0.023159368 -0.10290792 0.16920558
0001a0 5f 47 17 c0 9c 73 80 3e 77 db 19 40 d7 93 80 bd
       -2.3637311 0.25088203 2.40402 -0.06278198
0001b0 d2 b6 1d be 02 30 6b bc b7 9e ed bd 71 c9 d6 3d
       -0.15401772 -0.014354708 -0.11602538 0.10487641
0001c0 73 aa ff 3d 2a ae 8a 3d f9 b2 dc 3d 10 c1 49 be
       0.124836825 0.067715004 0.10776324 -0.19702554
0001d0 9b 5e ad bd 22 ee 54 bd 45 7e b6 3b ca 6b b5 bc
       -0.0846531 -0.051984914 0.0055692517 -0.022146124
0001e0 b2 66 e4 b9 d5 99 a6 3a 98 21 36 3d e0 58 0a 3e
       -0.00043564063 0.001271064 0.04446563 0.13510466
0001f0 92 9f b1 3d f2 f7 bd 3c ab 2c 0c 3c 3a 35 a8 3b
       0.08673014 0.023189519 0.008555572 0.005133298
000200 04 29 f7 39 61 a9 ba 3c 2f 3c 98 39 c7 ed 8a b9
       0.0004714207 0.022785844 0.0002903654 -0.0002649857
000210 fc 1a 9f 3c e6 3a 19 3b e2 bb fc bd 4d 57 fc bc
       0.019422047 0.0023381053 -0.12340523 -0.030803347
000220 bd 5a 66 3e 21 77 08 3f 99 db 71 bf ec 48 a3 be
       0.22495551 0.53306776 -0.94475704 -0.31891572
000230 10 61 75 bf 99 07 38 40 64 d6 1b be 00 1d a3 be
       -0.9585123 2.8754637 -0.15218502 -0.31858063
000240 67 15 28 bf ef 79 83 be 10 17 ba bf 7f b6 05 3f
       -0.6565766 -0.25678965 -1.4538288 0.5223159
000250 71 4a fc be 10 73 67 bf c3 a1 5d bf 09 79 9b 3f
       -0.49275544 -0.90409946 -0.86574954 1.2146312
000260 20 fc af bf 5a 94 46 bf 3a 06 8a 3e e0 ca 9a 3f
       -1.3748817 -0.77570117 0.26957875 1.2093163
000270 7e 5e 17 bf a3 f8 88 3d 15 39 7a 3d 0f 5c b9 bd
       -0.5912856 0.06688049 0.061089594 -0.09050762
000280 c7 a6 b0 3e 5a 03 9f 3f 25 6d 7c bc f3 01 a5 bd
       0.3450224 1.2422898 -0.015406881 -0.080570124
000290 02 40 0b be fb f3 0e be 3c f3 a4 3c 46 b8 c0 3c
       -0.13598636 -0.13960259 0.020135514 0.023525368
0002a0 a6 12 a5 3c 37 17 cc 3d 92 13 f7 bc aa 5a 59 3f
       0.020150494 0.099653654 -0.030160699 0.8490397
0002b0 c3 1b a7 40 ef 4e 0d 3f 18 b2 85 3b f5 e9 ed 3c
       5.222139 0.5519857 0.0040800683 0.029042223
0002c0 ff 1e 36 3d 21 fe 8a 3e 8f 19 c1 bc bc 79 6d be
       0.044463154 0.2714701 -0.023571758 -0.23190969
0002d0 d9 4e 66 be eb d4 85 3d 89 50 4e 3e b6 88 b6 3c
       -0.22491015 0.065347515 0.20147909 0.022281986
0002e0 bb dc 57 bd bc b8 7a 3d 26 95 43 bd ea 13 f7 3b
       -0.05270074 0.061211333 -0.04774966 0.0075402157
0002f0 bf 25 05 3c 17 c6 b9 bd 78 ce 2c 3d 3e 97 87 bd
       0.008126675 -0.09070986 0.04218909 -0.06620644
000300 b3 45 1d 3d f9 44 8e bc 66 d1 9a b9 2f f8 9c 3b
       0.03839655 -0.017366873 -0.00029529183 0.004790328
000310 b4 89 70 b9 ef d0 47 b9 22 49 5c 3c ed fb 82 3b
       -0.00022939482 -0.00019055953 0.013445171 0.003997317
000320 e1 98 0a 3c e8 9f 1f 3e 55 1b 3a bc 32 8a 80 3d
       0.008459301 0.15588343 -0.0113590555 0.06276359
000330 97 94 58 be 22 14 68 bf 99 1c 2d 3f 8a 38 8a bf
       -0.21150433 -0.9065572 0.6762176 -1.0798504
000340 a4 f7 a9 3e 21 3b 88 be 37 c4 a3 be 2d 13 90 be
       0.33196747 -0.26607612 -0.31985638 -0.2813963
000350 21 9b 3f be e4 40 81 bf c0 0e 80 bf 8d f2 be be
       -0.1871152 -1.0097928 -1.0004501 -0.37294427
000360 32 31 12 3f 70 51 39 3f ad 61 ed 3f e2 04 7e 3f
       0.57106316 0.7238989 1.8545433 0.992262
000370 ce 49 d4 3f d4 3c 07 bf cd 46 c6 3e b5 1c 3e 3f
       1.6585023 -0.5282719 0.38725892 0.74262553
000380 00 74 c2 3c b2 2b 41 bd c2 47 02 3e 58 e3 eb bf
       0.023736954 -0.04716081 0.12722686 -1.8428755
000390 36 59 b2 3f bc ea 2d 3f ed a2 09 bd b4 d2 19 3e
       1.3933475 0.679363 -0.033602644 0.15021783
0003a0 31 ff 50 be bc d5 96 3d dd d2 d7 3d ad a0 70 3d
       -0.20409848 0.07364985 0.10538266 0.058746982
0003b0 e6 a7 78 3d fd 1f 22 be 97 c2 04 c0 6d 20 0a 40
       0.060706995 -0.15832515 -2.0743768 2.158229
0003c0 b1 96 4a c0 70 17 29 bd 6f c5 91 3d de 5f 40 3e
       -3.1654475 -0.041282117 0.071177356 0.1878657
0003d0 c1 78 db 3e 16 9c be 3c ea d9 24 be c8 5a 1b be
       0.42865565 0.023267787 -0.16098753 -0.15171349
0003e0 be a7 1c be c7 7b 44 3e c6 af 18 3d 98 a2 06 bd
       -0.15298364 0.19187842 0.037277006 -0.032869905
0003f0 f0 60 f6 bd 1d 30 81 3d 5f 83 94 ba 24 23 8d 3a
       -0.12030208 0.06308005 -0.0011330656 0.0010767919

fc1.bias f4 [256]
000000 22 9f 08 3e 09 e4 19 be 08 bd e5 bf bd 65 4a bf
       0.13341954 -0.15028395 -1.7948313 -0.7906149
000010 03 94 d2 bf 0b bb c9 bd f3 22 a2 bf e9 18 5f bf
       -1.645142 -0.09850129 -1.2666916 -0.87147385
000020 32 f4 1d bf 8e 44 73 bf c4 8c 14 c0 21 b8 be 3e
       -0.6170074 -0.9502648 -2.3210917 0.37249854
000030 c3 19 09 be 74 ab cb bf 43 3c dc bf 23 61 40 3f
       -0.13388734 -1.5911698 -1.720589 0.7514822
000040 34 aa 0f be 9d 6a 71 be 63 f7 3a bf 44 00 a1 bf
       -0.14029771 -0.23575826 -0.7303373 -1.2578206
000050 41 98 85 be 7f 93 2f c0 ed 5d c8 bf 26 9c e2 bf
       -0.26092723 -2.7433774 -1.5653664 -1.7703903
000060 f3 91 89 bf ab a0 52 3d 14 af d5 3f c2 4f 96 be
       -1.0747665 0.051422756 1.6694055 -0.29357725
000070 a1 26 ef be 4d 5b 99 3f 1a 64 8e bf fc f1 61 bf
       -0.4670916 1.1980988 -1.1124299 -0.88259864
000080 4c a1 4d bf f5 25 2e 3f 76 45 32 be 1b 06 b0 be
       -0.80324244 0.6802667 -0.1740931 -0.34379658
000090 96 42 c1 3f ca 52 86 bf ef cb 7b 3e 2a aa 95 bd
       1.5098445 -1.0494015 0.24589513 -0.07307847
0000a0 c2 09 c2 bf 94 55 91 bf 08 43 e8 3e 9c 14 5a 3e
       -1.5159228 -1.1354241 0.4536364 0.21296924
0000b0 83 f3 c8 be 86 15 5c bf 96 9c 5e bf 1a ce f5 be
       -0.39248285 -0.8597034 -0.8695768 -0.48008806
0000c0 15 9b 9c bf 3a 62 f7 bf 18 24 00 c0 9e cb e0 be
       -1.2234827 -1.9326851 -2.002203 -0.43905348
0000d0 65 be 04 bf ac 86 83 3e 54 f7 dd bf 5d c8 b5 bf
       -0.5185302 0.25688684 -1.7341104 -1.4201771
0000e0 a6 9d 0d bf 08 e0 44 3f 7e d6 72 bf 81 e8 bc bf
       -0.5531868 0.76904345 -0.9485854 -1.4758455
0000f0 98 7e a0 bd 4c f6 bf 3d 3d ea 8e bf 4b 11 ac bf
       -0.07836646 0.09373149 -1.1165234 -1.3442777
000100 b1 34 91 be ac 82 d9 bf a4 0a 9d bf 77 03 7f be
       -0.28360513 -1.6993003 -1.2268872 -0.24903665
000110 3f fb 2a c0 a5 b5 ce be 93 5c 6a be b5 22 d8 bf
       -2.6715848 -0.4037296 -0.22886877 -1.6885592
000120 38 d3 84 bf d1 9a a1 bf 31 35 8d be cf bf 63 bf
       -1.0376959 -1.2625371 -0.27579644 -0.8896455
000130 63 71 7d bf 74 75 34 be 1a 51 07 c0 2f d7 c5 be
       -0.9900114 -0.1762293 -2.114325 -0.38640735
000140 da 47 49 be 94 73 05 c0 2f ff 06 bf c9 7b db bf
       -0.19656315 -2.0851793 -0.5273313 -1.7147151
000150 34 12 c6 be dc ce a4 bf c3 dc b9 bf b4 03 b8 bf
       -0.38685763 -1.2875628 -1.4520496 -1.437613
000160 3c a9 68 3e 92 06 ec 3f 6b 77 46 bf 4d 18 c3 bf
       0.22720808 1.8439505 -0.7752597 -1.5241791
000170 9c d1 a0 bf af d6 ba bf 4f 9a e9 be 26 f2 61 3f
       -1.2563968 -1.4596766 -0.4562554 0.88260114
000180 8b dc d2 3d 02 5c 7b 3f ed a6 f7 bd 48 64 af 3d
       0.102959715 0.9818727 -0.120923854 0.08564049
000190 0b 49 fc bf 30 6d 09 3f d6 15 65 bf 39 a8 d0 bf
       -1.9709791 0.5368223 -0.89486444 -1.6301337
0001a0 f4 7d 91 3f 05 63 d1 bf 5e 0c 17 bf 8e 58 c5 be
       1.1366563 -1.6358343 -0.59003246 -0.38544124
0001b0 40 35 29 bf 10 a1 80 be b8 4f 2f bf 71 88 38 3f
       -0.6609688 -0.2512288 -0.68481016 0.72083193
0001c0 2f d9 5f bf 5c 7e b3 bf 74 26 59 bf 9b d5 16 3e
       -0.8744077 -1.4022937 -0.848243 0.14729922
0001d0 05 37 38 bf 48 7a 6e bf 03 e4 21 bf af a8 53 bf
       -0.71958953 -0.93155336 -0.63238543 -0.82679266
0001e0 19 84 a1 bf 07 cd d3 be c5 ef c1 bf 2b 80 53 bf
       -1.2618438 -0.4136736 -1.5151297 -0.82617444
0001f0 e5 47 4d c0 0b 59 ee 3e 8f de 8c bf 93 93 80 bf
       -3.207513 0.4655231 -1.100542 -1.0045036
000200 a4 fb 81 be 51 ba 1f c0 78 ab 50 bf 48 37 74 bf
       -0.253873 -2.4957469 -0.8151164 -0.9539685
000210 9b 08 98 bf 0a 1c 08 bf 4c c8 f9 be 49 9f ac be
       -1.1877626 -0.53167784 -0.48785627 -0.33715275
000220 09 e6 9b bf ef 67 71 bf e9 d7 df be e3 60 c1 3e
       -1.2179576 -0.94299215 -0.43719414 0.3776923
000230 6d de 27 3f 7a 5a c6 bf 6e b8 75 bf a8 66 1e bf
       0.6557377 -1.5496361 -0.9598454 -0.6187539
000240 ed 8b 08 3b 88 76 ec be 74 01 e1 bf a0 47 c8 bf
       0.0020835355 -0.46184182 -1.7578568 -1.5646858
000250 49 11 8c 3d 8e d4 f0 3e e8 66 ab bf e8 c3 ad 3d
       0.068392344 0.47037166 -1.339078 0.08484632
000260 c8 91 fc bf fd 2a f5 bf a9 e2 75 be 05 b1 e6 bf
       -1.9731989 -1.9153744 -0.24012245 -1.8022772
000270 34 f3 66 bf 5e 46 b1 bd b7 39 01 c0 a8 90 33 bf
       -0.9021485 -0.086559996 -2.0191476 -0.701426
000280 51 fb 1d bf 91 eb ed bf e8 e6 3f bf 02 3d fa bf
       -0.61711603 -1.8587514 -0.7496171 -1.9549868
000290 e4 15 a8 bf 05 f4 04 bf e4 68 bd 3e da 9d c3 bf
       -1.313168 -0.51934844 0.36994088 -1.5282547
0002a0 b7 31 5e bc be 96 0f 3e 1b 43 b7 bf 64 f4 b0 bf
       -0.013561658 0.14022347 -1.4317354 -1.3824582
0002b0 b4 d4 ee bf c2 15 b8 bf 6e 76 79 bf 6c a2 75 be
       -1.8658662 -1.438164 -0.97446334 -0.2398774
0002c0 d2 d6 13 bf 1a 00 8a bf d1 cd d0 3e c5 54 da bf
       -0.57749665 -1.0781281 0.40782025 -1.705712
0002d0 89 a2 3a bf 92 4c ad bf 22 db 85 bf 3f 2b f7 bf
       -0.7290426 -1.3538992 -1.0457499 -1.9310073
0002e0 05 16 3f 3f 53 a2 12 bf 8b 65 40 bf 04 de e9 be
       0.74642974 -0.5727894 -0.7515494 -0.45677197
0002f0 f8 a5 86 3f 4f fa 64 bf 70 04 33 bf 2e 61 9b bf
       1.05194 -0.8944444 -0.69928646 -1.2139032
000300 08 b0 58 c0 8d a7 7f bf e6 c8 28 bf 7b ff 30 bf
       -3.385744 -0.9986504 -0.65931547 -0.6913983
000310 fc fa 64 bf 10 d2 72 3e ba 85 41 bf ce 77 11 3e
       -0.8944547 0.23712945 -0.75594676 0.14205858
000320 0a b5 83 be ca 02 3d bf 41 35 98 be 76 e8 9a bf
       -0.2572406 -0.7383238 -0.2972813 -1.2102191
000330 f8 95 1c 3f 61 20 36 bf 00 54 ff bf ba c7 96 bf
       0.61166334 -0.71143156 -1.994751 -1.1779702
000340 2c 88 0c c0 2b cd 70 bf 43 67 2b bf ae b0 82 bd
       -2.1958113 -0.9406306 -0.6695444 -0.06381355
000350 da b0 90 bf d6 36 f1 bf a1 c7 06 c0 f7 33 a3 bf
       -1.1303971 -1.884486 -2.1059344 -1.2750233
000360 3a 59 05 be 9b 36 c1 be ac e0 ef be 06 ad a6 be
       -0.13022318 -0.37736973 -0.468511 -0.3255388
000370 31 8d ae bf c1 b6 0e be c6 27 09 c0 ac 4b 22 bf
       -1.3636838 -0.13936903 -2.1430526 -0.63396716
000380 e4 60 c3 bf 6a 39 86 be 8c 1f 9f bf 52 29 98 bf
       -1.5263944 -0.26215678 -1.2431502 -1.188761
000390 de 8a c3 be 35 d9 0e c0 ee a3 8a be 86 85 e8 be
       -0.38191885 -2.2320073 -0.27078193 -0.4541437
0003a0 a7 cc 86 3f 66 49 90 bf c0 88 81 bf 28 f6 c6 bf
       1.0531205 -1.12724 -1.0119858 -1.5543871
0003b0 bb c9 f6 3e 44 86 35 ba c1 40 88 bf be af a1 be
       0.48200783 -0.0006924609 -1.0644761 -0.31579393
0003c0 5b 14 b2 bf 7c 01 87 bf b9 32 d5 bf ab 3b 1e c0
       -1.3912462 -1.0547328 -1.6656104 -2.4723918
0003d0 3a 5f 0d bf 95 87 8d bf 74 5e a9 bf ed c2 8a 3e
       -0.5522343 -1.1057001 -1.323195 0.27101842
0003e0 b7 96 d7 3d 2b fc 65 3d fb 4a 0b c0 65 d0 20 bf
       0.105267935 0.05614869 -2.1764514 -0.62817985
0003f0 34 5e e8 bf fb b6 28 bf 89 5b e8 be bc fa e9 be
       -1.8153749 -0.65904206 -0.45382336 -0.45699108

fc2.weight f4 [256, 256]
000000 c1 ae 91 be e4 0d 08 3e c3 f9 03 be 73 7d a0 be
       -0.2845364 0.13286549 -0.12888245 -0.3134571
000010 66 05 26 bd 45 f6 24 3e 49 46 10 be 4d 84 0c 3e
       -0.040532492 0.1610957 -0.14089312 0.13722344
000020 64 e3 e3 bd 62 c4 8c be 1c ac 48 be a7 b7 e0 3e
       -0.11127356 -0.27493578 -0.19596905 0.43890116
000030 ef 5f af bf 7a 3a 88 be 2c 21 9a be c3 bb e7 3d
       -1.3701152 -0.26607114 -0.30103433 0.113151096
000040 27 53 c6 bd 0d ce b1 3e cb d3 e2 be d7 22 ac be
       -0.09683829 0.34727517 -0.4430221 -0.3362033
000050 57 f3 07 c0 4d fb f3 bd c1 c2 56 be 73 d8 58 3d
       -2.1242273 -0.11913166 -0.2097273 0.052940797
000060 38 fe 09 3e 8c 50 b4 be e5 84 22 be aa c7 be be
       0.13475883 -0.35217702 -0.15871008 -0.37261707
000070 23 68 92 be eb 90 d1 bd e1 8e 52 3b 60 5f 4b 3c
       -0.28595075 -0.10232719 0.003212862 0.012412876
000080 92 dc da be f4 c8 0f be e4 e3 5e 3e 57 12 af 3d
       -0.42746407 -0.14041501 0.21766621 0.0854842
000090 72 c6 54 be d4 e6 90 3e 72 f5 d3 be 30 4b b7 3e
       -0.20778826 0.28301108 -0.41398197 0.3579955
0000a0 09 c5 27 be 87 3a a1 3d 1e 59 0c bd 63 c1 43 3f
       -0.16383757 0.07872491 -0.034264676 0.7646696
0000b0 35 a8 56 3e 67 3c fe bb 2d 31 38 3d 70 58 a5 3e
       0.20962603 -0.0077586654 0.044968773 0.32294035
0000c0 5c 6d 11 be dd 23 b6 3c 4b a5 44 bf 32 26 a6 bf
       -0.14201874 0.022233898 -0.7681472 -1.2980406
0000d0 2e 94 3b 3e 7a 7d 0e bd 9e 6f 51 3e 4c c1 d7 be
       0.18318245 -0.034787633 0.20452735 -0.4213966
0000e0 e0 dc 65 be 4c 64 59 3e f1 a8 8b bc f8 1f d6 3e
       -0.22447538 0.21229666 -0.017048331 0.41821265
0000f0 1f 47 59 be 8d 62 9c 3e 59 bd 62 be e7 39 b0 3c
       -0.21218537 0.30543938 -0.22142543 0.021511985
000100 c0 80 e5 bf 24 b2 8a 3e fc 3a 5e bb 65 33 da bc
       -1.7929916 0.27089036 -0.003390967 -0.026635835
000110 e1 5e 2a bf a0 40 09 3e 58 3a 66 3c 90 15 5e 3d
       -0.66551024 0.13403559 0.014051996 0.054219782
000120 4b 79 02 be eb 10 8e 3e 1a 59 66 be 2f 29 0b 3f
       -0.12741582 0.27747282 -0.22494927 0.54359716
000130 18 e9 dd be 9a fb 23 bd fb 71 bd be af 0e 8e 3e
       -0.433419 -0.040034868 -0.37001023 0.27745578
000140 28 af a7 3e ba 18 20 bc f7 39 95 be 99 f4 ed bd
       0.3275082 -0.00977152 -0.29145786 -0.11618919
000150 43 e9 36 bd 4d 29 77 be 5a 06 2a 3f 55 56 13 bc
       -0.04465605 -0.24136849 0.6641594 -0.008992751
000160 83 b1 c9 bf 50 eb b2 be d2 a9 b9 bd 01 9b ed be
       -1.5757297 -0.34945154 -0.09065594 -0.4640732
000170 8b 23 63 be 49 a4 14 bf ca 5b 25 bd 3d 82 70 bf
       -0.22181527 -0.5806318 -0.04037074 -0.9394873
000180 c4 70 9e 3e de c2 6b be 43 42 b9 3e 80 64 7d bd
       0.30945408 -0.23023555 0.36183366 -0.061863422
000190 5a ad 00 bf cd b0 58 bf 7b f6 cf 3e 79 b1 ae bd
       -0.50264513 -0.84644777 0.40617737 -0.08529944
0001a0 6e 4a be bc f9 5a 50 bd c0 e8 82 3e 45 cf 94 3e
       -0.02322885 -0.05086801 0.255682 0.29064384
0001b0 3a 01 2b be 67 f4 47 3e 7e 23 5d be 55 98 1c 3d
       -0.16699687 0.19526826 -0.2159557 0.038231213
0001c0 3d e3 85 be fe 87 9c bd f6 8c 6a 3e 9d 5f b7 3c
       -0.26149932 -0.07643126 0.22905335 0.02238446
0001d0 14 be 48 3e e7 3d 6e bd 20 a3 07 3f 5f 79 50 3e
       0.19603759 -0.058164503 0.52983284 0.203588
0001e0 a1 73 97 be d3 b6 94 3d 9a 0a 90 be 75 02 9a 3d
       -0.29580405 0.072614335 -0.28133088 0.0752
0001f0 89 ea 88 be a6 44 2c bd 09 f2 98 be c7 dc 0f bd
       -0.26741436 -0.042057656 -0.29872158 -0.03512266
000200 79 6e c8 be ae 93 d6 be e7 04 23 3f a8 be 21 bf
       -0.39146784 -0.41909546 0.63679355 -0.63181543
000210 bc 8e 32 3e c1 21 b2 bf 67 e5 e1 be 30 ac 94 3d
       0.17437261 -1.3916551 -0.44120333 0.07259405
000220 dd 7b 7b 3e a4 b4 81 be 02 c3 97 3f 15 fa ba bf
       0.24558969 -0.2533313 1.1856387 -1.4607569
000230 50 9c 54 3e c3 67 b7 bd 00 b5 fb bd 73 3c 1d be
       0.20762753 -0.08955338 -0.122903824 -0.15355091
000240 8e ab 59 be 8d 06 72 bd 4a 35 04 3d 6b 4f 9d bd
       -0.21256849 -0.05908828 0.032277383 -0.076811634
000250 1c 14 85 bd 7e 4a bd bf fc 47 d1 3d 63 15 08 bc
       -0.06497976 -1.4788358 0.10218808 -0.00830588
000260 b9 20 eb bd 5c 8f 15 bf bf c1 00 3e 73 82 23 3d
       -0.11480851 -0.58421874 0.12573908 0.039919328
000270 6c ae 34 bd 74 ce 98 bd 1f 67 1d 3e c3 ac c8 3e
       -0.044111654 -0.07461253 0.15371369 0.39194307
000280 64 a9 c4 bd 70 5c 51 3e 77 b2 2e bd 85 a4 72 3e
       -0.09602621 0.20445418 -0.042650666 0.23695572
000290 6d a3 95 3e 2d 28 85 be 90 3b b9 3d 39 7b 9f bd
       0.29226246 -0.26007214 0.09044564 -0.07787175
0002a0 da 96 05 bc 6d a7 c1 bc 7c d2 ab 3e 96 10 83 bc
       -0.008153642 -0.023639405 0.33559024 -0.01599912
0002b0 b5 2b 19 c0 6f 2c 39 bd e6 7e 13 bf a3 ae b8 bd
       -2.3932927 -0.04520839 -0.57615507 -0.09017684
0002c0 64 d8 a0 3e 76 4d 01 be 0e ae 8c 3e bc fb 71 ba
       0.31415093 -0.12627205 0.27476543 -0.0009230932
0002d0 fe 46 0a 3f 47 1b a7 be 31 54 66 be f2 01 d3 3d
       0.54014575 -0.32637998 -0.22493054 0.103031054
0002e0 12 fe 02 3b 5f b7 6d 3d ac d5 1a 3e 7d 54 33 bf
       0.0019987863 0.058036204 0.15120572 -0.70050794
0002f0 48 65 2a 3d d3 ff 3e be ae 86 51 bc d3 c1 85 3f
       0.041600496 -0.18652277 -0.012788458 1.0449775
000300 83 61 c5 be df da c1 3d 32 8e 14 bd e6 be 4a be
       -0.38550958 0.094655745 -0.03626842 -0.19799384
000310 e2 5d 10 3e 9c 19 c1 3e 6f 91 09 3c 5f 00 3c 3e
       0.14098313 0.3771485 0.0083964905 0.18359517
000320 03 98 53 be 8c 4e 7f 3e 4c e3 af bd b0 0d a4 be
       -0.20663457 0.24932307 -0.08588275 -0.32041693
000330 08 68 27 3f cc b8 f8 be 0c 45 93 3d a6 51 6a 3e
       0.65393114 -0.4857849 0.07190904 0.22882709
000340 3f 72 33 bd b0 f9 92 be aa 97 87 3e 57 08 d9 bc
       -0.043810125 -0.2870612 0.26482898 -0.026493235
000350 99 e0 08 3e d9 2f 6e 3e 7d fa 1a 3f da 46 e1 be
       0.13366927 0.2326044 0.60538465 -0.43999368
000360 0f 4d 96 be 36 bf 01 3f 15 45 13 3f 0d fe 22 3f
       -0.29355666 0.5068239 0.57527286 0.636689
000370 28 dd bb 3e 4b 47 c5 3e 3a c7 4c bd f2 65 90 be
       0.36692166 0.38530955 -0.049994685 -0.28202778
000380 0f 5c be be 8c cb 3b bf 69 08 23 bf c4 39 e1 bc
       -0.3717961 -0.7335746 -0.6368471 -0.027493365
000390 47 39 89 3d 02 e9 cf bc 77 23 6d bf 39 bd b3 bd
       0.06700378 -0.025379661 -0.9263224 -0.08776326
0003a0 02 09 10 3f 98 2d 9d be 59 9c 1a 3e ba 18 eb 3e
       0.56263745 -0.30698848 0.15098704 0.45917302
0003b0 9b 4f 35 3e 63 95 fa 3d 29 6b 63 3e 6d 6a a1 3d
       0.17706148 0.122355245 0.22208847 0.07881627
0003c0 c1 c7 f5 be 67 01 f7 bd 7c c4 98 be 59 49 73 3e
       -0.48003963 -0.12060814 -0.29837406 0.23758449
0003d0 e1 33 01 3e c5 3a 99 be d6 f2 9f be 50 02 9d 3f
       0.12617446 -0.2992765 -0.31239957 1.2266331
0003e0 91 e8 04 3f 68 e6 50 bd 16 14 14 be 17 64 34 be
       0.5191737 -0.051000983 -0.14460787 -0.17616306
0003f0 9f e7 9d be 31 46 4c 3d 73 0c e8 3d a0 2e c2 3e
       -0.30840775 0.049871627 0.113304995 0.37926197

fc2.bias f4 [256]
000000 17 65 6c bc c8 2c e5 be 69 0a fb 3d fc 87 f3 be
       -0.014428399 -0.44760728 0.12257845 -0.47564685
000010 06 22 52 bd 5e df a2 3f 78 28 84 3d 00 35 d2 bf
       -0.05130198 1.2724416 0.06453031 -1.6422424
000020 08 3b 17 3d 49 54 f7 be 81 e6 01 3f c9 7f b4 3f
       0.03692153 -0.48306492 0.50742346 1.4101497
000030 52 a5 0b be 55 30 5e 3f 35 8e 0b 3f cd f3 76 3f
       -0.13637283 0.867925 0.54513866 0.9646576
000040 f3 ab 36 bf 46 f3 8a bf 60 19 ce be 2e b1 74 bf
       -0.71356124 -1.0855491 -0.40253735 -0.95582855
000050 a4 9c 8a be 0e 22 bc bb ed 4c 8e 3f 7e 2d c2 3e
       -0.27072632 -0.0057413643 1.1117226 0.37925333
000060 e1 d0 26 3e 90 90 98 bd 92 5b 2e 3e f4 44 81 3f
       0.16290618 -0.07449448 0.17027119 1.0099168
000070 01 17 f4 3f a1 ee 1d 3e aa 76 32 3f 97 15 06 3f
       1.906952 0.15423061 0.69712317 0.52376693
000080 50 72 a4 3e c1 9d bd 3f 46 1b 3e bf 61 21 0f 3f
       0.32118464 1.4813768 -0.74260366 0.5591031
000090 74 51 79 3e 3e c2 36 bf ce 06 60 be 34 74 40 3d
       0.24347478 -0.7139014 -0.21877596 0.04698582
0000a0 ee 48 29 3f a7 50 74 3f bb 88 71 bf 6c 0e 21 bf
       0.66126907 0.95435566 -0.9434926 -0.6291263
0000b0 04 53 82 3c a9 4d a4 be 79 1c bc 3d bb 74 ad bd
       0.015908726 -0.320905 0.09185118 -0.0846953
0000c0 9e 6c 49 3f 7c e0 6c 3f ef 44 e4 3e da ae 2e be
       0.7868136 0.92530036 0.44583842 -0.17058888
0000d0 ba 8d bb 3f 81 4f 4e 3f 5e f7 24 3f c4 bd f4 3e
       1.4652627 0.80590063 0.6443995 0.4780103
0000e0 7d 78 aa 3f 46 48 ea 3e 1c c4 37 be 65 41 12 3f
       1.331802 0.45758265 -0.17945904 0.57131034
0000f0 b3 43 8e bd 00 cf 3c 3f 2c 81 fd be 44 a8 8b bf
       -0.06946506 0.73753357 -0.49512613 -1.0910726
000100 15 2b 1e 3f 49 e4 3f 3f 8d a9 01 bd 82 1b a4 bf
       0.6178449 0.7495771 -0.031655837 -1.2820895
000110 0e 11 59 be 5c a6 e4 3e cf 18 8e 3f 1e d7 70 3f
       -0.21197912 0.44658172 1.1101321 0.9407824
000120 fc 43 43 bd d6 97 df 3e 12 0b 34 3e ef e1 21 3e
       -0.047672257 0.4367053 0.17582348 0.15808843
000130 38 3e c6 3e f5 a7 57 bf 3d 9f 96 bf d5 d7 0d be
       0.38719344 -0.8424066 -1.1767346 -0.13851865
000140 c8 41 00 3f 38 5b 5d 3f eb 06 1f bd fd ce 2a 3f
       0.50100374 0.86467314 -0.038824957 0.6672209
000150 10 3c 13 bf f6 cc cc 3e 55 65 ea 3d bf 0b 3d 3f
       -0.57513523 0.40000123 0.11445109 0.7384605
000160 11 45 22 3f cc 55 3d 3f 82 82 3a 3f f3 50 ed 3d
       0.63386637 0.7395904 0.7285539 0.115877055
000170 72 99 6c 3f fb 30 81 3e 05 f6 a4 3f 7f 23 d2 3e
       0.9242164 0.25232682 1.2887579 0.41042706
000180 01 20 db be 18 6c 1c bf e5 41 17 bf 41 1b 7b bf
       -0.42797855 -0.6110244 -0.5908492 -0.9808846
000190 5c 8f ea 3f 45 05 d8 3f 9b de 17 bf 3a 72 38 3e
       1.8325 1.6876608 -0.59324044 0.18012324
0001a0 3f cc 79 3f 9c f7 1a 3f c8 2f 09 bf 71 38 4e 3f
       0.9757728 0.6053407 -0.53588533 0.8055487
0001b0 78 18 cb 3d aa e7 22 3d 08 6f 58 3e fa 4e c7 3e
       0.099167764 0.039771713 0.21136105 0.38927442
0001c0 c9 56 92 be 10 41 21 be 51 bd 7c 3f 2e 6c e9 be
       -0.28581837 -0.15747476 0.98726374 -0.45590347
0001d0 aa 3a 23 3f 8f ee 59 3f cd b5 a5 3d bf 0a 42 3e
       0.6376139 0.85129637 0.08091316 0.18949412
0001e0 ed 10 43 bf b5 aa 8f be 5f d5 2b bf ac 47 70 3f
       -0.761977 -0.28059927 -0.67122453 0.9385936
0001f0 64 2e ab 3e 2c 50 1c be 4f 47 1b 40 4c 99 48 3f
       0.3343383 -0.15264958 2.4262273 0.7835891
000200 22 f7 a3 3e 81 3a e1 3f b9 d5 11 3d fe 16 f7 3e
       0.32024485 1.7595979 0.035604212 0.4825973
000210 43 f0 76 3e bd c6 22 be 78 aa 1d bc dd 2d ce bc
       0.2411509 -0.15896125 -0.009623162 -0.025168354
000220 cf 04 ff be 86 aa 40 bf b5 6b bc 3c 23 2f 84 3e
       -0.49808356 -0.752602 0.023000577 0.25817212
000230 dd a2 86 bf d9 a4 90 3f 5c fe a5 3e 2a 25 10 3f
       -1.0518452 1.1300308 0.32420623 0.5630671
000240 58 2e 30 bf 46 a7 83 3f 7f 6b b3 3f 9d 90 18 be
       -0.68820715 1.0285423 1.401718 -0.14898916
000250 ed e2 45 3f 75 69 8e be b2 da 8a 3e df 61 d4 3d
       0.77299386 -0.27814832 0.27119976 0.1037023
000260 18 d3 d2 3e 8b d2 10 3f ba bd a2 3f 96 af 6a be
       0.41176677 0.56571263 1.271415 -0.22918543
000270 8e 87 b9 3d 7a 28 78 bf 85 be 04 be 28 57 1b 3f
       0.09059058 -0.9693676 -0.12963302 0.60679865
000280 55 98 0c 3f 37 d0 3e 3f e5 63 d5 3e da 16 c1 be
       0.5491994 0.7453646 0.41677776 -0.37712747
000290 03 23 32 3f 59 25 ca bc 43 88 68 bf f7 86 1e bf
       0.69584674 -0.024676012 -0.9083292 -0.6192469
0002a0 cb db 88 3e 58 f0 ac 3e 21 24 73 bf 29 d0 d5 3e
       0.2673019 0.33777118 -0.94977003 0.41760376
0002b0 1b 79 1f 3f c7 71 3f 3f c9 c5 53 bf 28 00 de bc
       0.6229417 0.74782985 -0.8272367 -0.027099684
0002c0 e7 65 40 3d db df 9a 3f a3 a4 1f 3f 85 b8 f7 3e
       0.04697218 1.2099565 0.6236059 0.48382965
0002d0 87 11 1e 3e d6 27 e6 3f c3 55 41 bf 9b 80 c9 3c
       0.15436374 1.7980907 -0.75521487 0.024597457
0002e0 e7 32 4e bf 4e f9 3b bf 85 54 c4 3e 7b 5d 57 bd
       -0.8054642 -0.73427284 0.38345733 -0.052579384
0002f0 8e 4b 80 3f 0e 0b ea 3e c9 02 8f bf 55 3c d2 3e
       1.0023057 0.4571156 -1.1172725 0.41061655
000300 46 0a 41 3e 5d 09 19 40 6f 9e 9f be a9 12 7e bd
       0.18851575 2.3911965 -0.31175563 -0.062029514
000310 32 76 dd be d7 1b 6b 3f c5 62 13 be fa 4e a6 bf
       -0.43254238 0.91839355 -0.14393146 -1.2992852
000320 62 0d f5 3e d1 cc 59 3f fb 00 7c 3f 1c 69 b8 3f
       0.47861773 0.8507815 0.98438996 1.4407077
000330 5e aa b3 3c 52 d6 27 3f 01 9d 24 3f 2c 99 08 bd
       0.021931823 0.655614 0.6430207 -0.0333492
000340 7f d5 1c 3f 26 f7 a6 3e 66 09 ff bd 32 e4 84 be
       0.6126327 0.32610434 -0.124529645 -0.2595535
000350 50 b1 43 bc 11 b7 70 3f 1a 2b 8c 3e 72 6c 60 bd
       -0.01194413 0.9402934 0.27376634 -0.05479092
000360 3b b0 aa bd c8 74 4a be db a5 5e 3f e1 f7 79 bf
       -0.083343945 -0.19771111 0.86971825 -0.9764386
000370 88 fb 34 3f 51 e3 f0 3e 82 74 c0 3e d5 e2 9b be
       0.70696306 0.4704843 0.37588888 -0.30446497
000380 ef 02 26 3f d4 72 69 3e 81 ee 27 3f e0 57 3e 3f
       0.64848226 0.2279771 0.65598303 0.74352837
000390 15 73 b4 bd 1d 4f 43 3e b4 c7 7c 3f 2a c7 87 3f
       -0.08811013 0.19073148 0.9874222 1.0607655
0003a0 3c 2f 34 3e ea f1 09 bf bb 6d 49 3f ad b6 90 3f
       0.17596143 -0.53884757 0.7868306 1.1305748
0003b0 50 4d 09 40 e8 9d 5f 3e 7c 43 27 3f 7e 2a 57 bf
       2.1453438 0.2183758 0.6533735 -0.8404921
0003c0 01 ea d4 be 7c 52 ba bd a9 6c 00 bf 59 29 fa 3c
       -0.4158478 -0.09097764 -0.501658 0.030537294
0003d0 14 0a 42 3f c2 e7 19 3e 47 c8 2f 3f a6 1a ec 3f
       0.7579663 0.15029815 0.68664974 1.8445632
0003e0 10 af 48 be 54 9f f4 be 33 0b c2 3e 30 1d 43 bf
       -0.19598031 -0.47777808 0.3789917 -0.7621641
0003f0 e1 f6 36 40 80 ba 84 3d 23 07 99 be 73 77 0b 40
       2.8588183 0.064808846 -0.29888257 2.1791656

mu_head.weight f4 [21, 256]
000000 39 5e f0 ba ad 3c 14 3d 7c 4c bd 3d 8e ec 03 bd
       -0.0018338627 0.036190677 0.09243104 -0.032208018
000010 d4 8d ea 3c ca 98 cb 3c a2 71 8b 3d db 65 5c bc
       0.028632082 0.024853129 0.06808783 -0.013452019
000020 79 3e 73 bc ad 8b 30 be 46 36 93 bd 72 1e 94 bd
       -0.014846438 -0.17240782 -0.07188086 -0.072323695
000030 4f df 41 3e fb c2 b4 bd 03 0c 1a be bb 39 1c bd
       0.18932842 -0.08826252 -0.15043645 -0.038140994
000040 ca 26 97 3d 4d 01 0c 3c 73 ec 5e 3c 12 5c 59 bd
       0.07380445 0.008545232 0.013606179 -0.05306632
000050 f2 b5 d7 3c d7 ae 0e be 9b a4 a6 bd 35 ec 9f bb
       0.026331875 -0.13933884 -0.08136865 -0.004880453
000060 32 c5 19 3e f8 ab 8b be cd 1b d3 bd ed fe 97 3e
       0.1501663 -0.2727964 -0.10308037 0.2968668
000070 9f 61 11 be 8c 28 80 3d 41 e3 09 3e a4 b9 07 3e
       -0.14197396 0.06257734 0.13465597 0.1325441
000080 0e 3e 06 bd 31 1b ab bc 39 47 b9 3d 26 58 05 3d
       -0.032774024 -0.02088699 0.09046788 0.032554768
000090 22 8d ec 3d e3 db da bd 7c 5c fd bd 2f de 51 be
       0.115503564 -0.10686471 -0.123711556 -0.20494913
0000a0 ba f6 4d 3a 41 12 48 bd e9 11 cb 3d 36 ab 50 bd
       0.00078568945 -0.048845533 0.099155255 -0.05094453
0000b0 ac ff fe 3d 4f 72 78 bc d0 8b 98 3c 32 f9 3e bd
       0.12451109 -0.015163972 0.018621355 -0.04662437
0000c0 9d 19 69 3d 88 2a 24 3c 8a 23 6d 3d 75 77 69 3d
       0.056909192 0.010019906 0.05789522 0.05699869
0000d0 76 78 95 3b e5 e1 9f 3d bb 33 0e be e8 69 c0 be
       0.004561479 0.07806758 -0.13886921 -0.375808
0000e0 b7 91 11 3e 25 77 60 bd 07 6a bf bd 15 29 21 3c
       0.14215742 -0.054801125 -0.09346395 0.009836455
0000f0 a2 ba f6 bc 4e 7b 05 3d 75 36 9c 3c a4 e5 4e be
       -0.03011829 0.032588296 0.019068936 -0.20204788
000100 e6 18 b9 3d 28 b9 c6 bd e9 72 ed b9 8a c9 e9 3c
       0.09037952 -0.097032845 -0.00045289777 0.028538484
000110 d3 04 77 3e 76 70 5d 3d aa cf 44 be e3 2c 72 3d
       0.24122934 0.05406233 -0.19219843 0.05912484
000120 70 2d 8e be 4c 36 e5 3d 48 0b bb bd a2 7e 9c bc
       -0.2776904 0.11191997 -0.09133011 -0.019103352
000130 e4 20 3b 3e c7 9a 17 bd 56 b0 b6 be 2c 38 89 bd
       0.18274266 -0.03701284 -0.3568141 -0.06700167
000140 72 b5 0a bd f5 13 9b 3c d9 b2 27 3d e8 15 4c 3d
       -0.033864446 0.018930415 0.040942047 0.04982558
000150 e3 4a 9b 3c 0b cd b0 3c df 77 6f be 88 db fe 3c
       0.018956607 0.021582147 -0.23385571 0.03111054
000160 ca 07 af 3d 9b 01 3d bd e1 74 c1 bc 6b cf 89 3b
       0.085464075 -0.04614411 -0.023615303 0.0042056344
000170 4f c0 94 3d 76 9b f9 3d a8 61 7a 3e ae f5 43 3e
       0.072632425 0.12187855 0.24451315 0.19136688
000180 ac 54 18 3e 85 c2 4b bd 1e dc 32 3d 96 2a f5 bd
       0.1487605 -0.049746055 0.04366695 -0.11971013
000190 3e 74 22 bd cd 3a 57 bd da f3 94 3d 5d 08 95 3d
       -0.03966164 -0.05254631 0.072730735 0.07276986
0001a0 6a ce e3 3c 43 c5 36 be 97 ef 85 bd 1b bb d1 bd
       0.027808387 -0.17848687 -0.06539839 -0.10240766
0001b0 7c ed 14 bd 12 cc 84 3c 5c a6 62 3e d3 1f 1b bc
       -0.036359295 0.01621059 0.22133774 -0.009468037
0001c0 c7 91 25 bf 23 22 1b 3d e9 47 93 3c f6 7b 15 3e
       -0.64675564 0.037874352 0.017978625 0.14598069
0001d0 22 ee ca bc 18 d3 57 3c 36 24 8a 3d 86 2e 46 3e
       -0.024771754 0.013172887 0.06745188 0.19353685
0001e0 f3 45 72 be 98 47 15 be 0f 08 ca bd 50 ff ae bd
       -0.23659496 -0.14578092 -0.09864818 -0.08544791
0001f0 ed e8 08 3c 99 b0 b0 3c bb d9 69 3e 7b 15 20 bd
       0.008356315 0.021568583 0.22836964 -0.039082985
000200 d7 b9 a0 3c 44 55 d5 bd 9e 10 a3 be da d8 71 bd
       0.019619865 -0.10416654 -0.31848615 -0.059044696
000210 f5 73 21 be 50 25 09 bc dc ad 9a 3d fa 95 92 bc
       -0.1576689 -0.008370712 0.07552692 -0.01789378
000220 75 62 f4 bd 04 34 3a 3e d1 7e e5 bd 48 f2 e6 bc
       -0.11932842 0.18183905 -0.11205829 -0.0281917
000230 86 0a c1 3d 4e 91 40 3d c0 fd e3 3d 62 1e 24 bd
       0.09425835 0.047013573 0.11132383 -0.040068038
000240 09 5b 9c bd 07 3e 1d 3e 8b 74 01 3e 1b c0 2c bd
       -0.07634551 0.15355693 0.12642114 -0.042175394
000250 a4 10 b7 bd 45 01 52 3d ef 1c 35 3b 92 ac 8b bc
       -0.08938721 0.051270742 0.0027635654 -0.017050061
000260 e0 ae fc bc ec 84 e1 3c a1 d6 48 3d 1a 59 ee 3d
       -0.030845106 0.027529202 0.04903281 0.116380885
000270 93 c1 df 3c 8a 54 1c be 64 e5 20 be 13 fc 1e bd
       0.027313983 -0.15266624 -0.15712506 -0.038814615
000280 eb 87 4c 3e a0 7e 72 be 15 92 85 bc 67 79 ea bc
       0.19973724 -0.23681116 -0.016305009 -0.028622342
000290 16 e4 14 3d ab 68 75 bc e3 d9 eb bd 21 7c cf bc
       0.036350332 -0.014978568 -0.11516168 -0.025327744
0002a0 b0 39 da bd 4c 0f 72 bc 61 2c 2c 3e 1f 50 d0 3d
       -0.10655534 -0.014774155 0.16813804 0.10171532
0002b0 09 6d 0e 3d 00 0a 16 3d fd 0e 80 be 0f dd 84 bb
       0.034771953 0.03663063 -0.25011435 -0.0040546726
0002c0 e0 6e ec 3c 46 41 1a 3b 5e f1 c7 3d 9a 61 f1 3c
       0.028861463 0.002353744 0.09762834 0.029465485
0002d0 60 f8 6f bd 4d bc 84 bc d6 39 7e 3d 1e 51 2c 3e
       -0.05858648 -0.01620307 0.062066875 0.16827819
0002e0 b6 37 6f be ea 8e bc 3c c4 ca 12 3e eb 3c 8f bd
       -0.23361096 0.023017365 0.14335161 -0.06994041
0002f0 16 3b 9a be f2 36 47 3e dc 27 b5 bc c2 80 6e 3c
       -0.30123204 0.19454554 -0.022113733 0.014557065
000300 5f db 83 3d 88 14 6d 3e 0a af 10 3e 1d fd 09 3c
       0.06438326 0.23152363 0.14129272 0.008422163
000310 bb 0e fc 3d e8 21 96 bd 05 e6 ae bd 7e a4 29 bb
       0.12307497 -0.07330686 -0.085399665 -0.0025885398
000320 fb 5f 52 bc b7 7f 32 3e 70 68 f9 bd a1 64 9a bd
       -0.012840266 0.17431532 -0.12178123 -0.07538725
000330 63 2b 34 3e 28 d5 1a 3e 51 70 1e 3e d0 5d 98 bc
       0.17594676 0.15120375 0.15472533 -0.01859942
000340 3a a4 07 be 35 33 ce 3c bb 0a 98 bd ce 1a f0 bd
       -0.13246241 0.025170902 -0.07423922 -0.117238626
000350 33 61 b5 3c 3f 42 b1 bd 8b 0a a5 3d 0c f6 fc 3d
       0.022141075 -0.086552136 0.080586515 0.12351617
000360 17 b9 6f be 79 b0 04 3e 46 90 94 3c b8 96 b6 3d
       -0.2341045 0.12957944 0.018135201 0.08915466
000370 31 d5 c9 bb 88 7b 8b 3d 5c d6 c3 3d 1d 49 8a be
       -0.0061594476 0.06810671 0.0956237 -0.27008906
000380 ce 08 1a bd 02 97 a7 bd 7c e4 a8 3c f3 11 94 3c
       -0.037606053 -0.08183099 0.020616762 0.018074965
000390 7a c3 16 be 99 0d 43 be b2 38 a2 bc 36 16 d4 bd
       -0.14723006 -0.19048156 -0.019802425 -0.10355799
0003a0 49 06 0c 3e 7f 3a fe 3c 4d 83 18 3e d2 9d 2d be
       0.13674273 0.031033752 0.14893837 -0.16954735
0003b0 15 e7 84 bd d6 65 c0 3c a8 9a 80 bd 7f 68 0c bc
       -0.06489388 0.02348606 -0.06279498 -0.008569836
0003c0 a8 78 91 3d 05 02 66 3e 50 89 2e bd 27 d9 08 be
       0.071030915 0.22461708 -0.04261142 -0.13364087
0003d0 ec f5 44 bc 08 13 8b 3d 9c ff f9 3d e2 c2 3f 3d
       -0.012021523 0.06790739 0.12206957 0.046816714
0003e0 4b 0c 6a 3c b0 9e 14 be 58 73 2b 3b ac b9 ae bd
       0.014285157 -0.1451366 0.002616128 -0.08531508
0003f0 e5 72 0d ba 81 0c 16 3d 0f 2a d3 bb d2 0c 00 3e
       -0.0005395844 0.03663302 -0.0064442228 0.1250489

mu_head.bias f4 [21]
000000 9a 9f ae be 8f e8 21 3f 12 63 bf be fb 74 db 3d
       -0.3410614 0.6324548 -0.37380272 0.10715672
000010 60 29 e2 be 03 60 e5 be f7 91 b0 3f 98 b2 18 bf
       -0.44172192 -0.44799814 1.3794545 -0.5964751
000020 5f 2a f4 be 01 ab b2 bf 32 72 77 bf af 3f af bd
       -0.47688577 -1.3958436 -0.96658623 -0.085570686
000030 2c 18 46 3f b5 76 3b 3f b2 f9 a0 bf 77 d1 fd 3e
       0.77380633 0.7322801 -1.2576201 0.49573871
000040 59 40 24 bf 1c 92 93 3c 91 09 67 3f ad e4 c7 be
       -0.64160687 0.018014006 0.9024897 -0.39041653
000050 e3 4a 4e 3f
       0.8058302

log_std_head.weight f4 [21, 256]
000000 91 cb 18 bc 55 97 22 3c 68 2c 8e 3c a6 15 02 3c
       -0.009325878 0.009923776 0.017355159 0.007939732
000010 5b 39 4b bd 38 2a ec 3b 2d bd 5b 3c 9e 55 ea 3a
       -0.049615245 0.0072071813 0.013411802 0.0017878299
000020 f0 66 a7 bc 6d af fd 3c a2 bd 08 3d 20 c6 da b9
       -0.020434827 0.030967439 0.033383973 -0.00041727815
000030 b2 80 dc 3b 53 33 b2 3b 11 fd cd bc eb 1f a3 bc
       0.006729209 0.005438247 -0.025145086 -0.01991268
000040 53 59 c2 ba 72 b5 35 3c ab 0f c2 bb 49 ba e4 bc
       -0.0014827646 0.011090623 -0.005922278 -0.027920859
000050 ce 5e 94 3c 74 d7 b7 3b 46 b8 3a bc fb 9f ee bb
       0.018111613 0.005610401 -0.011396473 -0.0072822548
000060 cf c1 be 3b 1c 4f 29 3c 4a ee 96 3b 36 2d 10 3d
       0.0058214436 0.010333803 0.004606043 0.035199367
000070 82 22 45 bd 39 6b ee bc 6b 67 81 3c f3 d0 be 3c
       -0.048128612 -0.029103862 0.015796384 0.023292994
000080 87 4c 0d 3c ed 4c 8e bb 21 f0 d3 bc c6 df b7 3b
       0.008624203 -0.0043426664 -0.025871338 0.0056113927
000090 a1 54 d6 3c 22 2b 85 3c 08 08 a2 bb 8c 74 b8 3c
       0.026163401 0.016255919 -0.004944805 0.022516511
0000a0 f5 3f 5c 3b 55 aa 5a bc 3c 83 c4 3c 33 54 d3 bc
       0.0033607457 -0.013346274 0.023988359 -0.025796985
0000b0 9a d8 ac 3c bf 8c bc bb ae 14 83 3c 99 a5 af 3b
       0.021099377 -0.005754083 0.016001072 0.005360317
0000c0 3a ef 91 bb 40 53 b3 bc f0 d6 f9 3b 02 bc 78 bc
       -0.004453567 -0.021890283 0.0076244995 -0.015181543
0000d0 ee 79 06 3c 3a 44 7d 3c c9 3d f1 bb ea e5 0a bd
       0.008207781 0.015458161 -0.0073621017 -0.03391067
0000e0 36 ee 6f bb 43 1e 1f 3c 6e a9 05 3b 77 ac eb ba
       -0.003661049 0.009711805 0.0020395177 -0.0017980476
0000f0 a7 40 7e 3c e9 a0 ce bc 2a 4f 2c 3c fe 65 a3 3c
       0.015518344 -0.025223212 0.010516921 0.019946095
000100 c5 f1 06 3d 8d c6 d7 bb 77 80 d4 3b d8 56 08 3d
       0.032945413 -0.0065849484 0.0064850408 0.033285946
000110 1a d5 63 3d b4 43 ba 3b 28 d3 d3 3c 71 89 df 3b
       0.05562315 0.0056843404 0.025857523 0.006821804
000120 ea e7 55 bb b9 2d 6a bc 5f b1 bb 3c 9f a8 8f ba
       -0.0032639452 -0.014293128 0.022911726 -0.0010960287
000130 43 73 0e 3d a4 2e 31 3c 08 66 2f 3d ef 42 b1 3b
       0.03477789 0.010814343 0.042821914 0.0054095904
000140 97 4d 74 bc 6b 47 e7 bb 9b a3 24 bc bd 11 e0 ba
       -0.014911077 -0.007058074 -0.010048772 -0.001709513
000150 74 fb 31 3c e4 ff 17 bc d4 9f c6 bc 16 9f f1 bb
       0.010863174 -0.009277318 -0.024246134 -0.007373701
000160 9a a0 e3 3b 5d 61 41 bc 9a 08 19 bc 0a f2 04 3c
       0.0069466354 -0.011802998 -0.00934043 0.008114347
000170 05 20 48 bc 67 8f 0c 3d b5 60 15 3c ad 4d ea 3b
       -0.012214665 0.034316447 0.009117295 0.007150373
000180 1d 6e ea bc 51 42 5e bc ca ef 2a bd f0 65 91 bc
       -0.02861696 -0.013565616 -0.041732587 -0.017748803
000190 bc f2 e9 bb 10 9d 3d bc 64 9d 85 3c 0a 7f 4c 3c
       -0.007139532 -0.011573091 0.016310401 0.01248146
0001a0 82 90 c8 3c 68 ab f2 bc 90 45 ba bc aa 43 c3 bb
       0.02448297 -0.029622748 -0.022738248 -0.005958994
0001b0 a0 32 97 bc 95 b1 4f bb fd 3f 5a 3c b2 1e f7 39
       -0.018456757 -0.003169154 0.01332092 0.0004713438
0001c0 85 c3 02 bd 08 8d 98 3c 2d 1e 4f 3c 8d ca cf bb
       -0.031924743 0.018621936 0.012641472 -0.0063412846
0001d0 c7 cb 37 bb 38 0f 83 3b fd ff 00 3b 34 b4 be 3c
       -0.0028045045 0.003999617 0.001968383 0.023279287
0001e0 6e df bc bc 20 d8 51 bc b8 2a 61 bc dd 69 8d bb
       -0.023055758 -0.012807876 -0.013743095 -0.0043155984
0001f0 17 89 60 bc f7 02 a2 3b 2b 83 1b 3c 38 fa 8d b7
       -0.01370456 0.004944201 0.009491722 -1.6925027e-05
000200 78 cf c0 bb 96 0f 53 bc 5b e7 d1 3c 64 b8 b1 38
       -0.005884107 -0.012882134 0.025623014 8.474363e-05
000210 f8 7d 9c b7 2d c3 ca 3a a1 91 10 3b 58 ed 01 3c
       -1.8655308e-05 0.0015469544 0.0022059458 0.007930122
000220 c6 2a b5 bc b3 e8 bb bc 5a 04 f1 bc b8 30 81 ba
       -0.022115123 -0.022938108 -0.02942102 -0.0009856438
000230 07 19 87 3c 2a 34 78 3c 42 37 1a bc 1f a5 7f bc
       0.016491426 0.015149156 -0.009412589 -0.015603333
000240 5b fb 8f 3c e1 1a 96 3a 63 0a 04 3c be 64 2e 3a
       0.01757591 0.0011452102 0.008059117 0.0006652585
000250 11 93 d4 bb 34 4f ca bb 5e e7 85 bc 55 e3 86 bb
       -0.0064872582 -0.0061739925 -0.016345676 -0.0041164556
000260 7b ef a5 3c c4 74 ff 3b 6c 38 ec bb 82 90 a4 3c
       0.020255795 0.007795902 -0.0072088744 0.020088438
000270 4c 78 fe bb ab 4d 61 bc 84 1c c5 bb 47 6f 1f bc
       -0.0077658053 -0.013751428 -0.006015362 -0.00973112
000280 25 f7 fb 3c 01 3d f1 bc c2 2b 7b 3b 71 45 2a bc
       0.030757496 -0.029448034 0.0038325642 -0.010392533
000290 ee 6f bf 3b ef 38 d1 3c e2 2f 02 3b db 4b b4 bb
       0.0058422005 0.025539843 0.0019864966 -0.0055022067
0002a0 7c 41 9f bb 45 73 c6 ba 30 9b e1 3c 4f 08 08 3d
       -0.0048601013 -0.0015140554 0.02753982 0.03321105
0002b0 ad 01 cc bb 33 d6 8f bc bb b6 8d bc a6 32 5c bd
       -0.0062257857 -0.017558193 -0.017299047 -0.05375924
0002c0 f7 39 eb bb 45 a1 16 3c 98 94 c5 bb c6 11 b6 3c
       -0.007178541 0.009193723 -0.0060296766 0.022225272
0002d0 dd 27 32 3b cd c4 52 bc 1c fd c3 3b e8 94 b8 3c
       0.0027184405 -0.012864304 0.0059811007 0.022531942
0002e0 6f 36 1e bc 63 db 68 bc 11 81 33 3b f5 c6 5f bc
       -0.009656533 -0.014212462 0.0027390162 -0.013658275
0002f0 a0 50 00 3c bb 4c 55 3c 48 f1 bd 3c ef ff 53 3c
       0.0078317225 0.013018782 0.02318634 0.012939437
000300 b5 7f d5 3a f1 16 87 39 d9 de ff ba 10 86 2e bc
       0.001628867 0.000257663 -0.001952137 -0.01065208
000310 59 6a fe bb b6 55 2c bc 7b 25 31 3c ce 69 e8 bb
       -0.0077641425 -0.010518482 0.010812159 -0.007092691
000320 84 4a 96 bb 26 be 20 3c 01 d4 09 bb f3 80 57 3c
       -0.0045865197 0.00981096 -0.0021030905 0.0131533025
000330 69 18 be 3c 36 ed 2f 3d 0e f4 3e bc a9 9a a0 3c
       0.023204999 0.04295083 -0.011654867 0.019604998
000340 39 11 1e 3c f0 c8 66 3b ea 42 13 3c e3 ab 39 ba
       0.009647661 0.0035214983 0.0089881215 -0.0007082803
000350 04 a9 84 bc 53 2f b9 bc 4a ba 23 bb 5b 6a 8d bb
       -0.016193874 -0.022605574 -0.0024982863 -0.004315657
000360 f7 76 b0 3a 29 cc 9a 3c 9c 7f a9 3b 12 46 ef 3d
       0.0013463189 0.01889618 0.005172683 0.11683287
000370 30 be 71 bc ec e7 03 bc 97 23 33 3c 8f 93 30 3d
       -0.014754817 -0.0080509 0.010933778 0.043109473
000380 d4 e3 b0 bc 2d b7 aa bc 68 65 73 bb 16 96 53 ba
       -0.021593012 -0.020839298 -0.00371393 -0.0008071376
000390 e7 5a 77 3b 32 84 10 bc f6 09 db bc b4 5d 5e 3c
       0.003774339 -0.00882058 -0.026738148 0.013572145
0003a0 ae 42 73 3c dd 71 c8 bb d8 8c dc 3b 25 61 92 3c
       0.014847441 -0.006117089 0.006730657 0.017868588
0003b0 ec bf 0f bb 30 42 d1 bb dd 35 f0 bc 34 6d 8f bb
       -0.0021934463 -0.006386064 -0.029322559 -0.0043770317
0003c0 2a ec a6 bc 60 10 ee 3d 6e 34 22 bc e7 f7 3a 3b
       -0.020376284 0.11624217 -0.0099001955 0.002852911
0003d0 02 56 25 bc f8 5a 19 bc b9 56 6d 3c 43 8b 55 bc
       -0.010091307 -0.009360068 0.014486008 -0.013033691
0003e0 5a e1 99 bb fa 7a 8f bc 8b 37 e9 ba f1 be b2 bc
       -0.0046960535 -0.017514694 -0.0017793042 -0.021819564
0003f0 e5 73 1d bc 36 fc 53 3c 23 9f bc bc 8d a9 a4 3c
       -0.009610151 0.01293855 -0.023025101 0.02010038

log_std_head.bias f4 [21]
000000 10 2f 57 bf 61 3e 58 bf 2f 19 7b bf dc 94 20 bf
       -0.84056187 -0.8447018 -0.980853 -0.6272714
000010 c1 f6 a6 bf fa bb bb bf 5e ab 4d bf 9c 48 18 bf
       -1.3044053 -1.4666741 -0.8033961 -0.59485793
000020 27 d0 40 bf 9d 3b 1f bf 5d 83 7a bf cd b7 a6 bf
       -0.75317615 -0.6220034 -0.97856694 -1.3024842
000030 9f 67 9a bf ca 95 02 bf f2 75 46 bf f6 e0 30 bf
       -1.2062873 -0.5100981 -0.7752372 -0.69093263
000040 78 3c 23 bf 31 d4 41 bf 8d 47 2c bf 6f 04 3d bf
       -0.63764143 -0.75714403 -0.6729668 -0.7383489
000050 55 b5 3b bf
       -0.73323566
