Q3/350.ckpt (torch, 754704 bytes, 8 tensors)

fc1.weight f8 [256, 67]
00000000: 1978 08bd 233f a6bf ccb1 7dba cb66 933f
00000010: 12da fe5f 9f7c e2bf 9a76 975d fc98 de3f
00000020: 1a0a e31c d075 aebf 552d c307 de53 d0bf
00000030: 479f 104f 73cd babf 4677 9a4f de4e b2bf
00000040: e43a 40d8 b53d c03f 32cd ff4f 76f0 c83f
00000050: aa6d 24d4 6bda c4bf 6af2 7634 2f84 c23f
00000060: 6aea b38b 61c4 b5bf c3fc d723 16c5 9a3f
00000070: f2d6 c71b cb04 9cbf 13b6 64fb af8f b0bf
00000080: 5fe8 5099 d909 d23f 2c6e 1df7 1e6d c43f
00000090: 1d77 db98 2192 c9bf 336c 1eca d731 e5bf
000000a0: 9550 41b7 6866 c5bf ceca 3e6b 5327 d3bf
000000b0: 92bd 2107 1b04 b2bf ffbb 1919 22bc c03f
000000c0: e904 773b 079e d1bf fd4b 9e58 f135 e1bf
000000d0: b339 1411 463a f7bf 752d a881 da23 b3bf
000000e0: 9471 e650 cdf9 df3f e361 0235 7f2c d53f
000000f0: 815c 9ab5 d3e1 963f 65ca 8e39 4bb2 d8bf
00000100: a449 3c13 f3f8 e5bf 3913 e5d4 0fc4 d33f
00000110: 4481 8741 929f 6dbf eb8e ddac b349 07c0
00000120: 87f8 eb24 d779 e7bf eeaf ce66 deb4 b9bf
00000130: e374 ab7a 9b69 84bf 5719 f5aa faca d73f
00000140: 3460 bc0a 623d cc3f b90b 6703 2a06 68bf
00000150: 3402 1554 a008 c3bf b3ce 2387 2aa3 98bf
00000160: e10b 3265 ad95 833f 9f97 9341 9675 7cbf
00000170: de88 d0bb e65d 97bf 8307 6629 53e2 9fbf
00000180: b52c 8def 35b6 abbf 4121 be53 8061 88bf
00000190: 4074 4766 5a43 91bf f846 0879 5577 84bf
000001a0: 1991 738e c3a1 493f 438d 76cf c3bc 593f
000001b0: 0e2d b049 503e 633f b2cc 5c92 3869 75bf
000001c0: dd22 6cb7 3eea 88bf 8217 1857 d81e 4f3f
000001d0: 4168 7d70 b682 72bf 5346 380f 87dc 753f
000001e0: 1468 bd69 7e2b 44bf 0676 7211 8309 7a3f
000001f0: 25e2 dac5 1274 933f b06a 827a 27ca 44bf
00000200: fc24 a427 233a 5ebf 77cb bde2 85cd 82bf
00000210: c25f 3aa0 a20e 59bf 3ff2 d151 10d0 e1bf
00000220: b409 1469 c2a1 a13f b29c 2a16 60bf e33f
00000230: 0a84 45ea 49e2 e33f c7cc df15 b0e1 c43f
00000240: 9991 b2f3 aebd c23f 191a 12fc 4eec c0bf
00000250: db58 157c fb2a ae3f 2d00 d8b4 cea5 a83f
00000260: 6fb4 a12b e603 df3f e968 1758 bfd1 e63f
00000270: aef5 59a5 65da ee3f 0677 5b17 96d8 d8bf
00000280: bb6b f489 06c7 c33f 26e7 5a4a 1a11 a6bf
00000290: fef7 8667 2cb8 de3f 2513 54c9 12d8 aebf
000002a0: a4e1 a947 1749 8c3f 2faf f01b 3b05 c8bf
000002b0: f98b 60f1 b1f2 aa3f 2fbd 3f83 5473 8dbf
000002c0: 7902 fdca 4aff f1bf 9c90 7fd4 aa1b e7bf
000002d0: 3c7e 0f23 eb4a c8bf 80f3 02eb 01d9 cebf
000002e0: cf5f d45c 388e e7bf e17b 1e6d fab7 f33f
000002f0: 6f39 30a7 33f0 d6bf 8c37 5267 5b07 ce3f
00000300: a5fc a4d3 109b dc3f dd34 ebdd 2996 a43f
00000310: 6a82 4ebb 77de d83f ca8b 42d5 0cd6 f0bf
00000320: 3f38 ae11 d5b6 e5bf d509 7aa1 7240 e23f
00000330: 77fe 921d 6949 f0bf 965f 1ebf bc48 d2bf
00000340: 5bad 77b0 3319 bd3f 315a 5682 b545 de3f
00000350: 9aed d269 c029 d5bf 90b5 8d94 1468 dcbf
00000360: 3440 4378 d555 d73f d721 d987 3c00 c5bf
00000370: 33fc 741e 8a77 a83f d6dd 0ada 6355 953f
00000380: 24a2 c8fe 8034 8b3f d6be b95d 022f 9a3f
00000390: a962 283e 3130 a63f 44cd 85ea c494 903f
000003a0: 25a2 9e7b e3a1 24bf bb11 c37d e27a 833f
000003b0: 9a4d f2e1 7c5c 52bf f70a 8d0f d1a2 69bf
000003c0: 05d3 a26d 6362 413f af45 b517 bd52 6dbf
000003d0: 8481 a8eb 5583 7dbf 0e29 5f3e bc37 5e3f
000003e0: 2792 e1e3 47fb 9b3f 0cbe 573a 29be 4c3f
000003f0: 2f51 8dd7 c1cd 3b3f c3d2 0af3 764c 67bf
00000400: 4c91 06af 0fde 4dbf 608a c1c1 25ac 98bf
00000410: b61a d389 e9e7 88bf 923a f3ba 708b 83bf
00000420: 55b6 6363 a6ff 7bbf 6807 f925 a486 7ebf
00000430: c6e2 9114 7e7e e23f 02b7 172b 392f c53f
00000440: 10c9 57b9 3a86 e23f e141 6081 101c e43f
00000450: b9b8 7ff4 8193 a5bf 3ddd d323 88a3 afbf
00000460: c4a4 3e54 c9da e1bf 8b7c aa6a 9b72 c93f
00000470: 410f 0c69 24ef 953f 1090 686b 9fa4 d7bf
00000480: 35b7 a7db 544c e63f 0cb4 2e2e 6aee af3f
00000490: 448e 527c 4190 b6bf 85d9 299b 6232 d03f
000004a0: 3e01 53c4 75de a03f e1a1 57f6 54cb e03f
000004b0: a0bf 59d7 b5bf 7d3f 71d8 7404 f474 d0bf
000004c0: 3a23 e171 ee1b c03f 950f 48d1 7bfc c93f
000004d0: e9f9 26f1 7cf3 b5bf 90eb 3882 bba0 d2bf
000004e0: 7a70 5953 1876 c9bf 2d33 1e9e 68c8 e13f
000004f0: b42b 420c 9946 e5bf a156 df3c e008 e7bf
00000500: 23b5 f09f d792 e9bf c9a6 9026 42ff dd3f
00000510: 2d77 815a 517a cdbf 64fe b205 c8c2 e03f
00000520: 5cb7 f88a 09cc d8bf dca1 ca28 fd87 d93f
00000530: 6534 328d d781 e43f 53cf fb5d 28b4 bfbf
00000540: 93b8 caf5 6703 f43f 4aee b41d c17e d63f
00000550: 65d7 17d3 f49b fbbf c6b7 c593 ec6c b2bf
00000560: c762 c17a c9cb bd3f a5c1 f277 aa55 c73f
00000570: a5b6 7644 01d6 a33f 3e67 331d 829a c03f
00000580: 33de f764 6a17 d43f ec34 531d b602 943f
00000590: b2ae be41 a9b5 c3bf 239a e83c d352 be3f
000005a0: 1331 e849 41b9 ad3f b7a3 14c1 1106 afbf
000005b0: b9d0 90e2 c673 a23f ec96 d017 4ffe 963f
000005c0: 001c b1bf 1f48 9e3f 6889 2c34 e1a3 673f
000005d0: 5ff8 54d0 d136 9cbf 92ba 91cb 6cfd 21bf
000005e0: eb8c d8f8 cb72 4dbf 9e8f e79e a892 8bbf
000005f0: ee66 a36e c59c 94bf bed6 536d dbec 8f3f
00000600: ec2b 4672 768d 78bf 5ad4 07a8 0a96 803f
00000610: 53d9 69fd b1fb 253f 94a3 dcbe 82bd a13f
00000620: 85b2 b946 6aa7 953f 0259 59af 812d 803f
00000630: d6db 9ace 06ee 82bf f32c 6a78 315f a03f
00000640: 1d65 63d3 fe2e 83bf f462 04c0 2de6 ea3f
00000650: a2d7 b254 2975 e1bf fce3 b404 97a6 ea3f
00000660: c77e f97d 95d9 b1bf f79e e87e b4e7 a0bf
00000670: 535f 450e aa45 d63f 3a01 f763 07a1 ddbf
00000680: d861 3757 8993 abbf eba8 9be7 0357 b83f
00000690: b7bd 6b34 a1c9 d4bf 26cc 0610 ad15 dc3f
000006a0: 83de f6d9 2f61 e4bf 8d24 a590 d94e cc3f
000006b0: 7061 c919 b69c a6bf 290e 16b2 e29d 8dbf
000006c0: 970c 074f 17fe 783f f382 358a 1b90 ac3f
000006d0: b3aa c089 eb5f d63f 8989 75bf 3d17 c03f
000006e0: f8ff 6a28 b45f d0bf 4752 3978 ebe8 c8bf
000006f0: 0276 8c19 febc f3bf 56c0 cfd8 2477 c23f
00000700: 58b8 df17 503e e13f 2ef4 f198 f04f b03f
00000710: 1b2b a6b3 90a9 e73f 7c49 ce99 b78a c0bf
00000720: 1f6e 0ce5 4d63 a23f 85ad 304b 36d7 acbf
00000730: 6b68 3eea 57e2 80bf 24a1 f4cb 86c7 c1bf
00000740: 09bf 8e01 93df e43f 4ab3 3f2c bc29 f53f
00000750: f501 ed04 93bd dcbf 883a 37c6 c820 0740
00000760: 9d9d f9a8 a264 d2bf b390 2532 7c8d ccbf
00000770: 25a4 e1a7 355a 93bf 376f 5c96 344f d0bf
00000780: 6caf 35df 1cd2 cf3f 6ee1 2b81 98e6 a4bf
00000790: a432 799f 805f d13f 9906 2cd8 4c8e b73f
000007a0: 46fb 3c0c d752 b63f 1550 bfe7 3a04 a2bf
000007b0: e4bf f93a 949c b03f 7e1d dd98 c73b 953f
000007c0: 1929 14d5 84ed 7b3f bb17 2685 7ceb a93f
000007d0: e93d 57b2 e3ab 953f cfd5 b920 f67d 6d3f
000007e0: 2c8d 10e9 da81 70bf a21a bc01 9d53 59bf
000007f0: e2da 4dbf bcdf 6abf 543e d8a4 8375 74bf
-0.04345046694309946 0.018946822412020656 -0.5777127146637346 0.47808751239595326 -0.059492591406087494 -0.25511885412261864 -0.1046974247007003 -0.07151593631212191
0.12688324984670551 0.194838322698709 -0.16291568621168767 0.14465894757985903 -0.08502778683388504 0.02614245027325236 -0.027362035341829967 -0.06469249618086108
0.28185119602460945 0.159580107366183 -0.19977207149252588 -0.6623343417771878 -0.16718777606968574 -0.2992752597157676 -0.07037514614216026 0.13074136949168744
-0.27527027899857487 -0.5378348093821611 -1.4517269770764016 -0.07476583161785817 0.49962170505912096 0.33084087540330936 0.022345836600461858 -0.38588219281078856
-0.6866393447583516 0.30884166517744266 -0.0036161285936346117 -2.9109872346033305 -0.7336230965736527 -0.10041608819909673 -0.009967055016597509 0.371763865423778
0.22062325977526742 -0.002932626778802097 -0.1487007532650907 -0.024059929369242904 0.009562830591908824 -0.00694807714282844 -0.022819142545025588 -0.031136798288123223
-0.05412453221523476 -0.011904718928932414 -0.016858494274732516 -0.009993236309159922 0.0007822232118113475 0.0015708839617694793 0.002349049389072661 -0.0052272996743340395
-0.012165536854369769 0.0009497219418228427 -0.0045191885509102145 0.005337264610277242 -0.0006155364276125863 0.00635672758576567 0.018997472120391507 -0.0006344502226228368
-0.0018449157055918089 -0.009181066495988805 -0.001529368223520664 -0.5566484067963485 0.03443725140279544 0.6171112473429246 0.6213731361023076 0.16313744609906264
0.1464136781625143 -0.1322115641416566 0.05892167939843925 0.048140010429051784 0.48461298237709277 0.7131039352928187 0.964159796668971 -0.38821937829003195
0.15451127754280755 -0.04309923322348501 0.479991055584719 -0.06024225909826545 0.013811284899234284 -0.18765963424936546 0.05263286658762207 -0.014380131011391654
-1.1248271874648295 -0.7221273565633228 -0.18978633129062128 -0.24099754309818522 -0.7361108601644392 1.2324165594543433 -0.3584107525538433 0.23459951920488853
0.4469644610252977 0.04020815690965105 0.3885783509413502 -1.052258332297003 -0.67856839612228 0.5703671602098505 -1.0179225116006856 -0.28568953193598057
0.11366580065048508 0.47300470093014996 -0.3306733163296599 -0.44385256297285824 0.36461388344196455 -0.16406971581660798 0.047787014215366595 0.02083354967427716
0.013283736968404965 0.025569951029352854 0.0433364284874121 0.01619250947392216 -0.0001574125470231873 0.009511727774573644 -0.0011206836277651623 -0.003129394838113138
0.0005305276383952012 -0.003579491921904952 -0.007205329539403119 0.0018443430249016099 0.027325747760544552 0.0008771611507522605 0.00042425138922410043 -0.0028440783720163633
-0.000911481531194394 -0.02409419055073625 -0.012161087530683328 -0.00954330511595217 -0.00683560367018073 -0.0074526226085839045 0.5779409791712957 0.16550364116795185
0.5788854236582512 0.6284258391261198 -0.042141018959101335 -0.06179452359531943 -0.5579573293117837 0.19881003101633996 0.02142006770283378 -0.3694227742109897
0.6968178072108687 0.062365835320953605 -0.08813866887299421 0.2530752673404993 0.032947235312806175 0.524820786607105 0.007262907330741003 -0.25713825640867244
0.12585239944953647 0.20301768988440175 -0.08574658286577343 -0.29106033055330105 -0.19891647405427532 0.5557139480821199 -0.6648679007934022 -0.7198334874071471
-0.7991750835259704 0.46870473638646765 -0.2302953426287159 0.523777018672217 -0.38745344706955165 0.39892510398433756 0.6408498532997667 -0.12384273809931061
1.2508315659756917 0.35148647213984374 -1.725575279791394 -0.07197455032084496 0.11639079329450928 0.18230181557511319 0.0387421032022364 0.12971521783657097
0.31392917499713063 0.019541593112809716 -0.15398135862539203 0.1184513114645616 0.0580540087431435 -0.060593180484210966 0.03603955760664363 0.022454486683407035
0.029572006297055253 0.0028857611190612927 -0.02755287012154672 -0.00013725236002267279 -0.0008986946065231682 -0.013463322972661559 -0.020129284742188717 0.015588487886343368
-0.005994284325775628 0.008098681691061472 0.00016771838882663012 0.03464897708756279 0.021146450583204874 0.007899296916701552 -0.00924306219108743 0.03197626681238743
-0.00936698038678912 0.840597987206904 -0.545551934649428 0.8328356830526213 -0.06972631764937907 -0.03301776932886285 0.3480019702305885 -0.4629534221858368
-0.05385998906757877 0.0950777473878223 -0.324806500618219 0.43882299962132476 -0.6368636376491427 0.22115630686520085 -0.04416436257150991 -0.014461298999555687
0.006101695108046055 0.0557869535648531 0.3496044965019493 0.12570926521864248 -0.25584129283015455 -0.19460814829166592 -1.2336407659526007 0.14426098429203432
0.5388565508162726 0.06371978506099715 0.7394488819857971 -0.1292333127026487 0.035913881502178883 -0.05632943790291293 -0.008244215808918839 -0.13890156706589452
0.6522917776510165 1.3226892212362196 -0.449070696649897 2.8910079465488856 -0.28739229680510353 -0.22306778381892442 -0.018898809787433763 -0.254834315144524
0.24859963320647738 -0.040821805732721525 0.27145400594307945 0.09201507833133817 0.08720153855118182 -0.03518852309176183 0.0648892063125 0.020735853867589686
0.006818312527011616 0.05062474370338018 0.021163518676813018 0.003600102156094499 -0.00403008949163856 -0.0015458138722707422 -0.003280514380488029 -0.004994882806854745

fc1.bias f8 [256]
00000000: 2c85 0004 b627 a9bf 2505 da01 3c19 5dbf
00000010: a93d 40fd 7362 c93f 800b bb2b 8d64 aa3f
00000020: ee43 e11a 99bd d53f df77 12b5 92e3 e3bf
00000030: 66e7 e88c fe83 b0bf 3af8 a678 7371 e4bf
00000040: 6339 693f 7645 e1bf 5840 e37e e957 cebf
00000050: c15e d770 45d5 e5bf bc0b 2e44 aa24 e5bf
00000060: f96f 9d53 643e dbbf 7350 6b58 401c cabf
00000070: 1760 9f30 7a80 e4bf 2e24 35ff 4d0c d8bf
00000080: 12d1 df56 ff82 d1bf 5e4b f0a6 97ad b03f
00000090: c960 ef1a 5c28 aebf b60f ba3c 322b c5bf
000000a0: 98a6 7a73 3a6a eabf 9517 e48a da0c ebbf
000000b0: 93d2 0308 a6fd c4bf 35fd e285 b8a3 c03f
000000c0: 98f7 1f7f 903d e4bf 6865 918c 6899 debf
000000d0: 73c0 390b 4fa9 d4bf 07a0 b8da c5e2 d0bf
000000e0: 80a2 55e5 5d01 bd3f bb47 68eb 7689 a03f
000000f0: 94d5 7764 f862 debf 31ca 8f06 b780 d6bf
00000100: cdb0 26a2 1a38 ecbf 7ba8 4610 1f89 cbbf
00000110: 8aac c7fb 5686 d8bf 44c7 bd70 c507 b43f
00000120: 7352 d45d 3f45 b0bf 6c5a b86d d126 aebf
00000130: 2e8b cfc8 4819 a7bf b4ee 7c5c 40b3 d6bf
00000140: 4aa0 e464 a6f5 dc3f 4a4d df10 b989 cb3f
00000150: 2100 6ec7 be6f b2bf a217 07d0 a686 d8bf
00000160: de2f e13d e037 dfbf 9321 64d8 e786 d5bf
00000170: 988f 0f59 f0c0 d73f 2918 d9b7 cbd2 ddbf
00000180: bc5e d086 aed0 d63f 79c9 3ce6 5f17 ebbf
00000190: 3a5b 677e 11aa e4bf 2d1c a09d 7e73 dfbf
000001a0: 71b4 33fd 3bd0 d6bf 02c1 0cf7 1eb1 96bf
000001b0: 39c5 5996 a094 d2bf 07d1 e1d6 9a3a c83f
000001c0: 07ba 6f6e 1d72 dfbf 3a88 71b3 f18a a8bf
000001d0: 247a cf18 6884 abbf a8e5 64f2 13ae d1bf
000001e0: c91e 37b4 e0af e1bf f5f4 9ffc 257b dabf
000001f0: 33c8 5e73 5850 a2bf ef91 0b25 516f d5bf
00000200: 90bf 51ef 13b3 cb3f 56ee f1ca 53a2 eabf
00000210: a794 991c 4983 f9bf 2e6d a36f ccac bd3f
00000220: 4fcc f9e6 a3c5 d5bf dcf7 e1ae a40a d63f
00000230: 4979 fbee 7c25 d33f 9341 1f0c 5b51 d43f
00000240: 0fa7 e266 78f9 e0bf abb6 8372 ff46 e4bf
00000250: 8378 9c0c 23b0 d73f ff90 2f08 e002 d1bf
00000260: 4e14 4cff 91ac c63f a996 2b12 5976 c43f
00000270: aa4e 3d1f 79a1 e3bf 81f0 975e bb0f f3bf
00000280: 53fd d16d 5f8c e4bf ba51 8644 80ea c8bf
00000290: 2f11 94d3 ce1c e0bf 7422 8e76 e126 c2bf
000002a0: 8952 09a6 a9e8 c23f b1ac 94f8 a879 d5bf
000002b0: 0eab b796 e1af d2bf ab52 d250 0dc7 d1bf
000002c0: 8bd2 a307 e303 c8bf 30e2 67a0 3c8d 5e3f
000002d0: c48d 6fd4 4d25 dabf 337e b9f7 999a d4bf
000002e0: 171d daed cbe4 c2bf d804 ae13 2f79 d5bf
000002f0: f720 156e b885 a63f 4ff5 8a26 743f eabf
00000300: 5389 7134 45c3 9ebf dc99 163f e4ca b63f
00000310: 530f 797a 9266 a13f 6929 0fae cd08 bb3f
00000320: 7d75 1cbd b511 e3bf 291a bab6 3341 bfbf
00000330: b260 9dc6 1d7c bc3f e9ef 45d9 73c3 bdbf
00000340: f740 5def 28ee 883f 0dc5 d147 f5c4 a1bf
00000350: f807 970f a633 e0bf 8ebd 70f3 4954 c3bf
00000360: 94d8 0f68 f1e8 a13f 82ae 2866 f939 b03f
00000370: a574 8aa2 6303 d9bf f39b 0a39 07ba dabf
00000380: 550d b744 15c4 77bf 54e4 5af1 7836 a83f
00000390: f4d9 6f85 7fec dbbf 08e4 f315 3d4e e7bf
000003a0: f3b3 642e 51a7 e0bf f242 1664 a8c9 d4bf
000003b0: 648f a183 440f ccbf 1be5 aac0 595a a4bf
000003c0: 9b86 ad2c ec77 bf3f 552d 118c 5f34 c0bf
000003d0: ce46 1496 2caf d53f 18dc 3ecf e6a3 d4bf
000003e0: 5a16 b7c3 bfa4 d4bf a262 4f4f 72e3 b13f
000003f0: 5776 f950 e36c c5bf a98c 2443 f653 d53f
00000400: e727 6e36 7759 dbbf 1b7f 14d3 0249 b8bf
00000410: 30a7 7cb4 3497 f5bf 3d09 7bb0 bf76 c93f
00000420: 8b2c 361d bc96 a83f f2db 2612 f1a6 b7bf
00000430: 5ab9 9dc9 0fde a1bf 98d4 a6dc 931e 983f
00000440: 3c39 5370 17bb e13f 903c bfd9 477f d03f
00000450: 6d4e 7931 ff5e ebbf 91d4 7f02 b3e0 d5bf
00000460: 5875 25aa c616 c93f 6de3 9412 6249 b1bf
00000470: 9a3a dc54 e4d6 b4bf 659f 9bda 3cee d0bf
00000480: 8a34 cacc 33a6 f2bf 21a1 3728 04fa 6b3f
00000490: 86be 2968 5270 c7bf df14 7daa 02b3 d23f
000004a0: ad96 3db5 4846 e03f ebc9 a431 e0e4 b9bf
000004b0: 53e6 2ec5 3c97 e0bf 75f8 f399 3dc6 debf
000004c0: 1da4 aef9 b02f b33f 3564 ec71 433b c5bf
000004d0: 05d4 4704 df55 99bf 5680 250b bcac c4bf
000004e0: 330e ac3e e222 e03f c5c1 1dd1 679f e8bf
000004f0: 9582 47e0 15f8 e3bf ae31 ec64 fd68 f2bf
00000500: 3eee 8767 b3b5 dfbf 55cc 64c9 d317 e4bf
00000510: c336 d2e8 2a27 e0bf 7791 8ac0 b193 973f
00000520: 3277 6764 b49c e5bf f81c 00b2 4c63 5f3f
00000530: c311 afdf e3fe d6bf b09f e5ac 21c0 d5bf
00000540: d38f 5d99 5b1a 6b3f 1b19 b626 58cb dcbf
00000550: a7ee bfad 4991 e0bf e9e3 3827 a751 d7bf
00000560: cfb3 fcfb ee56 b9bf abf9 5332 ba11 cabf
00000570: 1070 801e f669 a6bf fcb1 8b14 dead bdbf
00000580: 5dfa c98c e378 e4bf fc17 bf7d 50e7 a93f
00000590: fbce a54f ad91 b63f 34ac a82b 2d75 e3bf
000005a0: aee5 ab07 af91 d33f adcd 28d3 9515 e6bf
000005b0: b3e3 b99d c84b bf3f 2e38 69a9 bacc e0bf
000005c0: a8e2 e557 3005 d7bf 96d8 9c45 ae20 d1bf
000005d0: 2c42 1550 c072 9fbf 09ec c366 e672 e1bf
000005e0: cd99 5e93 f639 d1bf 4a61 9a93 4108 c6bf
000005f0: 6dac dbb4 88d5 d7bf af32 b40a 6df3 debf
00000600: aa4d 9f56 baa6 db3f f326 3b64 3fcf c33f
00000610: 59e9 4216 ef66 dfbf 7edc d3ce 2673 d13f
00000620: 2c55 c1c3 950c d03f 3c6b ef8e e7f3 c43f
00000630: fa9c 1893 7811 b53f 3470 73d6 6d7a a33f
00000640: 0879 cb95 748d a9bf 0f69 15cf 9c71 e1bf
00000650: 6b00 f7f8 ddfd 913f 1e36 f258 8af7 cdbf
00000660: c76b 2d0c 5deb 943f 14b6 76ea ae9e 9bbf
00000670: 04d4 d780 a419 bc3f 05c2 edf4 364e e1bf
00000680: 5b1b 6c3a ee8d 6c3f 6ff0 3f62 1178 e6bf
00000690: 9a9a 774c 82d2 f0bf 62d8 5320 2d97 d53f
000006a0: 9d86 d18b 0922 c7bf 799f caf6 2a53 cc3f
000006b0: 539a 33a0 0150 e7bf 3f38 eac6 8f19 903f
000006c0: 289e f509 efaf d8bf 1c89 f8c2 fd59 cf3f
000006d0: a930 15fc 1bd8 d63f bea3 0100 3301 d5bf
000006e0: d04c 9edb 4c8f c5bf 1cfd ca35 0a64 d9bf
000006f0: a107 5d19 7675 75bf 7658 456f d5ef c73f
00000700: 4174 0cb5 0a7d dcbf 98c5 8be1 0228 e6bf
00000710: 9d29 a31d a941 cabf 6050 8632 2584 bb3f
00000720: 1d71 18d8 a90e d8bf ac70 e941 bf33 b1bf
00000730: 0d74 6c0c a69e b43f 763b 625d 03b7 bb3f
00000740: d03e 7d18 e8ed c8bf f0bf 67f8 111b c0bf
00000750: fd06 105c 1848 d0bf a691 61d9 e919 c03f
00000760: b882 65cf c113 a53f 1256 ced3 dbfd cebf
00000770: 76be 1584 63df cfbf f6c8 0c72 1649 debf
00000780: 0289 62bf c2a3 e9bf f198 c8eb 8317 c2bf
00000790: 0d66 00b0 f57b b13f b188 8d00 e994 a5bf
000007a0: aca9 d3ca 0303 cebf 213b ba04 9e32 e1bf
000007b0: 46dd 595a 905f cc3f ac99 aaa3 73bd d03f
000007c0: fd36 e100 28c7 c9bf 67d5 2cbf b08a dcbf
000007d0: 650c 8b16 946c b63f 0b41 5a36 5d92 e2bf
000007e0: dfbb d14f dee8 e3bf c13b 9ef8 7771 dd3f
000007f0: f0b6 d379 dcdb dfbf 54d0 b748 1788 dfbf
-0.04913109587529116 -0.0017760358818182467 0.19831704965370747 0.051548396671498686 0.33969714760775005 -0.6215299164357438 -0.06451407375507542 -0.6388490063179753
-0.539729236459419 -0.23705786414803032 -0.6822840885096967 -0.6607257205617922 -0.42568309941793775 -0.20398716275542803 -0.6406832646998762 -0.37575101778617437
-0.27362044795815266 0.06514880967760692 -0.05890167073056458 -0.16538074460197344 -0.8254673247767697 -0.8453190529551075 -0.16399073973993392 0.1299963620894943
-0.6325151904018069 -0.478113305352585 -0.322833786928647 -0.2638411174725665 0.11330210541712837 0.03229877112984477 -0.47479066668832925 -0.3516061367110153
-0.8818486372961388 -0.21512211127020806 -0.3831994494236787 0.07824357988809277 -0.063556633384289 -0.05888990845067074 -0.045114779007937464 -0.3546906378939909
0.45249328472937533 0.2151404697784563 -0.07201759690178779 -0.3832184821625281 -0.48778539698537127 -0.3363589871592236 0.3711510534033038 -0.4659909530058735
0.3564869228880345 -0.8466033455681973 -0.6457602948019947 -0.491424230509838 -0.3564596150088795 -0.022160037831043596 -0.29032149012262526 0.18928847782411415
-0.4913400248032364 -0.04793505969497898 -0.05374455740797071 -0.2762498728876275 -0.552719451888117 -0.41376638098138524 -0.035769237597734004 -0.3349192487496841
0.2164025229026234 -0.8323153461237307 -1.594552146643119 0.11591794705912115 -0.34018800312259584 0.34439961508166816 0.2991630872546876 0.31746555503652835
-0.5304529199104041 -0.633666728650231 0.3701255438953767 -0.26580048369784487 0.1771414276665006 0.15986169230671024 -0.6134610757967114 -1.1913407988604663
-0.6421353478362256 -0.19465640397960532 -0.5035165913000464 -0.14181154526547213 0.14772530181166513 -0.3355505397364125 -0.291984936890615 -0.2777741708062346
-0.1876186168007233 0.0018647281700606803 -0.4085268568580569 -0.32193612281659795 -0.1476073180567503 -0.33552147790767384 0.04398895591526924 -0.8202458145894215
-0.03004177219953281 0.08903337993851984 0.03398568863897702 0.10560307979100049 -0.595911855085134 -0.12208865367038214 0.11126886462205013 -0.11626361898919381
0.012173003964250457 -0.034705796257990064 -0.506304769944335 -0.1510097922014037 0.034980339005344835 0.06338461631883699 -0.39083186028603684 -0.4176042611165364
-0.005802233772047434 0.04729059168079944 -0.43630970030736127 -0.7283006123317373 -0.5204244524117015 -0.3248082139407834 -0.21921593119906924 -0.03975182034396082
0.12292362299697361 -0.12659830416883247 0.33881678253338243 -0.3225037597543987 -0.3225554858475782 0.06987680851251324 -0.16738549665290023 0.3332496314707876
-0.42733555140932683 -0.09486405995675933 -1.3494154978056478 0.1989364253732421 0.0480250154169762 -0.09239107793005966 -0.03489732109197759 0.023554144232282498
0.5540883249139266 0.2577685953555795 -0.855346295002574 -0.3418395542533484 0.19600756938863628 -0.06752598718311527 -0.08140399047645488 -0.2645408758967192
-1.165576744041831 0.0034151154702507657 -0.18311529241644936 0.29217592858578983 0.5085795917372785 -0.10114861690525571 -0.5184615946993268 -0.48084964785073875
0.07494646163708336 -0.16587107718149388 -0.02474163497568684 -0.1615214399744242 0.5042582725586214 -0.7694586834241411 -0.62403386883314 -1.1506322805681566
-0.49546513662764713 -0.6279086049529591 -0.5047812030113267 0.023024346710955847 -0.6753789864558029 0.0019157647111585612 -0.3593072590267889 -0.33985177883595963
0.003308466820202563 -0.4499111536064377 -0.5177353280591505 -0.364358700087506 -0.09898275043515457 -0.20366599519179593 -0.043777171347955 -0.1159342575226176
-0.6397569417748162 0.05059291396132434 0.08816035456203146 -0.6080537655556157 0.3057668280522091 -0.6901349186140827 0.1222501168321191 -0.5249913510140283
-0.359691701734429 -0.2676196746646239 -0.03071117867267696 -0.5452758795867122 -0.2691627921252831 -0.17212695796184568 -0.3724080816452389 -0.48360754056265426
0.4320512624664966 0.15476219553084256 -0.4906575887104246 0.27265329549795314 0.25076812855452846 0.16369337538966444 0.08229783621992573 0.03804343455132689
-0.04990734413671488 -0.5451187176325066 0.01756998855648854 -0.23411683409760625 0.020429090374232375 -0.026972516117600945 0.10976627488692264 -0.5407976897968757
0.003485646523930281 -0.7021567267361329 -1.0513937937736615 0.3373520675371592 -0.18072623564790016 0.2212880806957818 -0.7285164002358421 0.015722509876063603
-0.3857381436596108 0.24493381519375468 0.3569402658220136 -0.3281981945097491 -0.1684356758456489 -0.3967309499093561 -0.005238972973360762 0.18700664456509103
-0.44513194733173483 -0.692384186286449 -0.20512880274902737 0.10748512729179671 -0.3758949861819632 -0.067195848075644 0.08054578593551316 0.10826130895496341
-0.19476033397449166 -0.12582611684001632 -0.2544003390358823 0.12579081644356654 0.04116635948844788 -0.24212215272989163 -0.24900478314838254 -0.4732109178322753
-0.8012403238283528 -0.14134263050909326 0.06829772517121331 -0.04215171939610352 -0.23446700481083604 -0.5374288647015854 0.22166637813254847 0.26156321509406655
-0.20139026682812036 -0.4459649912781373 0.08759427595491472 -0.5803667127202358 -0.6221763190241026 0.4600505760108114 -0.4977942647663971 -0.49268133260125535

fc2.weight f8 [256, 256]
00000000: 71ac 5a1d 6ace c9bf 06d9 f00f ec72 d23f
00000010: fa7c 2cd7 ec2d d13f aea2 d3c6 701a b83f
00000020: 4086 b9f0 bbcc ccbf 2b6f 2a7a 3457 b9bf
00000030: e74c d33f df99 d8bf 8370 8ee4 082f db3f
00000040: 8982 1074 f126 bcbf 5d56 e4a9 b227 d03f
00000050: f31b 70ba 0445 b7bf 73b0 8734 127d d4bf
00000060: 32ce 5e16 1dc7 90bf 1db5 c778 b0cb a5bf
00000070: f6bf 247a 4696 b73f c2ad be4a 2560 ce3f
00000080: 7e0b 7cb3 4a06 843f 7011 6ea8 ba79 433f
00000090: b15a ce67 b858 d0bf 59ea 731a 31c1 90bf
000000a0: 4a2a 075a 1c41 d5bf b10f 51e8 2041 ba3f
000000b0: 4cea 5582 2518 d7bf 5f67 f69f d4cc c43f
000000c0: 3919 27ca c2e0 9b3f 57de 50bb d4ab b83f
000000d0: e5d5 2eba 57e5 d03f ad33 042b 01bd b9bf
000000e0: 3e54 3e38 bd30 ad3f a2a2 fde9 5c4c 80bf
000000f0: 0882 143f 045d c4bf 242f e0c6 98b5 7a3f
00000100: 5ccd 1922 97ad 753f beb5 5470 c7a5 c03f
00000110: 4a6a f327 9d18 b83f 195d f425 d580 ab3f
00000120: 80c3 a60d dd08 cbbf 12b0 a8e5 f553 bbbf
00000130: d603 a466 ac5e c8bf 75a8 ce20 cb60 703f
00000140: 658a 4d88 c3c2 8abf 1d59 2bb9 e6f0 923f
00000150: 0054 ea41 64bf 9b3f 25eb 1a3a e57d b43f
00000160: 8f7c 0a7a 94e6 c43f e476 e283 293a c23f
00000170: 190b 5ba6 190d abbf 522b 0a27 e77e c0bf
00000180: 0905 7fa7 99f5 c3bf b40e b38e 364d ddbf
00000190: 9e92 5658 3c8f d5bf e067 862e 060a b1bf
000001a0: cfd1 25fb 00ef c7bf 18b4 031c 827f 753f
000001b0: 8a9b 1fbd df94 943f 8704 debf 66d5 d53f
000001c0: 07be 0cd8 eece ddbf ee13 b996 0205 ce3f
000001d0: 2fb2 69a0 4b18 c53f 12c1 582d 8420 ca3f
000001e0: 1b33 43c1 7418 a93f b38c 3842 e547 a63f
000001f0: 4dc6 867a d12a b53f 4de5 4898 1e74 c0bf
00000200: 8ece e72b 0b4f c13f 50d6 1e87 98c8 b73f
00000210: 32fd cc25 9c92 a7bf af22 9140 5c08 9c3f
00000220: d87f 402c 1884 d0bf 21e9 2bd3 08b2 c4bf
00000230: cb0f 8c15 7a06 bc3f 9e07 7bc7 9829 c2bf
00000240: 4e40 7c57 4a4b cabf d0c0 78fa ea0a cd3f
00000250: bc05 3978 7b27 8c3f 4e59 4d79 deb5 cd3f
00000260: eedb a478 9745 8dbf 1ec2 ae6e 9539 7e3f
00000270: 1dae ba95 8f8c c0bf 975c 9a03 84ec debf
00000280: 3eec 9242 fafa b0bf afdb efb6 e8b6 ca3f
00000290: 9bc8 624e af20 c13f 0a25 944f b1ce a93f
000002a0: a0e5 8027 424e a03f 4c90 cd61 5244 91bf
000002b0: 853c b825 cee5 dbbf b7ff 9623 76d1 8ebf
000002c0: e594 c95e c4e6 b4bf 8147 39fd 3ae2 b2bf
000002d0: 6dee c222 bda1 b4bf cfe8 4657 043b d1bf
000002e0: cae9 2fbc 222d a93f 5cf9 d9d2 dd7c a33f
000002f0: 8d85 54f2 9e32 e5bf 4335 8f53 b785 87bf
00000300: 7b60 1e98 a825 d5bf fd7f bdb4 a945 973f
00000310: 85c4 53b3 83e8 b2bf 4f4d abbe 422a d2bf
00000320: 15c3 5232 5bfa b9bf 6910 611b 1527 e5bf
00000330: 8ab0 e5cd 1b29 c03f 002b 7a84 48df c03f
00000340: 44fb bf85 079e da3f 731a d48d 4aaf dc3f
00000350: 747f 216e 5547 a33f 9a85 37ad c9c0 c03f
00000360: 58ac aad9 752e a53f 1666 b286 24c6 d6bf
00000370: 3c81 4431 940c d43f 74a7 3cf9 57d8 4fbf
00000380: 6ddf 424b 6439 703f 2033 79be 29b4 d0bf
00000390: 9e07 fb07 c3fe b3bf a5c7 01e3 1e1b a3bf
000003a0: 6f05 321b 8930 9fbf 26c6 9e5e 3871 aa3f
000003b0: ed60 732a 781e d1bf 89d2 d2a8 6123 963f
000003c0: 9e00 f46c 9c78 b23f 602b b335 5193 b1bf
000003d0: fd31 0e90 6262 c3bf 9005 3023 e14e c83f
000003e0: 332b d973 d574 adbf 7f0b d69d 5cdc a9bf
000003f0: 7ca7 d113 db0c a63f a506 94d7 39aa a53f
00000400: 5584 e518 551f d13f 889c 3ca0 5dc1 cbbf
00000410: 48e7 5b4d 86ec 923f 5fbf 3440 0eda c33f
00000420: 0847 0d4f 37bd eebf bd1d 022e d45f c63f
00000430: 006e 88f2 9b17 91bf e649 91d0 4c0d c03f
00000440: f571 35d3 732b ad3f f041 307f 46dd a7bf
00000450: 342d 435e f634 bfbf e9e1 aa9a be3c d2bf
00000460: dfc4 4ae8 c14f d5bf f187 5dc6 84d3 c2bf
00000470: 6a8c 3492 56f7 dd3f bb63 8cc5 b18a ab3f
00000480: 8eee 17d3 851a c3bf c9ff 770a 3943 b6bf
00000490: 06d9 aca9 8b4a bb3f 929a 8aee 5b99 b4bf
000004a0: 60d3 7a36 9230 babf 9335 5be4 33ea c13f
000004b0: de4c fcf2 d62a a0bf 77a2 afba 786e c0bf
000004c0: ac98 d66d cc2e c23f 60c5 4d13 b3ec bfbf
000004d0: 8e66 f14b a326 b9bf 4c79 fe08 0894 973f
000004e0: c749 d327 bc43 c23f a107 c02c 96b6 a9bf
000004f0: 006d 9b36 890a db3f 63be 94ea aa8b 903f
00000500: a961 317d 4cd6 bb3f b2fc b2a9 1a97 953f
00000510: e16a 13bd 34f1 cabf 6d42 8b69 ee9e 8bbf
00000520: 841d d090 0247 ce3f 454e 764b 668d c3bf
00000530: 4b9c 4372 117b d7bf 6a19 8788 390d bbbf
00000540: 4a96 525f fac7 b13f 143d 3782 61e6 cc3f
00000550: fec2 7a83 d2e4 bf3f 20aa a0b5 ba80 c83f
00000560: 6f12 bcbd f454 b4bf 779d ae44 2c15 d4bf
00000570: b0b8 2477 b100 d1bf c4ef e4f3 e089 5c3f
00000580: 92c3 cd0d 9754 babf 33fd a492 1821 b93f
00000590: fbee d7de 4553 b53f c50b dd10 d674 c23f
000005a0: ea20 8eeb ed67 ae3f 61a2 ab94 ff0e bd3f
000005b0: 7730 d1a4 d72d c43f 828b b5a7 2fda cfbf
000005c0: f0ac 3945 2452 d1bf d623 2a9c 2472 8d3f
000005d0: 8614 fd4d 8445 cbbf 711e aa89 53fd c33f
000005e0: 5612 29c3 ca43 bfbf f7af ff30 4ed2 b2bf
000005f0: e938 1696 e35b b1bf 510c 2576 8dce 9a3f
00000600: 50c7 304f bdbf 833f 6ee7 95d4 091b d3bf
00000610: cd16 6fa2 b08e d4bf 6ea2 5c46 b250 c9bf
00000620: 3811 9a3a ccbb 79bf aa70 67ac 294a a2bf
00000630: 47d6 3279 96ac b5bf 98f1 c3ab 8008 d03f
00000640: 0503 27dc 0075 e43f b724 0cc2 c5fc a6bf
00000650: 901a 6a41 7768 dcbf 35f1 0c55 8c6d babf
00000660: 7b77 5eaa c5f5 d4bf a508 822e ea67 763f
00000670: 0f2b 6fe0 34f7 b7bf 01e2 e2f9 ae10 b3bf
00000680: 209f d622 bd57 ccbf 07d2 d840 6691 9d3f
00000690: 4608 a185 058d bbbf 9794 193b ca63 c23f
000006a0: 3a77 c782 651b cdbf b3e1 bbf7 75d6 a23f
000006b0: 4d4f aede 92dd e0bf 6af5 9640 0f0f b4bf
000006c0: 6e95 e1c7 61bd c33f 7090 fe80 7103 d33f
000006d0: 89cd 443e c490 b2bf 3ac8 8a9c 8d17 a13f
000006e0: 62e7 601a 4695 c63f 0156 1e7e 7bd0 a4bf
000006f0: 2d34 9127 2b5c c5bf 9c60 b4c7 651a c23f
00000700: e3a8 7bbc c71a a63f 40a0 37f3 dac9 b33f
00000710: f90d c746 7ca6 bd3f b552 2fa5 9c6e 423f
00000720: 9490 c8b5 eb42 a53f 8a9e 220e 0afc be3f
00000730: b2a0 fcf2 d41d c8bf 2ec3 a48c 40f7 733f
00000740: 747c 4f64 f3fc cc3f 2d89 2553 7174 d0bf
00000750: 41d3 f56c 1243 e03f 21ff 498f 0442 c83f
00000760: 3667 ff5c 675d d13f cb91 a130 8cf2 94bf
00000770: 47fb a14a eed2 d13f 9f0e 6d88 1a69 babf
00000780: 8ff6 166e e656 b63f f4f4 5324 e09e 933f
00000790: eb1f 2b32 fc1e b7bf f1eb 6d4f 902c 9dbf
000007a0: 6a87 828c 54f9 c73f 29b8 f3e7 b02c c0bf
000007b0: 403e 37b6 ed4b b03f 8b39 8964 9c84 c6bf
000007c0: 6470 aadb 38ac 63bf 79af f7d5 999b ce3f
000007d0: 6b94 7841 c015 c3bf d639 5811 81b8 e1bf
000007e0: d8ec 5272 a93a aa3f 1bde bf8f c030 cf3f
000007f0: 3ef5 2594 ee80 cfbf fca9 a3be c0d4 90bf
-0.20161177094755403 0.2882642894432056 0.2684280492121186 0.09415345052878862 -0.2249979901708219 -0.09898689253389807 -0.3843916056914182 0.4247457725521217
-0.1099692257271362 0.25242296782503165 -0.09089688827235402 -0.32013373498808234 -0.0163845581916588 -0.04256965135923905 0.0921367691232716 0.23730913304949125
0.00977762565844897 0.0005943452277823846 -0.2554150594454923 -0.016361968268919422 -0.3320990447215634 0.10255628272812946 -0.3608487866219192 0.16250093279523534
0.027224582279609087 0.09637193272725973 0.26399796659401736 -0.10054023075299652 0.05701247512403328 -0.007958150759536157 -0.15908864097674802 0.006520840439417506
0.005292501796805151 0.13005917534739625 0.09412557816850967 0.053717289813159215 -0.2112079922349288 -0.1067498861017955 -0.19038920413734556 0.003998559445714024
-0.013066794964918313 0.01849709038909807 0.027097288630631766 0.08004601162512566 0.1632867427733555 0.1423999685256866 -0.05283432155331109 -0.12887277036892414
-0.15593262365840868 -0.45783771453373423 -0.3368674147298324 -0.06655920635094459 -0.1869813181216515 0.005248554458586539 0.02009915916269337 0.34114998566662574
-0.4657551870213585 0.23452789649505185 0.16480393726978224 0.20411731924242155 0.04901471003686294 0.043517269452672556 0.08268460503929838 -0.1285436862542987
0.13522472041914962 0.09290459917868898 -0.04604042016444011 0.02737564224324512 -0.25806240388373913 -0.16168318091497105 0.10947382951786648 -0.1418944334055227
-0.20542268058534535 0.22689568738997545 0.01374718151703546 0.23211270258861777 -0.014292891854536163 0.00737913486493416 -0.12928957758900675 -0.48318577148297365
-0.06632961392726686 0.20870694096057948 0.13380996062693815 0.05040506454867895 0.031847064325528196 -0.01686218950216327 -0.4359012001377283 -0.015047953568568901
-0.0816462260641689 -0.07376450235577005 -0.08059293841045596 -0.2692271091760973 0.04917248294073635 0.03806203078146339 -0.6624293072710984 -0.011485512006312098
-0.33042349677408084 0.02272668042803615 -0.07386038902383703 -0.2838293897632029 -0.10147638300510338 -0.6610208067654756 0.12625453523230973 0.13181406468023482
0.4158953481818808 0.4481989274067139 0.03765360803004017 0.13088341672759612 0.04137008935989489 -0.3558436694525836 0.3132677537087323 -0.0009718350943092994
0.003960983060259921 -0.2609962806789543 -0.07810610718573094 -0.03731628914910282 -0.03045858601081391 0.051645051527327276 -0.2674847044522853 0.021619344643755176
0.07215287837971338 -0.06865413247139207 -0.1514399722476724 0.189907209569395 -0.0575319961468125 -0.05050935198507655 0.04306683175020873 0.0423143458992972
0.2675373786096931 -0.21683855365811078 0.01848039481317379 0.15509203085957332 -0.9605976623517742 0.17479946371552826 -0.016691624334368882 0.12540588554345716
0.05697214081985528 -0.04661007216066426 -0.12190189172104199 -0.28495755295037256 -0.33299300846836205 -0.14708003698166253 0.46822132375581893 0.05379252945403531
-0.14924691016482367 -0.08696323876938473 0.10660622494183167 -0.08046507428898966 -0.10230363683770127 0.1399597992916993 -0.031576840554544225 -0.12837132564097306
0.1420531784362472 -0.12470549794467933 -0.09824581722332423 0.023025632428123985 0.14269210762593174 -0.05022115036264486 0.42251806576469164 0.016157789771737884
0.10873868996112059 0.021084229095092062 -0.21048602325648516 -0.01348673114390061 0.236542053899239 -0.15275267300295262 -0.36688648375133387 -0.10567054351040431
0.069457672378655 0.22578066690628218 0.12458530149411826 0.19142850750479656 -0.07942132599061734 -0.31379229266391157 -0.26566731104947916 0.0017418572238758626
-0.10285324179655067 0.09816125469386776 0.08330189409747028 0.14419055770312475 0.059386668209357854 0.11351010684632847 0.15764899776184269 -0.2488460129635222
-0.2706385303524277 0.014377866760030427 -0.21305898483311497 0.15616840574169857 -0.12212817444476207 -0.07352150627383468 -0.06780836500385913 0.026178560577374835
0.009643057803348093 -0.2985252929716954 -0.32120910513581863 -0.1977751582683313 -0.006282613534157648 -0.03572206716100486 -0.08466473063421019 0.2505189587971244
0.639282636628281 -0.04489725106948 -0.44387608898288367 -0.10323407246045664 -0.3275007404098386 0.005470194599299348 -0.09361582259513689 -0.07447332001436992
-0.22142757607547825 0.02887496729654695 -0.10762056839397002 0.14367034803141074 -0.22739857564641303 0.03679245614143003 -0.5270475720630913 -0.07835479094406642
0.15421697864364198 0.2970851669035772 -0.07252146263345173 0.03338282142557643 0.17643047607435408 -0.04065309443027943 -0.16687526161186508 0.14143059016419535
0.04317306686228208 0.07729881704256147 0.11582161643951129 0.0005625023717309082 0.04152618974720315 0.12103331418131283 -0.18841039528456843 0.004874469896365237
0.22646944425557403 -0.25710709686076677 0.5081874969606376 0.18951470371757131 0.27132591325572564 -0.020456495731552764 0.27849919594148215 -0.10316625433648106
0.08726349055992898 0.019160749642641542 -0.09031654572311225 -0.028490309570297915 0.18729645596345829 -0.12636386228354127 0.06365857790591978 -0.17592196377740907
-0.0024014578351181804 0.23912356326706766 -0.14910128781153573 -0.5537724818003038 0.05122880478435271 0.24367529887216297 -0.24612219079782877 -0.016436587939930178

fc2.bias f8 [256]
00000000: da76 5aba 2192 bb3f 5c47 a87f 8ba6 94bf
00000010: ce32 5c15 5a84 bd3f 7350 0bf0 1f48 a73f
00000020: 3ae8 03e2 f10a d53f 8075 1716 e5cf c8bf
00000030: b4c9 6dd1 bdac d03f a84b 6f61 c5fc cdbf
00000040: b7e0 7465 3d85 c2bf 0c2e 60be 80f6 dd3f
00000050: 54ce f117 df42 d13f 3a94 2f04 5a2a b23f
00000060: d679 2f56 35fb 93bf 13ec 01e4 5ca2 cc3f
00000070: ee63 7a56 8b39 d83f 03c1 e34e 3309 c63f
00000080: 80ba 98ea c9b8 c83f f514 091b 1062 b53f
00000090: f56e 5213 3b7f db3f 254d 40d5 48c3 b1bf
000000a0: da74 ce5e 2daa b93f 505d 3fad 041a c73f
000000b0: b9a1 61c1 40e7 d1bf 6d33 39be aff5 b43f
000000c0: cca3 5b9d 77d8 753f eca1 e52b 429e a4bf
000000d0: b507 fdda fa0e cc3f 3fdf a0e7 3be5 d23f
000000e0: e85d f57e 96de d43f f4ca 2808 eb1f c33f
000000f0: c269 e63a a158 adbf 3a53 f6ee 28f2 863f
00000100: 582a 93e4 71bf 23bf a7ea d237 33cd 7dbf
00000110: 2a12 c6b1 9cbc c23f b39f 0980 8d99 873f
00000120: bd11 2c64 0ccc c03f 4a40 6c90 76b7 c63f
00000130: 0625 a6c2 ce2f d83f fd3d 1ea5 bad0 d23f
00000140: e65d e63d 35f0 ca3f 5ca7 463c 9f49 b9bf
00000150: 0cdb 683b 4fd9 a13f aef5 3013 ae09 d53f
00000160: 2a40 6121 5a1e 9ebf d6ae 7a3a a31a cfbf
00000170: f2e0 d217 3bbc 803f 9ffa 6b89 ca19 c4bf
00000180: b143 22cc 832e b63f 9bc4 98f0 8cfb c63f
00000190: 19fe 6f25 ee75 82bf 7d73 a8a9 e27b d63f
000001a0: 8398 7158 5668 c53f 10f6 a43a a1f7 c43f
000001b0: 7fc9 3bbf 3596 c1bf c71a 545e 20a4 c73f
000001c0: 3202 b6ec 08c3 b63f 502f 33f1 8dbc 92bf
000001d0: 3081 e22b 5d99 9cbf d245 8003 2a3e c23f
000001e0: 6d69 aa41 1430 c33f f793 426d 61bf d8bf
000001f0: 00d6 6ac2 39e4 c83f 2c7c 3214 b5c6 cf3f
00000200: be3e 1de5 6537 ba3f fc30 8a31 94d3 d1bf
00000210: 42dd 708c 8a58 d43f 2078 109a 4d3a 9cbf
00000220: 7f60 163f a63b cf3f be8e 050a 3711 ca3f
00000230: 83d1 5bd4 b851 b13f 510f 3d8d 3687 b9bf
00000240: 04ab b1b0 3119 bf3f e635 7234 fff2 a5bf
00000250: 9e0d 864e 1771 d13f 1459 c127 21cf 853f
00000260: f998 488e 23a8 c73f 4102 74bf c63d c13f
00000270: d4cd 9ca0 bf9f c03f bfae 8df4 cd4f d13f
00000280: 405b 41b1 b3c3 c43f e13c 0a06 e06c d03f
00000290: cd42 7e6c 0ae3 99bf dc27 f7c5 432a a93f
000002a0: 443d ec17 a38c b4bf 190b a9ce a654 a63f
000002b0: 6d47 5454 7f11 d1bf 5317 c3af 56b9 703f
000002c0: d07f f6f9 86cf d33f aed0 6045 8091 cd3f
000002d0: 9d37 0224 6321 d3bf 2b91 d6ae a58c d43f
000002e0: d421 667d 6d7b d23f b0e7 53a6 4d8c c2bf
000002f0: 0245 53c7 760b c7bf 9177 1341 1437 ae3f
00000300: f344 1886 67ef 9abf 976f f5f9 0dda c03f
00000310: bfc4 b9f8 17e6 cd3f 9782 f295 3d8e ce3f
00000320: 6120 575a 9f85 d43f eebf e2ba c166 963f
00000330: 45f2 1ed3 51b3 c03f 67f6 960f 1d53 c83f
00000340: 8ab3 faa7 389a b4bf 2a6a 3261 744a d73f
00000350: 9ae4 3713 fd17 61bf ab8d 294a e8e7 5d3f
00000360: 3ed0 ce72 ec57 84bf 9521 0310 4fc0 b6bf
00000370: 971f 3913 aa4a c23f c065 9e45 d898 d03f
00000380: ad2e 409a a367 be3f b74f 607e 6ba8 cb3f
00000390: ab1c 340c 24d9 abbf 5f26 e0c4 f5e0 903f
000003a0: 6de2 e439 361e c13f 7f7e 1fb3 9942 d93f
000003b0: f292 1e77 b368 ca3f 76f3 6e92 37c7 943f
000003c0: 5c24 1b71 6146 c53f 1748 06be aa53 cebf
000003d0: c585 73fe bfd7 bcbf 91d8 df17 cf5f cb3f
000003e0: bfb1 8cf1 6d59 cb3f bdcd ff05 7d02 db3f
000003f0: 78dc 60dc 89fd bd3f 8677 cfc3 e5ab e13f
00000400: b9c3 576f 15e4 993f 375d d804 c676 af3f
00000410: 76b3 c682 178e bfbf 82b6 6400 c2d8 cf3f
00000420: cb55 a80e 1926 b13f 88e9 f464 bd22 d33f
00000430: d276 172a 57a7 c1bf a6cc 41e1 b079 d13f
00000440: 0bc1 c667 d81c 95bf b6d7 7301 5a4e b53f
00000450: 2c0f 376b 996f c2bf d92b 8c79 c41b b3bf
00000460: 5a70 776a 3347 e13f 5b13 3495 3959 c63f
00000470: 2752 4865 277c bb3f 465f c896 af5e bcbf
00000480: 8a41 1d19 6320 cf3f aeb4 c700 b5d2 af3f
00000490: 75e2 1d56 57c3 d33f db6d 3638 15d7 a8bf
000004a0: 1388 0dc5 9fcb b23f cd3c c503 bcb9 dd3f
000004b0: 5259 dd71 0921 6d3f 14aa bd00 ac6a 8f3f
000004c0: 4d25 6398 7c11 aa3f df22 db0e 5637 b8bf
000004d0: e958 b231 d20e c03f b016 8518 65b4 9d3f
000004e0: 1131 ec5f a820 a8bf 654e 78d9 6f4d a53f
000004f0: 40e7 ad2e 784c 993f 916a 3fe0 2874 a9bf
00000500: 95ec 351c f58f d23f 1068 2661 dcb9 cf3f
00000510: 1c08 b185 5f9f b03f 5652 a098 d864 b83f
00000520: 5d56 f1f5 1768 a53f 46cc 1eff ad62 773f
00000530: 2b8e a30e 0559 dc3f ddc4 6d10 bf3a 9abf
00000540: a40a 53a4 1476 90bf 68ba c8f5 4cee b93f
00000550: 1d21 fd01 3bf2 98bf a8d0 1d34 52ad b53f
00000560: e2c3 931f 7657 c43f 1455 62a0 9911 c93f
00000570: 93d7 1f50 463b b7bf fa65 f15b c0a5 de3f
00000580: ba28 223e b651 b13f 3157 3922 e9f7 c2bf
00000590: 61ce 5b02 bf22 b83f 7019 c9d5 bf19 cd3f
000005a0: d754 d2c3 c1bd d63f 27e8 3078 0f88 bf3f
000005b0: 4c1d 31df 33ad c63f 7b32 71b4 2f29 b33f
000005c0: f1bc 2c91 505d be3f de11 84bf e097 cf3f
000005d0: cebf 1b08 cf59 c1bf 8b9b 6678 862d afbf
000005e0: 9df6 750b 3567 873f c80e 31c5 e887 d13f
000005f0: 645e 2a90 7a5e c33f 181c 4da4 27b3 a93f
00000600: 4287 4c39 879d b73f 5cd5 f851 39dd 90bf
00000610: dfbd 944c ca9c a0bf 9543 039f c3e6 ac3f
00000620: 041f d10f a8c6 afbf fa97 c88d c626 8a3f
00000630: b771 9bfa 2c44 d23f 84bd 644f 3406 b0bf
00000640: 5a04 c537 9f17 723f acd4 dc4d c188 9f3f
00000650: 2c2c 8dd8 2f15 923f 1a3d 61fc 86bf bebf
00000660: 7be6 7b5d 0467 be3f b30e db8c 29a8 d33f
00000670: 1b46 f92a be7d a63f f37b 007c ae91 ac3f
00000680: ec29 f516 dc5a d33f 1772 8f11 42bc b23f
00000690: 19f0 5bf4 5f9d d73f 7c0b db5b 71d0 5dbf
000006a0: d673 0fc8 56f5 c93f b117 92fa 219f d43f
000006b0: 024a 6c6b c586 ce3f 304c 9973 6e1b d43f
000006c0: 3d9c e4d0 6a5b bf3f cbeb b163 077f c33f
000006d0: fd69 5287 00c4 aebf c375 a717 8199 d03f
000006e0: f00c e3ed efdc a43f 6e1f 279f 6e24 c93f
000006f0: 7ae5 779e a012 babf 516e 998e 809a 7e3f
00000700: ae67 e809 56ce c53f f635 12f3 7c80 d0bf
00000710: e57c cf77 f08f d23f a00b ea24 331d 61bf
00000720: 285f 568e a522 a2bf 45b6 8e40 2f2f 893f
00000730: 5af2 d56c 82fb d63f 4658 8dac 00df c93f
00000740: 7b29 46c4 4107 d03f e9ef 1206 ad5a b0bf
00000750: bdf3 1f50 1d76 c43f 437a 4df9 16a1 d53f
00000760: 5c69 7006 7738 c0bf bf65 d0e1 255e c0bf
00000770: 2c24 d5b6 90ff c5bf 9d3c 6d95 648f bbbf
00000780: 5271 50fe 591a d43f e242 3a7e c94a b3bf
00000790: 735b f50e 8880 923f 5f47 9716 21cd c83f
000007a0: 699d d629 2912 c0bf 6623 cfbf 711c b73f
000007b0: c154 16d2 d5b8 c23f d6d6 636b 8779 97bf
000007c0: e6e7 8a3e dcad bf3f df2f f1fb aac5 c63f
000007d0: 9a2c 32a9 21cb a1bf c22a f3d8 4cb9 89bf
000007e0: c446 de0c 5e35 c83f 40a5 82d8 fbb3 d03f
000007f0: 816a ed61 7224 bb3f b602 f3ff 3d02 d33f
0.10769854354517908 -0.020166568438134788 0.11530077954757731 0.045472143223066384 0.3287930209331794 -0.1938444478864021 0.26054330303227435 -0.23427645928913177
-0.14469115690167708 0.4681703433168145 0.26970650995574386 0.07095873453325022 -0.019512971291868762 0.22370492108515858 0.37851222462774003 0.17215577461275453
0.1931393046847525 0.08352757129712869 0.42964054953493697 -0.06938605505302016 0.10025294842349144 0.18048151454307026 -0.27973955998325156 0.08187387842299439
0.005333392376749079 -0.0402699163994987 0.2192071503905574 0.29524133319818086 0.32608568571364893 0.14941156290441138 -0.05731681674952284 0.011204070847080073
-0.00015066399854498052 -0.007275772162013062 0.14638098411900674 0.01152334734906888 0.1312270630952649 0.17747385074517502 0.377917947852055 0.293989812133958
0.21045556566671947 -0.09877963277417962 0.034861064912936696 0.3287158191122569 -0.029412658965441242 -0.24300041537696043 0.0081715218205862 -0.15703708372162326
0.08664726003395519 0.17955171344650442 -0.009013996617794938 0.3513113648239637 0.1672466213087241 0.16380706180090998 -0.13739654386115416 0.184696241434912
0.08891349581791344 -0.018297403189350192 -0.027928787044062264 0.14252209826422174 0.14990475851375198 -0.3866809432022928 0.19446489327462757 0.2482515667552162
0.10240780681237546 -0.2785387500560004 0.31790412630967435 -0.027566158798542628 0.24400785522880494 0.20365036000577236 0.06765322861230598 -0.09971943805890972
0.12147818149393791 -0.04286954417430504 0.27252752941441283 0.010648974443182392 0.18481869170609125 0.13469776485728072 0.12987513868721 0.27049588091061233
0.16222234873813512 0.2566452082618991 -0.025280154106044606 0.049150579372124276 -0.0802709515958116 0.04361459038456967 -0.2666929553534974 0.004083002681175635
0.3095414582294298 0.23100283992392207 -0.29891279713126 0.32108442377127017 0.28878342863074846 -0.14490671750519146 -0.18003735287360462 0.059013970321515015
-0.02630388027143211 0.13165449814812 0.23358440060431993 0.23871583768506774 0.32065566847132315 0.02187636092338601 0.13047240074765135 0.1900364233132905
-0.08047823048646144 0.36391934863937314 -0.002086633956193196 0.0018253105596607126 -0.0099333260094242 -0.08887189999507535 0.14290357531194495 0.2593289070005902
0.1187689067448285 0.21607726736749353 -0.054391027917568856 0.016483154431659815 0.13373449160441755 0.39468996517641836 0.20632022205713657 0.02029120284327087
0.16621034643893295 -0.2369283130506694 -0.11266708337964022 0.21386135736219505 0.21366667074597775 0.4220268782221089 0.11714994077998309 0.5522335838720529
0.02528413288195328 0.06145304497857256 -0.12326189940240603 0.2488024236603686 0.0669875775132233 0.29899535044719316 -0.137919326355521 0.273052425363128
-0.02061784871483589 0.08322680030309368 -0.14403074011908623 -0.0746424481150564 0.5399415091919864 0.17459792886088618 0.10736318800656673 -0.11081979209154466
0.24317587591441409 0.06215444216273035 0.3087976780875928 -0.04851595221699841 0.07341955719815045 0.4644613301106347 0.003555792281001371 0.015340179226503138
0.05091466293522249 -0.09459436285682042 0.1254523031863706 0.02900846445233779 -0.04712415858202424 0.04160642175352506 0.0247057703486242 -0.04971435296439098
0.2900364661688369 0.24785952323583205 0.06493184102967614 0.09528878904559099 0.04180979611616629 0.00570934264571849 0.4429333346326724 -0.02561472451947543
-0.016075441865505483 0.10129242897594681 -0.0243615360225543 0.0846759202229942 0.15891911069732517 0.19584961253409772 -0.09074820953523348 0.47886666277699386
0.06765307442597904 -0.14819063349812603 0.09428018386443561 0.227348307979081 0.35533184169009985 0.12316986736632939 0.1771607246211978 0.07484720378233505
0.11861136955552688 0.2468224463592738 -0.13555324455182788 -0.06089420528160535 0.011427320873504338 0.2739202428531198 0.1513207630093688 0.0501949680388451
0.092247439850806 -0.01646890223328988 -0.03244621453120166 0.05644809070657356 -0.06206250374867575 0.012769271089450019 0.2854111144386268 -0.06259467066114693
0.0044170588919892565 0.030795116784436402 0.017658946602107914 -0.12010997449509767 0.11875941545795314 0.30713881259382986 0.04392809176046005 0.055798962246846794
0.30242063753089954 0.07318509033888919 0.3689803968734409 -0.0018197161693229427 0.20279965179989173 0.3222126910189856 0.23848788972152596 0.3141742829222407
0.12248866653372743 0.15231411331100583 -0.060089127081671 0.2593691569325893 0.04074811724560756 0.19642431994565918 -0.1018467318425759 0.007471563506978266
0.17035937770634518 -0.2578422902814447 0.2900353593849572 -0.002089118853576946 -0.03542058336750947 0.012297028691899867 0.35910091999520477 0.20211800027272114
0.2504429260958642 -0.06388360403337824 0.1598545685991705 0.3379571375461731 -0.1267231732788997 -0.12787316824032577 -0.17186173369762636 -0.10765675209153121
0.3141083701646227 -0.07535991031387426 0.01806843367861739 0.19376004794190302 -0.12555422346961656 0.09027777607765372 0.14626572378316463 -0.02292453377682232
0.12374664809149713 0.17790734578954834 -0.03475289526348853 -0.012560463305267947 0.1891286433060967 0.2609853376730662 0.10602488413625545 0.2970118522171491
