Q3/400.ckpt (torch, 754704 bytes, 8 tensors)

fc1.weight f8 [256, 67]
000000 68 10 cc ea 59 71 bd bf a0 e7 c0 f8 aa 21 a0 3f
       -0.11501085264541333 0.03150686537305991
000010 27 a5 cf f7 ff 9d e8 bf 6e 50 6d 52 d0 4c d0 3f
       -0.7692870941220108 0.2546883397055869
000020 24 7c ef 8e e1 2b 87 3f 27 f6 fb 01 dd 4c ca bf
       0.011314165281815454 -0.20547068211446737
000030 5e cb ab be 78 56 bd bf d8 a4 b8 1b 9d a4 b7 bf
       -0.11460070281081644 -0.09235555578983978
000040 ed 4b 20 a9 29 2e c1 3f 5d 42 55 fd ad 0c aa 3f
       0.13422127493012628 0.0508779880279959
000050 11 2a e9 cc a8 f1 bf bf d6 03 15 20 0d 48 c9 3f
       -0.12478117945389779 0.1975113302851514
000060 4c cf 6b 08 01 a9 af 3f 0f 09 db 69 50 29 b7 3f
       0.06183627345845241 0.09047415336957364
000070 b4 b5 02 87 7b 7a 98 bf 32 49 a6 27 35 03 b0 bf
       -0.02390473376788345 -0.06254894464499186
000080 7d ff 0a ca 2f d5 c8 3f 2d 11 e9 cb 30 27 bb 3f
       0.19400594106081917 0.10606675127298067
000090 fe ca cd 5a 7e c7 c5 bf fd 44 19 e3 13 7d e1 bf
       -0.17015056070120943 -0.5465182719728144
0000a0 08 70 d2 e7 f1 10 d0 bf bf 78 17 14 92 16 d4 bf
       -0.2510342372786458 -0.31387760126188974
0000b0 97 f9 ad 86 b9 d1 bf bf 21 ce 38 49 aa 44 d1 3f
       -0.1242938951308815 0.2698159899766513
0000c0 64 27 1d 48 0b b2 d6 bf ae 8b 81 6e 5e ee e0 bf
       -0.35461694757815665 -0.529097762901406
0000d0 60 33 82 5e 87 65 f8 bf c1 0e d5 a6 d6 1b ce bf
       -1.5247873012296722 -0.23522456308466214
0000e0 22 a6 20 ae 2f 0d de 3f b3 af cb 82 3f 87 da 3f
       0.46955482487337197 0.41450488827717463
0000f0 a7 5c 0b c8 9a 91 c3 3f d4 44 77 ae 85 04 db bf
       0.1528810002116405 -0.4221510127800461
000100 d7 79 81 76 0a 68 e8 bf ef b2 e1 06 40 18 df 3f
       -0.7627003016057711 0.485855108948086
000110 e4 8a 4f 9d 81 fa c4 bf 95 06 8c 7d eb 4b 0c c0
       -0.1638948457831112 -3.53707025607657
000120 80 47 7e db 51 ed e5 bf 35 96 1d 2a f6 34 8d bf
       -0.685219696710405 -0.014261172447457596
000130 d4 c3 5b f1 15 d9 cb bf 71 dd 52 52 1c 09 d8 3f
       -0.21756243023949529 0.3755560687963771
000140 b2 29 0e 53 36 b7 b6 3f 26 9e fe 5f 7e e8 b1 bf
       0.08873309638707985 -0.06995382159822636
000150 5c 7f 09 06 fd 1c c7 bf c0 6c 42 74 3b 5d 82 bf
       -0.18057215494899992 -0.00896688889070274
000160 c4 88 30 9e 3e 69 8b 3f b4 58 5f 70 dd 1a 80 bf
       0.013384331896365238 -0.007863740913233698
000170 4b fa 7c 58 82 1e 9b bf 1e dc 29 2b 5e 61 7f bf
       -0.02648357071961475 -0.0076612165890912725
000180 78 45 72 37 a6 1b 9f bf da 50 55 c2 20 0a 99 bf
       -0.030378911146333704 -0.024452697621499243
000190 80 83 5c f4 eb bf 8b bf 9e ae dc 30 9e 05 67 bf
       -0.013549655337159683 -0.002810296026742722
0001a0 30 97 fa 2b cc d3 69 3f 53 9a 3d ef a6 58 4f bf
       0.0031527507524796924 -0.0009566130743053437
0001b0 e6 da fc f7 7d f3 80 3f d0 d5 17 96 a0 d6 83 bf
       0.00827692425774047 -0.0096867128186017
0001c0 e2 85 c4 81 55 43 3f bf 77 f8 ef aa 5b e9 7c bf
       -0.00047703588076516816 -0.0070584851046061525
0001d0 02 3d 8d 10 95 73 62 bf 93 27 f3 6a 09 f4 4a 3f
       -0.002252379552750151 0.0008225484833925704
0001e0 0b 3b 2b 6e ce 0a 6a 3f 4e b6 94 41 6a a8 4a 3f
       0.003178981003066799 0.0008135336712819603
0001f0 ec 68 f5 7a ac ca 91 3f 7c 50 b0 7a b4 f6 73 3f
       0.017374701504515963 0.004873948094445631
000200 a8 0f 28 f4 30 2a 68 3f a5 aa ad 1e 6b b7 77 bf
       0.0029498058440839588 -0.005790155827393538
000210 99 01 5b 4a 91 38 5d bf 89 41 c7 ca 3f 4e e6 bf
       -0.001783506283956715 -0.6970519028200651
000220 84 ee b8 c8 2b cb d6 3f fb b2 ed aa 5d cb e5 3f
       0.3561505756549439 0.6810749376723771
000230 dd 74 0c cf bf a9 e1 3f 1f b0 7c 93 b5 a0 ca 3f
       0.5519713443678956 0.20802945806042403
000240 9d 05 df 27 67 2f c9 3f 86 c1 34 50 d7 8e b5 bf
       0.19675912329516346 -0.08421083171993446
000250 ad d9 22 e5 26 1c a9 3f 32 b1 e7 6c b7 1c 99 3f
       0.04904290721008251 0.024523607275044053
000260 7e ee e3 b5 e3 c5 db 3f b9 19 b6 ff b9 fc e3 3f
       0.4339532161973024 0.624600409923736
000270 7f 86 45 d5 78 dc ed 3f fc 25 18 dd b3 d9 d6 bf
       0.9331630864582648 -0.35703751174204945
000280 d6 60 7d 39 e3 bc a1 3f 0f e8 fd de f8 af a9 bf
       0.034644222991745785 -0.05017068597858564
000290 e3 72 80 12 02 13 de 3f 6a a3 82 27 ca e0 af 3f
       0.46991016203700847 0.0622618840437273
0002a0 43 5f 19 d4 b2 cd a9 3f 15 97 3b d5 63 17 b6 bf
       0.05039748038387739 -0.0862944026553943
0002b0 37 b7 dc 6c 15 b3 ab 3f fd 9e 86 be 30 0f 6f bf
       0.05410067514308852 -0.003791423038098317
0002c0 b2 cd 1e 90 4c e3 f1 bf a3 62 70 fe e6 7f ea bf
       -1.1179929380130997 -0.8281130761634653
0002d0 d6 4f 0f 2f e6 d0 b6 3f c8 7a 28 45 50 14 c7 bf
       0.08912504815026465 -0.18030742050992488
0002e0 42 4b 0d e1 7c ff e1 bf 1d 7a 85 12 1e 95 f5 3f
       -0.5624374766870022 1.3489056323520636
0002f0 6e 5c 1b d1 55 bc d9 bf 2b 01 6b 5c 63 d4 db 3f
       -0.40212006970018066 0.43483814263528825
000300 4b d4 53 b1 c2 c0 dd 3f 1e 1e 72 4c f7 6d c7 bf
       0.4648901683534105 -0.18304339630798067
000310 ac 43 11 f9 55 3e e2 3f 81 7f 2c 84 d8 d8 f0 bf
       0.570109354457704 -1.0529408610381952
000320 99 c5 40 8c 32 48 e5 bf 9b 2c 2a dd ff e0 e5 3f
       -0.6650631655995084 0.6837157554267778
000330 7e 3f 3a 87 b8 0e ef bf a3 b6 38 c9 a9 b2 d6 bf
       -0.9705469742930146 -0.3546547379545279
000340 0f e0 42 7a 56 97 a1 3f 92 ac 78 1e 24 69 d8 3f
       0.03435774080702469 0.3814173028537847
000350 4d 59 a2 75 6e 74 d8 bf af 22 4c 96 1f c7 de bf
       -0.382106413724064 -0.4809035270450676
000360 b1 65 da 57 2c e7 da 3f 92 fb 58 d5 df d1 c9 bf
       0.42035969333081896 -0.2017173568474076
000370 29 4d dd df 7e ea 9e 3f 83 f9 50 f1 8b 3d 9f 3f
       0.030191404737093173 0.030508219341066855
000380 b8 ad 65 c1 60 4a 98 3f aa 55 ae cd 00 13 88 3f
       0.02372122936632845 0.011754995610128233
000390 e8 c7 80 b7 98 35 9f 3f 45 69 36 24 47 49 96 3f
       0.03047789211286292 0.021763907990682858
0003a0 d6 56 48 0c 8e 16 83 bf eb b3 7c 1b be d3 92 3f
       -0.009320363759836619 0.018385858943634686
0003b0 10 84 26 d9 8d 5a 75 bf f6 37 52 49 a8 b9 7e 3f
       -0.005213312239363624 0.007501275414268696
0003c0 b2 b1 c6 f5 ec 1e 67 bf 9b 1f 50 e6 b7 cc 66 3f
       -0.0028223636747581543 0.0027831641950832437
0003d0 ee d6 96 cf 2e 16 98 bf 2e e7 c5 d2 f7 a4 29 bf
       -0.023522120876541423 -0.0001956512945858134
0003e0 cc 72 06 36 c5 3c 9c 3f 1e 52 e9 d5 6f 8d 86 bf
       0.02757557050937258 -0.011011956897314209
0003f0 cd 25 5e a8 83 aa 61 3f 08 85 53 b7 09 5d 66 3f
       0.002156502860945797 0.0027299108283932484
000400 56 5b c1 62 ab f8 82 3f 44 5f 18 06 69 1d 83 bf
       0.00926336188437708 -0.009333439348708013
000410 f1 d6 a7 86 7c d3 54 bf 27 cc 90 10 b5 3a 61 3f
       -0.0012711254190639865 0.0021031891269785055
000420 d1 94 3d 03 66 b6 6a bf 7e 57 b5 23 a6 94 76 bf
       -0.0032608025011763094 -0.005512856466642789
000430 13 57 e0 45 4f eb df 3f a4 d3 4f 41 94 44 d2 3f
       0.4987371618639013 0.2854357374010823
000440 62 7d 0d f4 b0 50 d2 3f e9 ce 92 ac 80 58 e9 3f
       0.2861750014617056 0.7920535440993862
000450 29 cf 2d a6 31 f6 a3 3f 81 26 55 48 17 8a c5 bf
       0.03898768571425954 -0.16827670127741004
000460 59 c8 89 bd 5e 45 e2 bf 01 28 99 aa 47 ef cb 3f
       -0.5709680272978047 0.21823974447244157
000470 ba 0f f0 b7 a8 3c ad 3f 19 66 cd eb 81 68 d2 bf
       0.05710341687520733 -0.2876286318547457
000480 c7 0b c3 1d af 8f e5 3f 12 8a d6 91 83 34 9d bf
       0.6737895566260413 -0.028520637298820324
000490 4a 36 9c e8 f2 65 b6 bf 22 76 af 4a 5c 43 d3 3f
       -0.08749311617813152 0.3009863595342229
0004a0 82 84 0b 12 b6 98 69 bf 31 19 36 c3 8b 74 e1 3f
       -0.003124576193258622 0.545476800224412
0004b0 4d c3 8f a0 fd fd b0 3f cd 33 ca 03 3b c1 d1 bf
       0.06637559099159525 -0.27741885538199257
0004c0 c4 ab 15 00 ee 7e a5 bf 26 56 12 a4 93 a2 d1 3f
       -0.04198402167352058 0.27554789564723803
0004d0 17 2b 19 b2 36 8f c1 bf 1b a9 06 3e f6 2a d4 bf
       -0.1371830339070008 -0.3151221852991896
0004e0 82 e3 db 33 06 15 9c bf 2f 2e 98 76 b5 ca dd 3f
       -0.027423951068132897 0.4654973657750103
0004f0 df f9 05 40 0c d4 e7 bf 23 b6 11 6a be 6f ec bf
       -0.7446347475486695 -0.8886406013168123
000500 c3 f9 66 a1 01 1c f0 bf b1 f5 9c 58 22 45 dd 3f
       -1.0068374924445471 0.4573446145403422
000510 cb 9e e1 c3 bb 1f b0 bf 90 a8 7b 94 30 2b d5 3f
       -0.06298421413668646 0.33076109409615473
000520 d6 c9 9b 6e f8 fe e1 bf e5 eb c9 c1 8b 64 d0 3f
       -0.5623743210147107 0.256136836287338
000530 31 a8 19 00 f1 24 e8 3f 6f fc f4 93 17 02 ab 3f
       0.7545094491918062 0.05275033646693649
000540 9f d6 9b 48 cb 32 f5 3f 9b 67 49 34 00 f6 c7 3f
       1.3249008976248786 0.18719484856665933
000550 12 f4 28 06 7f 90 fb bf 82 d3 54 8d a4 ea 8d 3f
       -1.7227773895858758 0.014607701838579738
000560 25 5d 8a 4d 7e ce c5 3f 81 c0 0a f9 10 14 b0 3f
       0.1703641775718349 0.06280618744017553
000570 6a d8 75 d7 42 6a ad 3f 14 32 7c 80 07 ab be 3f
       0.05745133285647415 0.11979720007747857
000580 47 6a a1 39 24 8d ce 3f 11 e5 e1 b4 6b 0e 99 3f
       0.23868229688635464 0.024469073214707985
000590 b7 3b 12 7e 96 f4 c1 bf 33 69 2c 24 60 21 c1 3f
       -0.14027672916242093 0.13383104101451124
0005a0 b1 6f 93 67 a8 8a aa 3f c5 ae c8 d8 5d d9 b0 bf
       0.051839125293298045 -0.06581675093246549
0005b0 63 d9 3a e7 46 63 90 3f f7 6d 46 25 44 9b 83 3f
       0.016003711569930867 0.009573490512415168
0005c0 68 42 66 68 4c 3d 94 3f 2e b8 96 db fc 7d 76 3f
       0.019765085098301688 0.005491245008142838
0005d0 ae e4 48 76 49 62 99 bf df e7 31 fe 15 d0 58 3f
       -0.0247889975018764 0.0015144552969830122
0005e0 19 61 3b 35 20 c6 61 bf 74 8b b8 f9 0a ed 77 3f
       -0.0021696690617824086 0.005841296074808312
0005f0 c3 ed f2 94 f4 bd 91 bf c9 58 21 63 a7 9f 84 3f
       -0.017326184836503843 0.010070140564647183
000600 08 88 9a 78 b3 9d 84 bf 70 7c 56 41 4f a1 7c 3f
       -0.01006641589930625 0.006989774313665639
000610 9f 0f d4 70 ed 2c 69 3f 01 45 a6 15 76 83 9c 3f
       0.0030731809152956947 0.027845234938983946
000620 a6 ea 77 e6 41 30 8e 3f 6e 02 e7 59 dc 31 86 3f
       0.014740481229627744 0.010837289327242785
000630 54 26 34 a3 e0 5e 84 bf 59 07 ed 8b 68 33 a0 3f
       -0.009946589451391187 0.03164221485213998
000640 b7 bb 15 c4 5b f0 79 bf ad ee 27 fb 11 5d e7 3f
       -0.006332739315765438 0.7301111131086678
000650 3c 77 80 5b e4 74 e5 bf c4 ea eb 22 31 0a f0 3f
       -0.6705190455574903 1.002488266384419
000660 d6 68 a1 1a 63 d8 c3 3f ef 2a e1 49 7f f0 b0 3f
       0.1550411109954612 0.0661696963663123
000670 df ce 98 f3 8b f7 db 3f 33 c7 20 33 81 bb de bf
       0.43698405064354334 -0.4801943778321515
000680 cc d5 30 71 36 33 a4 3f 8c 88 a9 da 9e 1f ab bf
       0.039453221623641704 -0.05297562045304102
000690 d8 10 31 e7 d3 bd dd bf 59 21 9a d2 7e bb d5 3f
       -0.4647111661654555 0.3395688110981801
0006a0 2f de 17 ab 7c 36 e4 bf 4f 20 b2 27 c4 dd d8 3f
       -0.6316512433685996 0.3885355365423537
0006b0 1b 7b 11 0f c3 b3 c2 bf c4 65 9b e6 30 3d af 3f
       -0.14611089931255425 0.06101372542407149
0006c0 bb 7e c0 45 05 be b1 3f 0d 9f b7 13 11 bf be 3f
       0.06930573418548651 0.1201029465806835
0006d0 fe 06 30 82 96 21 dd 3f 7e 43 a9 b6 16 7c c2 3f
       0.4551750441897723 0.14441188735011318
0006e0 24 65 0f 82 9e f8 c1 bf 9b df 8b ee 84 be c4 bf
       -0.14039975500671986 -0.16206418655178542
0006f0 bb 22 40 a9 79 c3 f4 bf b2 bd 72 b0 0c 14 d1 3f
       -1.2977234469746424 0.26684872847814767
000700 89 d2 d4 a7 1e 41 e5 3f 85 12 08 ba ab de c7 3f
       0.6641991880374728 0.18648287375994613
000710 8c d6 28 f3 1d eb ef 3f f3 0f 53 27 30 a6 ce 3f
       0.9974508046349952 0.2394466583265281
000720 49 bf d1 05 90 00 6f 3f 6e 7e 05 d2 9d 57 df 3f
       0.0037844479507426515 0.4897226859083962
000730 6c e7 4d 06 7f 9e bf 3f 55 06 39 8b 12 ad c4 3f
       0.1235122099295986 0.16153175161348324
000740 a1 ac db 00 42 be e5 3f de fe 27 4a 7d d3 f5 3f
       0.6794748322257825 1.364133157418045
000750 3f 21 1f da ac 8a d6 bf 24 05 fd 44 b1 58 08 40
       -0.35221406269967653 3.043306864711342
000760 0a e1 06 0e 1c 95 cf bf 17 3c e4 11 43 6d cd bf
       -0.24673796353250338 -0.22989691136942333
000770 82 fa 8d db 77 0d a6 bf 72 bc 3b ce 2a c4 d5 bf
       -0.043071504164790234 -0.34009809627509135
000780 2b aa e7 85 8b 48 c6 3f 42 8e 8d b7 b7 19 8e bf
       0.17408889807059444 -0.014697490014163542
000790 d3 b9 ff 0d af 4c c9 3f c4 19 61 dd 0b 40 b4 3f
       0.19765270408193078 0.0791022696949773
0007a0 45 b0 f2 8b ab 6c b4 3f a0 e1 11 3d e1 b0 9d bf
       0.07978317419719001 -0.02899505553475168
0007b0 af 31 cc 36 f5 e0 ba 3f 02 fd 8a 07 05 c8 b0 3f
       0.10499508464653816 0.06555205759194752
0007c0 35 d7 2e 2d 2b 8d 90 3f 4e ce 93 44 0d c7 b2 3f
       0.016163515694379533 0.07334978985073201
0007d0 57 bf c7 ef 27 7e 99 3f d0 cd 7d 8c ed d7 84 3f
       0.024895309457803574 0.010177474832494676
0007e0 ca 84 35 4b a4 19 92 3f 9a e9 d0 bb cb 76 91 bf
       0.01767594059981973 -0.017054732645399896
0007f0 de b3 4a f2 7a 1f 3b bf f4 41 f9 22 cf 61 53 bf
       -0.0004138636743771777 -0.0011829874819292404

fc1.bias f8 [256]
000000 9c a2 79 b1 a2 f4 b8 bf 67 71 d2 b2 96 13 b5 3f
       -0.0974828418053541 0.08233014932415515
000010 c3 b9 f8 c3 b0 98 cd 3f 54 f9 5f cd ee b4 b6 3f
       0.23122224396634125 0.08869831575427628
000020 13 0a 2c 8c f8 58 d6 3f 0e 6d 92 ae 92 db e6 bf
       0.34918035210299186 -0.714303341828243
000030 b5 44 5c 7b e9 9d 67 bf 3a 1a da 42 10 6e e6 bf
       -0.0028829155152228733 -0.7009354882910153
000040 cc 2a 85 25 b2 f5 e4 bf 2a f9 ba 3c ec e2 d3 bf
       -0.6549921734634494 -0.31072526865672734
000050 2a d9 2f 9c 0d 2b e7 bf 6b 76 bb 85 b1 19 ea bf
       -0.7240055132413421 -0.8156364070852765
000060 41 ad e2 47 a2 f4 df bf cd 8e 16 16 84 24 cc bf
       -0.49930626888336255 -0.21986437872430145
000070 e8 6d 5a 48 c5 43 e6 bf ba 75 55 41 b5 8f d9 bf
       -0.6957727826260767 -0.3993962419534359
000080 e4 c8 8f a2 c4 65 d5 bf b4 91 8e c8 49 c1 b7 3f
       -0.3343364322200968 0.09279309412392572
000090 40 25 91 cb 0f c1 ba bf 81 dc 50 9a 60 c5 b6 bf
       -0.10450838775536386 -0.08894923942067302
0000a0 8c 81 6a 6b d7 ef ea bf 50 0a 24 3e d1 9c ed bf
       -0.8417775247544781 -0.9253927434622913
0000b0 f7 d6 43 c2 b1 d5 d0 bf ad 49 d2 57 c7 66 c7 3f
       -0.26304286929312987 0.18282405651241387
0000c0 f9 39 6d 9c 5d fe e5 bf 9c 43 f1 ac bb 45 d7 bf
       -0.6873004965980832 -0.3636311711207385
0000d0 b3 04 8d a0 40 62 dd bf 39 6c 26 d7 b3 17 d5 bf
       -0.45912185362619623 -0.32957168589354385
0000e0 c3 1f e9 3b 32 0b b3 3f cd 33 3e 13 29 1c ad bf
       0.07438959086095935 -0.05685547218227036
0000f0 54 0d 69 1e 2d 69 da bf 0d 84 fe bf 0c 23 d8 bf
       -0.412669448564164 -0.37713927030023414
000100 c5 bc 61 d4 79 8f ed bf af 65 42 25 46 3a d0 bf
       -0.9237641475755473 -0.253556763063524
000110 f1 50 91 e9 90 29 dc bf d5 e0 56 8b 4b 00 ca 3f
       -0.4400369912084577 0.20313400558166586
000120 34 2d a6 8f b6 f7 79 bf ad 76 cf c8 ed 5e bc bf
       -0.006339753274356586 -0.11082349922750252
000130 0f 89 dc 94 08 ed a4 bf 39 62 1f b5 ea aa dd bf
       -0.040870922252240864 -0.46355693519356894
000140 d6 00 20 22 d3 a9 d9 3f 80 e2 70 76 94 96 c7 3f
       0.40099027950783517 0.1842828348469716
000150 f3 77 6d 6c 7f 4b b7 bf 68 e3 e5 b5 f2 50 dd bf
       -0.09099575421484456 -0.45806567920185737
000160 53 93 d6 59 21 94 e0 bf f0 03 7b 47 48 9a cf bf
       -0.5180823092128811 -0.24689582338581273
000170 86 ab 18 9f 67 63 d4 3f 9c c8 82 7d 78 be d5 bf
       0.3185671857524358 -0.3397504068081021
000180 aa 1b 3c 1a f7 7a d9 3f 8e d1 2f 1a 9a 65 ec bf
       0.3981302028845969 -0.8874025832615631
000190 e5 dc 4c 52 15 7d e4 bf 10 82 21 11 64 9f e3 bf
       -0.6402689559389755 -0.613206895312091
0001a0 bd 90 c1 0f 74 80 dc bf f8 a3 3d ec 3b c5 a8 bf
       -0.44534017122920116 -0.04837977656172393
0001b0 fa e1 c2 5e 84 08 d3 bf dc 03 25 2b ec b1 be 3f
       -0.29739484075574263 0.11990238240561218
0001c0 9c 91 5b 80 93 e6 e0 bf 16 f4 1b d9 fb ac b0 bf
       -0.5281465060220856 -0.06513952303426182
0001d0 8a f6 52 24 67 ee a7 bf c1 c6 7e f5 85 f0 d4 bf
       -0.04674074476632224 -0.3271803758062611
0001e0 5e e1 da cb 44 f2 da bf ef bd 48 20 3a c1 dc bf
       -0.4210369101306436 -0.44929364350079387
0001f0 98 02 a0 7c 12 5a b5 bf f4 d7 8a b1 a9 ef d2 bf
       -0.08340564291575914 -0.2958778604328238
000200 93 73 0d 87 5c 05 c8 3f 5c 4f 91 c1 92 42 ec bf
       0.18766361803400552 -0.8831266193978808
000210 10 8a 54 18 f2 d1 f9 bf 0f aa e6 14 24 9c b1 3f
       -1.6137562704467463 0.06878877172736274
000220 0e 88 39 89 51 9b d9 bf bf ca df c3 39 e2 d4 3f
       -0.4001048889241482 0.3263077175935613
000230 c2 db f6 32 0d 75 d2 3f 10 b4 3b cc a0 98 d3 3f
       0.2883942601869728 0.30619068092966106
000240 61 24 48 ed 0c 63 e2 bf 2f 09 44 29 ca 02 e5 bf
       -0.5745911249552017 -0.6565905385944343
000250 a2 a2 61 92 51 64 d8 3f 60 eb 50 12 50 ec d2 bf
       0.3811229638581982 -0.29567338741951765
000260 18 15 68 fc 11 a5 ba 3f e6 48 3d 36 cc 0f bb 3f
       0.10408127224225827 0.1057098038120646
000270 48 7c 9a a8 70 6f e4 bf 1d 6e e5 a3 08 b0 f3 bf
       -0.6386035244976336 -1.2304769899554977
000280 67 e7 d5 b1 bf be e7 bf 03 d0 8d 57 56 1c cf bf
       -0.742034766516764 -0.24305228495688888
000290 fe 5f a4 30 59 ff e0 bf 07 99 9d ea 3c 76 c7 bf
       -0.5311704587975326 -0.18329583602753294
0002a0 67 ce 6f f1 02 30 cf 3f f3 fc 7b 11 da d4 d6 bf
       0.24365269459632374 -0.3567414446587939
0002b0 5c 04 47 5a eb b3 d3 bf 49 7c f4 07 dc 87 d5 bf
       -0.30785640541222903 -0.3364172055898434
0002c0 af aa 27 76 20 a4 c0 bf 5e 43 45 96 fe f1 b2 bf
       -0.1300087525299509 -0.07400504273142647
0002d0 d7 69 0d c5 9e 29 da bf 23 c8 2d 3d 19 e3 db bf
       -0.40879029506109305 -0.43573599791045775
0002e0 c4 fa 38 e9 a6 b7 c5 bf e0 12 56 a0 b7 50 d6 bf
       -0.16966711414166558 -0.34867659242472193
0002f0 b6 0e d0 23 d7 09 97 3f e1 4d 1e bb ca 6a ec bf
       0.022498475609622225 -0.8880361227660921
000300 5c 05 3e d7 4d 57 71 bf a8 31 67 07 15 6d b1 3f
       -0.004233650270067581 0.06807071142902166
000310 d9 f0 f9 1e 82 00 a1 3f 1b 64 4a 85 39 50 c0 3f
       0.03320700290802998 0.12744826324777211
000320 ab 41 19 f3 ee de e4 bf fb a1 7d b4 d9 4d c0 bf
       -0.6522135494251889 -0.12737580597901385
000330 bd 01 3d 40 a6 f7 65 bf 2a f2 47 5a 2d 53 bb bf
       -0.002681565007066149 -0.10673793272139478
000340 8c 5f 6c 1f 7e 2e 94 bf 39 05 6f ce f1 a5 97 bf
       -0.019708605449607883 -0.023093965744697107
000350 d2 b9 c3 7e 9c 0c e2 bf 45 02 d6 5a f4 28 bb bf
       -0.5640394664640616 -0.10609366624522305
000360 92 65 a4 23 b1 96 ac 3f e9 30 dd 06 1f be a0 3f
       0.05583718834004538 0.032700509632009496
000370 55 af a9 91 87 0d e0 bf 7c c3 b4 f4 97 f5 df bf
       -0.5016515583970241 -0.4993648423870167
000380 11 07 08 a7 f5 78 81 3f 31 12 04 b6 83 f0 8f bf
       0.008531493339436065 -0.015595463745293166
000390 09 55 6a 73 9e f8 e3 bf 52 4a fd 40 2e 25 e7 bf
       -0.6240989927488566 -0.7232886571239965
0003a0 e8 82 3c 48 ca 10 e2 bf b5 49 b5 29 df 38 d2 bf
       -0.5645495806566858 -0.2847211749368868
0003b0 9d 40 0c 58 6f 2f d2 bf 46 48 9f cd 50 e9 af bf
       -0.2841451988069908 -0.06232693204914645
0003c0 bb 22 9b 7b 33 ad b9 3f 94 e8 45 93 9d dd c3 bf
       0.10029908912396028 -0.15520066920345654
0003d0 da 90 9b 69 0c f0 d6 3f 02 a5 b9 cf 03 0c d6 bf
       0.35840139687776473 -0.34448333058988123
0003e0 8a b0 48 2b 75 9a d3 bf f2 01 01 6b ad 9f a3 3f
       -0.30630234934756884 0.03832761698913946
0003f0 92 72 2a d9 cd a3 cb bf f7 3b e1 88 8f 15 d4 3f
       -0.21593640426444388 0.31381595961732905
000400 89 b0 a7 4b e3 3b db bf ad e1 28 9e 6c d9 b2 bf
       -0.4255302656954503 -0.07363013135262149
000410 35 e9 16 f0 7c 66 f6 bf 7e 87 c4 c9 9b 48 c9 3f
       -1.4000214937683044 0.19752833702028377
000420 af 7d 2f 8d 41 32 a2 3f cd 07 a2 6d 5d 5d c2 bf
       0.03553967331367446 -0.14347427228136525
000430 13 8b 42 d8 2d ee c7 bf 50 c9 02 28 96 a5 8d 3f
       -0.18695614871565933 0.014475987525973594
000440 e7 75 78 5f ec af e3 3f 16 30 13 03 49 42 c9 3f
       0.615225016084591 0.19733536386627354
000450 78 7f 2b 9a 80 86 ec bf 9e 5f 86 7d 5c f7 d8 bf
       -0.891418744195092 -0.39009773500719713
000460 d1 30 1c 89 e2 02 c9 3f 1f 96 cd fb b2 09 a7 bf
       0.1954005403025634 -0.044995873677901914
000470 bb fb 62 ad 8b f2 c0 bf 16 d7 b9 ab 22 28 d3 bf
       -0.13240190473694988 -0.29932467241393235
000480 2f c5 31 6b 66 76 f3 bf 6b aa 32 b9 e8 03 ae bf
       -1.2164062678605878 -0.058623573882262324
000490 92 bc a4 29 19 e2 d1 bf 93 c5 03 cf 7b 15 d0 3f
       -0.27942494456051137 0.2513112565639741
0004a0 1b 8e c2 df 1f 8a dc 3f 59 e1 c2 40 2a 31 b6 bf
       0.4459304509311736 -0.08668769913754683
0004b0 66 3f 22 56 c7 8c e2 bf 1e 4d 2d b7 75 d5 e2 bf
       -0.5796848947811497 -0.588557107703682
0004c0 63 17 7f e8 69 64 bc 3f d2 f8 5a 79 ad 3f c9 bf
       0.11090719152624966 -0.19725578713946007
0004d0 70 17 79 22 ca 9a c0 bf ad 88 88 7f c8 de c9 bf
       -0.12972380336048728 -0.20211130358899734
0004e0 a1 66 fd 55 61 af e1 3f 92 be 11 7c 39 00 e9 bf
       0.5526587180604176 -0.7812774108151237
0004f0 17 9b 80 32 83 6a e4 bf be b3 b9 17 32 1c f3 bf
       -0.6380020128607126 -1.1943837095998187
000500 cc cd 60 2e 6d ad e5 bf 0f 72 3b a9 68 33 e5 bf
       -0.677420225698762 -0.6625254922215066
000510 be 8b b6 8f 22 c9 e0 bf 2a 08 d7 09 c2 98 a9 3f
       -0.5245526129623312 0.04999357576481629
000520 7c e5 9c fc 6f 3b e7 bf 4b 39 d2 b5 30 9a 80 3f
       -0.7260055478902099 0.008106594609014769
000530 3a e8 70 47 4b 88 d5 bf cb ac 4a 0c 67 5a d7 bf
       -0.3364437291780892 -0.3648927326236843
000540 95 81 cd a8 ec 4c 9f 3f 16 2b f1 d9 07 02 e1 bf
       0.030566880991842977 -0.5314978844338352
000550 79 84 f9 9f f6 e3 e0 bf 18 8a df 40 08 52 d6 bf
       -0.5278275608544752 -0.3487568505790093
000560 83 a6 5b e5 6f 8d ba bf 75 ff 0a 0d 40 8a c6 bf
       -0.10372065877495555 -0.176094061249383
000570 11 9e 41 75 4c 1b b6 bf d6 7a 19 e2 81 19 c8 bf
       -0.08635404455855446 -0.18827842273727552
000580 57 c3 9c 54 05 8c e4 bf f0 e0 2a 26 ab 80 b0 3f
       -0.6420923855385848 0.06446332628081897
000590 bc 28 0b 25 e9 78 c6 3f 12 35 f4 91 81 5e e4 bf
       0.17556490238923128 -0.6365363932287968
0005a0 5c 65 5f 1c e2 bd d1 3f 48 17 d1 39 54 ce e7 bf
       0.27721455355420743 -0.7439366463883994
0005b0 06 ce 1f bb 28 7b b4 3f 99 99 e9 c5 49 b3 e1 bf
       0.08000425880873516 -0.5531357636908069
0005c0 c3 90 c3 7d 43 9e d7 bf 42 25 8d e0 67 5d d4 bf
       -0.3690346458590847 -0.31820103577463865
0005d0 70 05 d7 8f d9 ba 6c 3f a2 7e 3f fd 9a c1 e5 bf
       0.0035070657019963744 -0.6798834749460705
0005e0 80 ed 2f eb 05 68 d0 bf 2e 6f a3 f5 21 50 c8 bf
       -0.2563490673780606 -0.18994545454085582
0005f0 13 69 be c3 88 e2 d2 bf 0d e1 23 a5 11 80 e1 bf
       -0.29507655253986903 -0.5468834138291939
000600 c3 a8 93 d7 30 11 df 3f a1 b1 d3 c2 f3 8c b3 3f
       0.48542424251958155 0.07636950975910974
000610 0d b3 2a 0c 65 13 e3 bf e5 cb 30 8e e0 6e d4 3f
       -0.5961175191528995 0.31926740537454484
000620 d5 1f e2 32 ac e7 c7 3f 89 b8 a1 a5 e5 90 c6 3f
       0.18675758823905989 0.17629690730558803
000630 1f 02 ed f7 7e bf be 3f f9 0f 10 a6 af a3 c0 3f
       0.12010949662090596 0.1299953041890374
000640 80 cd 38 79 32 44 bf bf ec b3 85 3a b6 fa e4 bf
       -0.12213435611265844 -0.6556044714940277
000650 64 21 b4 e1 89 52 b3 3f 15 5c 46 9e d8 d2 cb bf
       0.07547818909018172 -0.2173720143152599
000660 50 d4 50 da 9b e5 97 bf ab 46 a7 8c d5 47 b2 bf
       -0.023336825561461716 -0.07140860256120145
000670 3e f7 b9 49 31 cd b1 3f 6f e7 ac 3c db 2b e4 bf
       0.06953723955117838 -0.6303535637918979
000680 91 7e 97 5a 30 5b a2 3f 6c c1 bf 4d 5e f1 e7 bf
       0.035851965960089 -0.7482139128242529
000690 11 4b b9 a0 97 bc f2 bf 76 3a ec 4a cc 49 d3 3f
       -1.1710430410645964 0.301379273573651
0006a0 ec 46 86 e3 33 c8 bf bf ee fb 15 5c 2e ab c8 3f
       -0.12414860062406391 0.1927240323675216
0006b0 d3 c5 9b 11 cc 49 e9 bf f5 3d 1f e8 9c 1a a5 3f
       -0.7902584403911369 0.04121866544266687
0006c0 50 59 f3 4e 3e 42 dd bf af e8 7a 6a 2e e4 d2 3f
       -0.4571681757928632 0.29517708204697163
0006d0 db 10 c6 34 9b dd d6 3f 8c 5f b0 3e 14 fa d5 bf
       0.35727577356034396 -0.34338861581772373
0006e0 e9 46 49 5f 32 b0 c5 bf f8 8c e8 c8 f9 75 da bf
       -0.1694395985855899 -0.4134506666179756
0006f0 d5 a7 da 6e 1c 3e 27 bf 51 88 8b 97 1f c9 cb 3f
       -0.00017732712824641722 0.21707529925976357
000700 be 3c c9 71 42 2a dd bf e9 97 12 b5 3c f1 e7 bf
       -0.4557043181602686 -0.748197892816049
000710 f1 34 4e fb cf 87 c9 bf ba 1f ad c9 df be 6d bf
       -0.19945716639305247 -0.003631054959814831
000720 04 0a e3 ec 85 1e da bf 91 fc ac 7b c4 fd c3 bf
       -0.40811298497661164 -0.15618186987737606
000730 d8 39 8f ca c1 96 93 bf bd 0a 7d 1d 62 35 bc 3f
       -0.01912977980446748 0.11018956394131414
000740 66 a3 51 b3 1e 39 d6 bf f5 65 48 54 33 2a c8 bf
       -0.3472363234673622 -0.1887878572022569
000750 29 de 47 d2 d0 ef d4 bf da 10 66 0a 9d 0c aa 3f
       -0.3271371892473974 0.05087748290955725
000760 11 a2 80 35 89 42 66 3f d7 69 a0 9a 99 89 c5 bf
       0.0027172736991085762 -0.16826171922805486
000770 19 01 96 a7 c6 44 d0 bf 54 3b d3 ab 1f cb df bf
       -0.2541977535802445 -0.49677268771931904
000780 bb 7c a4 25 bc ab eb bf 16 da 69 a4 37 9b bb bf
       -0.8647137389379148 -0.10783717884064745
000790 0a 2e bf 22 16 92 b1 3f c8 d2 68 a9 a3 e6 96 bf
       0.068635352595429 -0.022364194121297115
0007a0 ee de 0b 60 1b 65 ce bf b7 71 f6 80 66 e2 e4 bf
       -0.23746053876651935 -0.6526367682268334
0007b0 79 85 42 06 7b 4d d2 3f f9 c2 0c 3f db 22 d1 3f
       0.2859790383464183 0.2677524677010719
0007c0 3c c6 e6 b7 10 15 d1 bf 91 ea e0 78 2a 5a df bf
       -0.266910724250099 -0.48987829021977186
0007d0 c1 50 a5 19 2d 6b b5 3f db b7 26 dc 88 c0 e7 bf
       0.083666628609822 -0.7422527599171603
0007e0 e1 90 ed 6d 9c 02 e6 bf d5 17 c3 1c e5 be d7 3f
       -0.6878187319785206 0.3710263043288909
0007f0 9b c7 c8 a1 a4 85 e1 bf 61 a4 74 72 43 2e e1 bf
       -0.547563854203179 -0.5368973956548296

fc2.weight f8 [256, 256]
000000 b2 24 29 be a0 1e d4 bf ec a2 2c af a2 a4 d1 3f
       -0.31436937876112403 0.27567355257865134
000010 25 40 50 c7 a2 2f d0 3f 01 6b a5 47 b6 1b be 3f
       0.25290746177870665 0.1176103520314591
000020 23 84 5b 1c fe 07 c3 bf 37 1a 08 b2 64 3d c9 bf
       -0.14868141541140387 -0.1971860760970274
000030 c0 24 f9 4f 90 c9 d2 bf 2b 85 64 5e d5 55 d1 3f
       -0.293552473162503 0.27086385934861096
000040 df 5c 85 8c 6c f4 ac 3f 4b 15 b1 2c 7a 1f c7 3f
       0.0565523072752343 0.18064810926640926
000050 6a 80 2f 3a a6 47 9f 3f 3b 7c 7c 37 17 9f d2 bf
       0.030546757985462504 -0.29096012514668573
000060 1e fd 8a 18 4c ec 8d 3f 7b 41 1d a4 df 52 b1 3f
       0.014610857485762237 0.06767080074974345
000070 e4 ec af 55 e7 ae d0 3f 18 94 5f 59 8d 55 c5 3f
       0.260675271681704 0.1666733442681625
000080 9a 57 f8 5b 99 d4 ab bf 8a 51 13 f1 51 43 a2 3f
       -0.05435637710267756 0.035669861486584756
000090 c5 bb bd b3 cf e4 d3 bf 84 38 38 8d ce 9a ae 3f
       -0.31084053566786124 0.059774832476350986
0000a0 2e 99 0a 75 a4 69 d0 bf b3 ad bd 3d 27 4a d5 3f
       -0.2564479010565205 0.3326509573878084
0000b0 ca 92 af 1f 4e 22 de bf a3 ee 6e 9e 59 1f ac 3f
       -0.470843821471402 0.054926682081228216
0000c0 0c 1a fe 50 27 09 bf 3f 75 31 6c d1 9c eb b8 3f
       0.12123342254026442 0.09734516251427812
0000d0 f4 27 25 da c4 46 c9 3f 7b 28 89 9e 81 af bb bf
       0.19747219707124908 -0.10814676399709981
0000e0 db cf 80 11 cd 6d c2 bf 2b e2 81 8a 5a 72 ba 3f
       -0.14397586207053234 0.10330739861991194
0000f0 fb 19 56 d9 2e d5 bd bf 0c 09 0a 68 e2 ba a8 bf
       -0.11653416448653069 -0.04830081481942913
000100 0e 01 0e 77 13 cf d1 bf e3 92 e8 01 d8 80 a3 bf
       -0.278263918175086 -0.03809237502381337
000110 6a 90 65 e5 b6 84 ca 3f ef 20 e2 92 f6 95 d0 3f
       0.2071751232243771 0.2591530260474561
000120 2c a1 ca 9b 20 5a c4 bf bd 11 48 aa 3f a1 ba bf
       -0.1590004692745962 -0.10402295977843941
000130 7a 8e 7f 87 1f 41 ce bf a9 7e a8 e6 d3 11 b7 bf
       -0.23636240116239887 -0.09011577969840324
000140 bc 05 22 03 55 49 c0 bf 32 1c 2a 8e ad 88 6d 3f
       -0.12723791745160706 0.0036052121880092653
000150 60 22 8f 34 c0 1d b0 3f a5 6d 26 67 ac 54 c3 3f
       0.06295396121198271 0.151021528593316
000160 40 03 a7 eb 6c 4c ad 3f d2 71 df f6 93 49 c5 3f
       0.05722370506874208 0.16630792192780902
000170 02 56 ed 5c a3 25 c4 3f 91 d7 6a 87 95 d5 66 3f
       0.15739862477737182 0.002787391709115413
000180 ab f0 bf 00 57 fa a9 bf ad c2 bd 85 7f 7f db bf
       -0.050738066522144486 -0.4296568685595428
000190 82 dc 6d b4 db 71 d2 bf 73 03 bc eb ff 17 c3 bf
       -0.28819935436280997 -0.14916991243810748
0001a0 0d ff 66 1d ef cf d1 bf f5 28 1c d7 6b 16 82 3f
       -0.27831628676720827 0.008831827642570714
0001b0 8d fa b9 ae 5e fa 7b bf c6 19 e2 b0 19 69 d7 3f
       -0.006830568173994534 0.36578981660605014
0001c0 8f db b0 05 5f 48 de bf 33 7f 44 38 5c ff c1 3f
       -0.4731671863150319 0.14060547587814085
0001d0 7e c0 ee 0a 7d 5d d2 3f ce 3d 90 1c 39 e9 bb 3f
       0.2869560820354379 0.10902745196675953
0001e0 79 15 dd e9 a9 89 c7 3f f8 ab 12 8a 38 7a b3 3f
       0.18388866347428826 0.0760836922733431
0001f0 87 5a ec 5c fe 8e ae bf 69 21 2f 43 ad f2 c4 bf
       -0.059684704631014766 -0.16365590839837843
000200 2e d5 7c c1 84 9b c6 3f 6e d7 0b c0 90 79 bc 3f
       0.17662105033529357 0.11122994125966354
000210 69 5a 3d c7 e6 52 bd bf 50 31 7e f1 84 07 c1 3f
       -0.1145462261605218 0.133041971127009
000220 23 a7 25 6c a0 c0 c4 bf b9 0c 7f 1b 8b aa c0 bf
       -0.16212849884623734 -0.13020457117645437
000230 d9 e1 e6 5d 68 9d b3 3f 18 77 11 42 81 8f c7 bf
       0.07662060062910515 -0.18406692243564104
000240 7f b7 70 c1 00 f0 cc bf 9d 07 a0 a2 5a 83 d3 3f
       -0.22607430882765908 0.30489221459731103
000250 c8 11 1f f3 16 f8 c2 3f cb e0 34 72 ac 9d d2 3f
       0.14819609519157795 0.2908736338899984
000260 e0 59 22 71 7c ea c0 3f ba 1e a7 8e fc f1 a2 bf
       0.132155947915364 -0.03700246087424604
000270 d3 47 40 dd b8 e3 b5 bf 0b d9 19 c1 1d 38 d5 bf
       -0.08550601388586125 -0.3315500627280847
000280 9b 0d 2d a4 df a2 b2 3f cd 92 b6 8f 7d 4a d8 3f
       0.07279775388911107 0.3795465377282142
000290 4e 0a 01 27 3c ee bc 3f d1 58 a8 e4 11 6a c1 3f
       0.11301017715690273 0.13604949631616717
0002a0 9d e4 b6 5d b7 97 9a bf 58 01 ed 5c 25 02 b9 3f
       -0.025969376654505372 0.09768899458595592
0002b0 27 f6 31 88 97 ff d9 bf 9d 7a b4 d1 b3 bc c2 3f
       -0.4062250928908235 0.14638374080182795
0002c0 df 63 2b 54 01 24 72 bf a7 e8 28 d0 4f a2 a4 3f
       -0.0044288684755082455 0.040300840530521236
0002d0 45 60 91 7e 9e 06 c4 bf 5d 3e 76 09 1e 76 d3 bf
       -0.15645199947425872 -0.30408430980694395
0002e0 67 ac 20 f4 38 27 c5 bf fd 52 f5 62 cd 61 aa 3f
       -0.1652594749478766 0.051527422265882784
0002f0 68 96 c9 59 8e d3 e1 bf e3 a5 d8 63 5b 91 b4 3f
       -0.5570747140561254 0.08034297168401099
000300 d8 d9 1f 06 b3 a2 dd bf 8e 82 f5 52 c1 e9 b8 3f
       -0.4630553779419677 0.09731682086340696
000310 1c 0a 70 e3 63 82 c1 bf e9 e1 5f b0 30 78 d2 bf
       -0.1367916927848264 -0.28858582710338837
000320 63 4e 43 ed b0 7c ca bf 36 bb 79 05 0d 89 e6 bf
       -0.2069302710066153 -0.7042298418944941
000330 40 4c 28 20 37 81 b6 3f 53 13 cc 8a 96 1f b1 3f
       0.08790916953175643 0.0668882454738882
000340 74 53 2e 89 e4 c8 d9 3f 7c 0a d5 c8 ca 68 df 3f
       0.40288651844576084 0.4907710038425319
000350 0d 3c 4f 17 19 6a 7f 3f 92 d7 66 3e cd 65 9f bf
       0.007669542323994538 -0.03066178029413142
000360 74 95 5f bd 5d 75 8f 3f ad 67 fd 48 73 cb dd bf
       0.015360576955525153 -0.465542622832454
000370 8c 07 85 4e b6 3c d0 3f 85 45 b7 48 76 9f ad 3f
       0.25370557468351573 0.057857223869755926
000380 70 31 be c5 ab 71 a7 bf cc 35 5e 39 ea 32 bc bf
       -0.04578911579946776 -0.11015190029703276
000390 ae 1d a6 37 5d a4 bf bf 20 c0 5d 6b d7 82 a5 bf
       -0.12360174759498108 -0.042013866287448076
0003a0 74 67 d7 f6 f4 eb b9 3f 91 82 e4 49 61 c7 99 3f
       0.10125666643525993 0.02517463696961159
0003b0 cf f0 0e a7 4a 94 c4 bf b7 56 79 08 01 05 50 3f
       -0.16077550084253864 0.00097775555504624
0003c0 aa e4 58 1d 87 c7 c6 3f 02 69 e8 fd 67 72 bb bf
       0.1779641049668375 -0.10721445034906554
0003d0 7b 74 ee 60 2e bd be bf 8e 9c 7a a9 09 1b ca 3f
       -0.12007417551508752 0.2039501264127676
0003e0 4c f9 f0 6b 9c 0b c6 bf b2 1a 94 27 f8 7d 6a bf
       -0.17222934027263148 -0.0032338949937441236
0003f0 fb 28 e8 57 a3 61 c1 3f d3 54 d6 35 0b d2 6d bf
       0.1357921771271505 -0.0036401957465367145
000400 b5 2d 8e 38 c9 06 d8 3f 73 a3 7e 5f 3e ed c0 bf
       0.3754141857432061 -0.13224010145975348
000410 cb 9b a7 16 8c 3e ab 3f 41 aa 55 a1 6c bf be 3f
       0.05321157242342841 0.12010840357621878
000420 7c bc 13 c7 19 1f ea bf 9e 26 d7 7c 1e fc d0 3f
       -0.81629647142644 0.2653881281990865
000430 02 25 69 a8 64 d0 c9 bf ce f9 35 89 cc 4d b3 bf
       -0.2016721556013082 -0.07540586805223556
000440 7a 94 f1 62 73 ac bc bf 82 4f c2 62 98 a0 c9 bf
       -0.11200638929001797 -0.20021347830026676
000450 81 0d 4a 6f 0e 95 cb 3f 4a 87 82 47 e6 c2 c9 bf
       0.21548633989378277 -0.201260361592228
000460 aa 3b 8d 5f 59 e1 c7 bf cd b3 00 94 9e d9 ce bf
       -0.18656460919961876 -0.2410162184400221
000470 21 4e ea cf 5c 45 df 3f 09 d3 ad 0e 0a 76 d0 bf
       0.4886085539266976 -0.2572045462941764
000480 32 c2 f5 ee 83 26 af bf 40 6d 73 29 26 d4 ae bf
       -0.060840723915024944 -0.06021231895439394
000490 64 48 06 de a5 d9 b7 bf c1 4b 9b fa 9f f4 c6 bf
       -0.09316479368706748 -0.17934036003734202
0004a0 07 cb 0d 4e af e5 b6 bf 62 97 75 a7 3d 1e c4 3f
       -0.08944221168148313 0.15717287708974498
0004b0 0f 07 a2 9b d2 99 c1 bf f2 5c d6 e7 31 b4 4b 3f
       -0.13750679587615663 0.0008454555206069121
0004c0 92 ff 00 21 8d c0 43 bf 11 8a f0 f3 83 81 9c 3f
       -0.0006027878862440042 0.02783781219853593
0004d0 dd b1 77 13 76 76 7b bf 9d f0 af 55 f4 f3 c3 3f
       -0.006704770311881406 0.15588239845226762
0004e0 e1 36 d1 50 2e 81 b2 3f c4 c8 d9 41 e6 72 c8 bf
       0.07228364441945302 -0.19100645270697758
0004f0 e6 69 5a 7a ed a0 db 3f 47 07 e7 0f 71 04 93 bf
       0.4316972441535242 -0.0185716310459221
000500 74 4b 9e f9 76 4b b6 bf 06 94 50 48 3f 10 b4 3f
       -0.08708900064656949 0.07837291255471265
000510 d8 55 a9 aa e0 6d ac bf 0c 09 3b 3f 1d ee 9c 3f
       -0.055525799591730596 0.02825208376339909
000520 95 c0 5e a4 b2 7a b7 3f 19 49 74 84 4f d6 d0 bf
       0.09171597016279727 -0.2630804818628732
000530 97 e2 15 66 73 6f df bf c0 0a 71 2b 2c 00 c8 bf
       -0.4911774155548669 -0.18750526543779777
000540 97 38 f7 32 3f 52 8d 3f ec cc 2b fb 8e da d0 3f
       0.014317029707765534 0.26333975342204385
000550 a1 80 27 e6 4e a6 c3 3f 6c 5e a7 a1 46 d3 c5 3f
       0.1535128234672856 0.17051012891055295
000560 e3 e2 df c1 3a 31 a4 bf fe 3f 2b 35 60 1c d9 bf
       -0.03943809143669854 -0.3923569220760327
000570 2b 9c 8a 96 66 06 d2 bf 67 29 53 06 56 5a 8b bf
       -0.2816406698352149 -0.013355896060961837
000580 5b 8d 97 39 99 77 b6 bf 6f ae ed c2 90 5a a9 3f
       -0.08776242881827072 0.04951908473489374
000590 f8 97 f6 be 08 c5 be 3f b2 b3 99 34 d1 0e c9 3f
       0.1201940027445686 0.19576468532923524
0005a0 10 a6 10 39 ae ab a1 bf ea 8e 6d 6e 14 83 a1 3f
       -0.0345129437121835 0.03420318458554823
0005b0 55 ca d9 ae ad c0 95 3f bd 6d 53 5f f8 4a d4 bf
       0.02124282245353933 -0.3170758181492735
0005c0 dd e1 67 fd 40 50 d1 bf b9 0b ad ad 47 b6 85 3f
       -0.2705233072915954 0.010601577747029954
0005d0 9b 55 f7 57 cf 1a b5 bf 40 5e 7f 2c 0c 35 c8 3f
       -0.08244033715830883 0.1891188828728776
0005e0 63 d6 7a 74 bf 3d c8 bf 6e 10 6d cb f0 d3 a2 3f
       -0.18938439548007854 0.036773228485373774
0005f0 09 01 64 f5 76 4c cb bf 15 75 7f fd 4d 8d a2 bf
       -0.21327101690258868 -0.03623431891876742
000600 18 ba 48 6d f6 04 d1 bf fb 9e 07 3b 6a 36 d0 bf
       -0.26592789337419864 -0.25332122578264177
000610 d4 7f 13 fe 39 58 d2 bf de f6 bb d5 f3 82 d4 bf
       -0.2866349202358809 -0.3204927050827403
000620 fc b6 75 a0 ec 7e 4d 3f 44 fa 32 73 f2 98 91 3f
       0.0009001403240469215 0.01718500927085588
000630 73 39 5c 1d 09 17 c3 bf 57 00 31 a8 14 a0 bb 3f
       -0.14914049085241352 0.10791138750301009
000640 74 fc 34 95 ae 04 e3 3f 12 83 37 54 30 69 a8 3f
       0.5943215288351795 0.047677526741386825
000650 f5 4b f7 97 8a 6d de bf bd b6 fb ad d6 ef a9 bf
       -0.47543587532453496 -0.050657948244276586
000660 d1 28 5b 15 81 87 cb bf 87 7f 8a c4 2f 76 b6 3f
       -0.21507276098993214 0.08774088428844894
000670 94 09 82 43 44 cf b2 3f cb da f4 72 42 72 a0 3f
       0.07347513816970369 0.032121731312533784
000680 5a bd d1 8f 94 eb 91 3f 98 5b d8 23 d8 04 aa 3f
       0.01750023010066335 0.05081820905268514
000690 7a 15 d5 e5 96 45 d1 bf 3f 61 47 16 e3 07 8b 3f
       -0.2698724026161795 0.01319863712062441
0006a0 89 5f dd 46 84 fe c5 bf 72 96 9a c9 e0 c4 9b 3f
       -0.1718297334689363 0.027118217759058934
0006b0 a8 93 58 0f 1f c0 e1 bf a0 2e 9b 7f 1a b3 c0 3f
       -0.5547023105360624 0.13046580534716146
0006c0 f7 82 07 e1 07 3d c8 3f 56 4b 52 05 52 7e c5 3f
       0.189362511518105 0.16791749248349203
0006d0 fe a3 32 ae 9e 67 c4 bf 82 53 09 7e b3 d2 be 3f
       -0.15941222673180272 0.12040254427968303
0006e0 b4 02 0e 2d 9b ad bb 3f 47 b0 88 5c 61 33 ae bf
       0.10811776971787418 -0.058985750718733736
0006f0 cf 21 be d8 37 a5 ce bf d5 68 64 19 8d 82 64 bf
       -0.23941705783023656 -0.002503657898285198
000700 a0 68 56 f3 63 8a a5 3f a9 59 65 c6 ac 0a b8 3f
       0.04207146020344621 0.09391288608217131
000710 dd 83 59 16 f0 64 ad 3f 17 98 17 02 f3 3a b3 3f
       0.05741071961234188 0.07511824418142542
000720 66 c9 32 ec 48 af cf 3f 7e 6c d8 5c 60 6f b6 3f
       0.24753676922916695 0.08763696924909145
000730 fd 65 f7 11 64 4d cd bf 4f b5 aa a5 74 08 90 3f
       -0.22892428281083702 0.015657255755902096
000740 30 1e 7d 61 96 07 97 3f 02 92 76 ee 1c ba af bf
       0.022489881229630082 -0.0619668046086055
000750 31 44 ea 63 3a 9c dc 3f fb 67 39 8e 37 0b c4 3f
       0.4470354057057789 0.1565923160986243
000760 67 13 88 2a 45 a6 d3 3f 6e 8e e5 32 35 1f b1 bf
       0.307023326430047 -0.06688244335742308
000770 02 e8 44 8f 92 61 cc 3f 53 1d 83 e8 50 97 ca bf
       0.2217276763493033 -0.2077427993119537
000780 ac 7b 85 22 f4 6d c3 3f 28 a6 11 2d 08 bd ba bf
       0.1517930191575635 -0.10444689846340138
000790 de 1e 1c 50 7e 18 af bf e3 b7 db 41 f3 3b 8f bf
       -0.06073374488738435 -0.01525106472714905
0007a0 44 7b 3b 78 db 30 cc 3f ae ec 6c 26 ca d4 a9 bf
       0.22024100657196233 -0.050451581183062685
0007b0 7b 2c a6 fe 0d 86 bb bf 94 54 d1 be 64 98 c4 bf
       -0.10751426188487472 -0.16090068166036942
0007c0 32 c9 c1 12 44 9d c5 bf d6 5a 7e a5 0c df c1 3f
       -0.16886187473171216 0.1396194274973001
0007d0 57 ef 43 a5 64 a9 c5 bf 4d 42 e6 d3 5f bd d9 bf
       -0.16923196858976539 -0.4021834916430052
0007e0 21 85 dd d1 da 6d c3 3f 8b e8 d2 d4 fc 4a d9 3f
       0.1517900013668987 0.3952018812520996
0007f0 65 8e 7f 9a 14 ac d5 bf 94 dc ce 9f b2 87 ab 3f
       -0.3386279591343054 0.05376966667920971
