Q3/500.ckpt (torch, 754704 bytes, 8 tensors)

fc1.weight f8 [256, 67]
0	0x3fc5dc1cd44a8303	0.17077980390333644
1	0x3fcef148932a3c0b	0.24173838792600608
2	0xbfc6d42b10a6502a	-0.17834986031505312
3	0xbfcbf82cfbeb1233	-0.21851122189231517
4	0xbfd576677143eed4	-0.3353518110377369
5	0xbfe43a21ef13177f	-0.6320962590623224
6	0x3fe2a038f8ab6ba5	0.5820584160641046
7	0xbfe5bb210c4408c4	-0.6790929069104767
8	0x3ff7cfd89a4dc41c	1.4882436778536947
9	0x3fd838bbe9ba6df1	0.3784627707006783
10	0x3fef2ba74cbfc3a2	0.9740787981992194
11	0x3fcf13890bc0eeaa	0.2427836711302594
12	0xbfc9d508111248f7	-0.20181370576444355
13	0xbfd70d9e3a8b245c	-0.3602061816896531
14	0x3fc651769d6cfcc7	0.17436106383136105
15	0x3fc0806e1b990cd7	0.12891937587310195
16	0x3fd526e7ef4d5d29	0.33049963349681605
17	0x3fec787c6da40592	0.8897077695293538
18	0x3fec9f16bd787081	0.8944200230212261
19	0xbfb1a693582e36d7	-0.06894799139828521
20	0xbfde1bbca3502962	-0.47044292400882715
21	0xbfccb0efab63d735	-0.22414966457989186
22	0x3ff11c29a8415480	1.0693756649464206
23	0x3fb9658b37fd145f	0.09920568577679621
24	0x3fc52e63a72a5f82	0.1654781881559267
25	0x3fd3c0d0778d7542	0.30864345240646085
26	0xbfe090541e692672	-0.5176182359657118
27	0x3fc32d32243e1d11	0.14981676835689275
28	0x3fc9dcffdab81ffe	0.20205686740541745
29	0x3f9c7fc1b49f2d0a	0.02783110299041617
30	0xbfb89728d11d6955	-0.0960565100225826
31	0x3fd60dc8ab6ea02d	0.3445913004056845
32	0x3fdfa560355a5a37	0.4944687386536403
33	0xbfbc299aadaa0671	-0.11000982990119625
34	0xbfc0c9d5e0bfcaa0	-0.1311595294387944
35	0x3fe81a4bb3fedf09	0.7532099261797792
36	0xbfd085cd839cb895	-0.25816667416337086
37	0xbfe8c9c8557aa9e2	-0.7746316594614735
38	0x3fd58c35cb8bde84	0.3366827476270162
39	0x3fd2d26a09215355	0.29409266368502546
40	0x3f98562fecc3a25c	0.023766278100909907
41	0xbfb7fdb43d7ca5da	-0.0937149667849079
42	0x3fb15bda058c831e	0.06780779490919683
43	0x3fa18e442e187884	0.03428853094759268
44	0x3fb10fe91ff7e63e	0.0666490271613833
45	0x3f890fe95ed37328	0.012237380224570396
46	0x3f99ad5d4190cdc1	0.025075394751366668
47	0xbf9aad77e64e88fa	-0.02605235427075401
48	0x3fa801ea391ac78f	0.04688960978582123
49	0xbfa304d926e62f7b	-0.03714636421054159
50	0x3f5b6e7a57e76fba	0.0016742892035983407
51	0xbfa385b33dc50002	-0.03812942627928352
52	0x3f9021d3c1c54a0d	0.015754040433714468
53	0xbf64d46e4dc7ada5	-0.002542701184429413
54	0xbf714d464a19224f	-0.004224085395954604
55	0xbfb3173aa0372e8d	-0.07457319652092505
56	0x3f71b9779d5e876b	0.004327265973104714
57	0xbfa1011321ace9b9	-0.033211324558993956
58	0x3f8afa80a1a998e3	0.013173108037517206
59	0xbf7315827eca8d88	-0.004659185168438447
60	0x3f354f98833dc748	0.0003251788468708783
61	0xbf83ad464be23fd4	-0.009607838812627202
62	0xbf803c9895bf0809	-0.007928077764407975
63	0x3f726bddc056cb02	0.0044974004899127635
64	0x3f6b98d299849e6d	0.003368769958018983
65	0x3fa35e439274392a	0.0378285518910267
66	0xbf7b462d91b4fe13	-0.006658723835527808
67	0x3fcbc8c2c1048124	0.21706423210799486
68	0xbfe0133e47a53470	-0.5023490332911376
69	0x3fcd5a08fe9629f1	0.2293101542566798
70	0xbfc1904188ccd4c7	-0.1372148435563416
71	0xbfd0ff460316f5f9	-0.26558065702178585
72	0xbfb188747a2c4024	-0.06848838789687811
73	0xbfe4db0b5da8d917	-0.6517388181007701
74	0x3fd7805f82a33285	0.3672102714306578
75	0x3ffd30e178cfbb63	1.8244337767789254
76	0x3fb8f3ff56085fba	0.09747310495765663
77	0x3fec47b23325a123	0.883751964470353
78	0xbfcb5dbbab72cb8d	-0.21379800673966223
79	0xbfb7fc120d17c6c3	-0.09369004077577885
80	0xbfe258dc8a7a44a4	-0.573347349609453
81	0x3fe524b1de06c758	0.6607293449835465
82	0xbfd1edecad7dd403	-0.2801467603924836
83	0xbfd9093d7afd921b	-0.3911889744834142
84	0x3faeff4314d51389	0.06054124478627105
85	0x3fe49b0c81b260d2	0.6439268620624949
86	0xbfd17129ea62fa52	-0.2725319661075548
87	0x3fda0c4ac9bf1b6d	0.4070002527409347
88	0x3f7e078b8880e64c	0.007331414271953895
89	0x3fe3fbf2acbbf086	0.624505364772191
90	0x3fc90c76c1c89325	0.19569286787113885
91	0xbfd84756a46605be	-0.3793541531996104
92	0x3fa3df1fbec53bc6	0.03881167606106532
93	0xbfef346c3330e132	-0.975149250013635
94	0xbfc6c8a78bd4a206	-0.17799848869005092
95	0x3fe74f80090c524b	0.7284546066972067
96	0xbfcf1f93f1331705	-0.24315118100474123
97	0x3fc07e9380e18050	0.12886279862414307
98	0x3fc46248617270d6	0.15924935110240906
99	0x3fcd19309810cdd1	0.22733123231010535
100	0x3fd72a31f3067ab4	0.3619503854078332
101	0xbfa8db611b44baa3	-0.0485487314020834
102	0x3fb1d2e5cebab686	0.06962429329970563
103	0xbfbc090a05e82deb	-0.10951292652332938
104	0xbfc5f73211535edf	-0.17160631032924464
105	0xbfe738672c490ffc	-0.7256351342152807
106	0x3ff1a2815a721a8c	1.1021741421733706
107	0x3fbc2f8386d8c8d0	0.11010000269087361
108	0xbfd706394d20a254	-0.3597548726270692
109	0x3f5085c80a730623	0.001008458473549808
110	0xbf73a8963631f440	-0.0047994487423440035
111	0xbfa7a49c1a24e20b	-0.046177747908988286
112	0xbfaab8480d0f5e8b	-0.05218720588135025
113	0xbf9dc9189f319559	-0.02908743354455132
114	0xbf886e214323e791	-0.01192880617280759
115	0x3fafd097405a7e8e	0.06213829670491321
116	0xbf8af40268338752	-0.013160723500223934
117	0xbf98207ddc5833a1	-0.02356144578338937
118	0xbf74c04e5cb0dac3	-0.005066209890222498
119	0x3fa887bafb85bf4d	0.047910540774749856
120	0xbf81a6abe611af81	-0.00861868186822057
121	0x3f446e27b91db525	0.0006234830818649158
122	0xbf87eb7de447c977	-0.011679633645120131
123	0xbfa30e2b1c65dcab	-0.03721747132925065
124	0xbf69b4a06c091213	-0.003137887310261664
125	0xbf889a17bd040870	-0.012012658553889305
126	0x3f79bcdaddd2138d	0.006283621737684164
127	0xbf82a4e44a1e862b	-0.00910356856531099
128	0xbf6c21ee90cb99ec	-0.0034341487392908123
129	0xbf98d5025f343f7c	-0.024250065861508116
130	0xbf510ccdcb9f088a	-0.0010406503410967127
131	0x3f799ac94916cfc1	0.006251131316663051
132	0xbf6176fee921c9fa	-0.002131936905294338
133	0x3f80e175e0b4958b	0.008242531700100716
134	0x3fcbc6a5f559afcb	0.2169997642516804
135	0xbfd57284065e2bfa	-0.3351144849954718
136	0xbfa8a4bca5ba354c	-0.04813184283293967
137	0xbfc3fbea586b4b32	-0.15612534825648933
138	0xbfd60d8334b64c8a	-0.344574738957086
139	0x3fc2301730bea9ac	0.14209260826221504
140	0xbfe6a50b88ebd41d	-0.7076471018068592
141	0x3fef4e8904f481d2	0.9783368202952778
142	0x3fd832e2fccb6582	0.37810587584461797
143	0x3fc6b6012717601d	0.17742933663134944
144	0x3fdcf716b3ca2177	0.4525810962445784
145	0xbfb3382c21919517	-0.07507587260768776
146	0xbff0196d92c24e6d	-1.0062080128454014
147	0x3ff6f5c7ccba4ce9	1.4350049969842138
148	0xbfce910725fc617f	-0.23880090098169757
149	0xbfe4c6de819057cc	-0.6492760210555786
150	0x3fe79cf77d9ec7cd	0.7379109815139998
151	0x3fe4bb66241c410d	0.6478758530884378
152	0x3fe604bd1cb7dcfa	0.6880784569647453
153	0x3fe80f822b7bebdf	0.7518931245134545
154	0xbfd427315c8e973f	-0.31489213980454517
155	0x3fde81b066cf7244	0.4766655925757599
156	0xbfd6c3c0e73d6c16	-0.35569784719490494
157	0xbf9421ac0d09d1a9	-0.019659698768423137
158	0xbfaeb2601430f359	-0.0599546456000783
159	0xbfa71c02d5557a20	-0.04513558248685379
160	0xbfcfc96eb9c6efd8	-0.24833473273417783
161	0x3fe6058046f77d85	0.6881715189046395
162	0xbfd8491e5d860551	-0.3794628060641872
163	0x3fbe8cfcea73ae72	0.11933880542681566
164	0xbfb6ab76181bd976	-0.08855379189103538
165	0x3faf02318724c08b	0.06056360983564087
166	0xbfc066a802bbf939	-0.12813282140263896
167	0xbfc18f5a4c4a7065	-0.13718727803359623
168	0x3fbcc3a45420de6e	0.11236025861659879
169	0x3f8343fec068e0fc	0.009407034155728848
170	0xbfbe33334646413c	-0.11796875444111249
171	0xc002ea0a68caf9aa	-2.3642776667540675
172	0x3ffde4ea71b058f2	1.8683876458140358
173	0x3fd019380ddba389	0.2515392432529145
174	0x3fbd89aa4421b47a	0.11538185275431259
175	0xbfc404599e05a3b9	-0.15638275352401168
176	0xbfcc9c295d8ffafb	-0.2235156733367701
177	0x3f9a3697e14e44ca	0.02559888184220397
178	0x3f81ff21758334bf	0.00878740444059145
179	0x3fb92a45d5611104	0.09830128154232304
180	0x3fb34b8028295876	0.07537079792504806
181	0x3f917644af2a1a5e	0.017052720252218705
182	0xbf327d351e86afa4	-0.00028212115150937967
183	0x3fa0175b75ff6280	0.03142820182228423
184	0x3f4738dc06001adb	0.0007086824734877333
185	0x3f65fc50afc57579	0.0026837898168838273
186	0x3f83ce341c708686	0.009670645826250334
187	0xbf784df7813f8bda	-0.0059337299498762545
188	0x3f77aacf3e6c192a	0.005778131052244265
189	0x3f9ca7cf61932b85	0.027983894663332193
190	0xbf980c8846f6028b	-0.02348530705558231
191	0x3fa34c34811ef3d6	0.037690773736791236
192	0xbf8cca96c0826058	-0.014058282613675185
193	0x3f6966733927a843	0.003100609822685592
194	0xbf814abbc495d4e8	-0.008443324028784407
195	0x3f7fdc6aa188075b	0.007778564955971702
196	0x3f8e5acee410dc92	0.014821640334146378
197	0x3f6b948f00467c85	0.0033667366971737466
198	0x3f84c7cca00f4fb0	0.010146711954725024
199	0x3f8250c23d3e1444	0.008943097585652045
200	0x3f7bcb12b3c71455	0.006785462432565022
201	0xbfce9b6ef9f57185	-0.23911845402734513
202	0xbfa0005878e0f102	-0.03125263667650026
203	0x3fca53870682b272	0.20567405527016863
204	0xbfeab75e70fac188	-0.8348839003211177
205	0xbfdfbc15ee440902	-0.49585483806744446
206	0x3fc009a337e2869c	0.12529411534074064
207	0xbfeb7113cc7f480e	-0.8575533861242108
208	0xbfd9a11b3539b1a0	-0.4004581470278712
209	0x3ff6b21d092e0811	1.418484722002635
210	0x3fdba07970b96bd9	0.43166957863075833
211	0x3fe2e1111ee0d448	0.5899739840593918
212	0xbf8c77505a9eca00	-0.013899448171149409
213	0x3fe55fa7fd7450b0	0.667926783588447
214	0x3fe2a495a13c1716	0.5825908803096549
215	0x3facf25fa278ee0c	0.056536663611464005
216	0xbffabacaafdd62a5	-1.6706034536092969
217	0x3fe4d16e17fe6b7a	0.6505651920918887
218	0xbff471f702bbab70	-1.2778234583626862
219	0x3fe15a5a613b3742	0.5422794245766698
220	0x3f84fcce63a25417	0.010247814574805543
221	0xbfd5f358ca624806	-0.34297771228841645
222	0xbfdaa021120da8d9	-0.4160235096266099
223	0xbfb53530bb528539	-0.08284287045764395
224	0x3fbde266f5bcb6ad	0.11673587321703378
225	0xbf98ce66fb3b8ff0	-0.0242248621788263
226	0xbfc1e7326ef14a10	-0.13986807267299683
227	0x3fc34327b0cd50b8	0.15048690922652042
228	0xbfd1d73d8aa82cb8	-0.2787622312614064
229	0x3f9438866e6dfbb2	0.019746876230324957
230	0xbfa006d09a44b43f	-0.0313019932094467
231	0xbfabed0963db5928	-0.05454282134967264
232	0x3fcc9e03ed849061	0.22357224557447622
233	0x3fdce9f92d7c2c37	0.45178059999369985
234	0x3fa4c298bfd9b168	0.04054715482638721
235	0x3fbad1be5f3268f8	0.10476293396132863
236	0x3fd1e418008f2986	0.2795467381917195
237	0xbfc2bb932b132464	-0.1463493309331937
238	0x4003a6951ae2eca7	2.4563390827657545
239	0x40009bcf59b5bebb	2.076079083308142
240	0xbfd4c59a93f2513a	-0.3245607800283953
241	0xbfb871b7e7c68a93	-0.09548520477850735
242	0xbf8d15fd81a2e046	-0.014202099341091078
243	0xbfe2dd742031e612	-0.5895329121405573
244	0x3fcd1d73328777e0	0.22746124236340304
245	0xbfcf21c74018d1a5	-0.24321833257421335
246	0xbf9932521e855f77	-0.02460602103505446
247	0xbfa051b497929395	-0.0318733630204299
248	0xbfc74389f2b39b10	-0.18174862242377587
249	0x3fa7087a2a9f7aa5	0.044986551001547505
250	0xbf7e41e79bf25d5a	-0.007387070391949047
251	0xbfa166e3575a2af2	-0.033988098538506054
252	0xbf81d0be4b06a54f	-0.008698927559481233
253	0x3f87851c16f73a0a	0.01148435540281147
254	0xbf6acae809b015e2	-0.0032705814351199217
255	0x3f324c6d1a6dcd3c	0.0002792135587050442

fc1.bias f8 [256]
0	0xbfee02b4daac319e	-0.937830378622994
1	0xbfeb043572791d88	-0.844263766842162
2	0x3fc5d0fa1eb498dc	0.17043997287073054
3	0xbfe0aa593ce7c590	-0.5207945050771503
4	0xbfdbb09fdf875ff5	-0.43265530423150206
5	0xbfe4141fa3b9f156	-0.627456493165975
6	0xbfd5cbb7a5d64bb7	-0.34055892176655383
7	0xbfdde1143db872fa	-0.4668627360095311
8	0xbfe449ec1a5bffd0	-0.6340237154799926
9	0xbfcdafbeb5cae73d	-0.23192581059066156
10	0xbfed54518aed1f93	-0.9165427888301444
11	0xbfb3e41ec4f6563d	-0.0776995879044415
12	0xbfa9acbae10c8223	-0.05014595029047466
13	0xbfe4deec0dc27381	-0.6522121685735415
14	0xbfc221199758a08f	-0.14163513078643006
15	0xbf84e1947e0ed172	-0.010195884797078423
16	0xbfcd7dd283fca49d	-0.23040229267761428
17	0xbfc95e94dd1fa4fe	-0.19819889828730902
18	0xbfe0688dac5ca376	-0.5127628675883062
19	0xbfc0fd89266360a6	-0.13273729681418905
20	0xbfe0d1d6e3758809	-0.5256151621399577
21	0xbfe7fe0e781bdca3	-0.7497627588153545
22	0xbfd94d9872b4e549	-0.39536105348414147
23	0xbfd75cc95ae5fec1	-0.36503824116514855
24	0xbfd73662e4fb264b	-0.3626944767134758
25	0xbfe4be1fd4ad79c0	-0.6482085374698769
26	0xbfdf18511c95293c	-0.48585918227458413
27	0xbfe6a4e5cba6e368	-0.707629106290466
28	0xbfcc263143706906	-0.2199155406277173
29	0xbfa8222be58da08c	-0.047135707637438434
30	0xbfeca4206349ef90	-0.895034974978886
31	0xbfe701b37471839a	-0.7189576410565792
32	0x3fb642452414e633	0.0869487011995254
33	0xbfcd8d8cc25907da	-0.2308822583163977
34	0x3fc7b12aa1d2d13e	0.18509419347322792
35	0xbfcc42b81a0e27ae	-0.2207861067984686
36	0x3fd8be9506ac116d	0.38663221026970157
37	0xbfe0f14c03c89d11	-0.5294551919841145
38	0xbfd941a36fcb5031	-0.3946312515010986
39	0xbfe9cfb92d5a1d0e	-0.8066068540364613
40	0xbfd832805bb2bee1	-0.37808236079125207
41	0x3fb8f722793acbde	0.09752097568234272
42	0xbfddb3a6fb0b3067	-0.4640901042555527
43	0x3fd8b865f24a0d2a	0.3862547746759498
44	0xbfd8281f941c153b	-0.3774489351638583
45	0xbfe33243b7948626	-0.5998858056593164
46	0xbfd95e84ef1d1a92	-0.3963939986319157
47	0x3fe3a9f2e20243bb	0.6144956983790658
48	0xbfd7648f8df955e7	-0.365512741705372
49	0xbfa01ba1f1d2cd3c	-0.03146081997820224
50	0xbfd450a198ce645c	-0.3174213402031165
51	0xbfe00034d0584ccb	-0.5000251836048845
52	0xbf6978ca6d184438	-0.0031093553195735944
53	0xbfe3b1f91baa75b7	-0.6154752292965701
54	0x3f9e93d575422abb	0.029860816270722106
55	0xbfbd9222ae8501d8	-0.1155111003945487
56	0xbfdefd7b2129fc8c	-0.4842212509028705
57	0xbfbbda5eaf567006	-0.10880080967621106
58	0xbfce45f7a9ba9755	-0.2365102366213089
59	0xbfdfbf6cd5af67b6	-0.4960586630601215
60	0x3fc1b3b46a411acd	0.13829665363501534
61	0xbfe4f11c0aeb53fc	-0.6544323170916182
62	0xbfd439e08047d14b	-0.31603252913852903
63	0xbfd710aa4d1f54eb	-0.3603921654842696
64	0x3faf744532fd125a	0.06143394706171952
65	0xbfdeee48ee45cc77	-0.48329375523389423
66	0xbfe400b6a3b47dbc	-0.6250870892871982
67	0xbfcc7db811d1416b	-0.22258664007177784
68	0x3fb7b769033f937a	0.09264236764245296
69	0xbfe63ed65919a731	-0.6951705684889246
70	0xbfdc609c6d296ac6	-0.44339666996317495
71	0xbfe1f6651610f6d5	-0.5613274985296025
72	0x3fa4c9eb5929c1fc	0.04060302222649523
73	0xbfe55d8630a07c90	-0.6676665258163599
74	0xbfb220b90d8e1e92	-0.07081181126533867
75	0xbfc16c4df645f965	-0.1361176922327544
76	0x3fe1a123c17a818c	0.5509203699948997
77	0x3fc7222ec30969a0	0.18073067210464178
78	0xbfec16b30d96c271	-0.8777709260376253
79	0xbfdfc258b7cedf2d	-0.49623697233208724
80	0x3fd2f0838f0c3aba	0.2959298035574808
81	0xbfd4a9891e22568d	-0.3228476328161854
82	0xbfdd14ff6008b733	-0.4544065893013453
83	0xbfe379915f42c274	-0.6085898266374685
84	0xbfd206f323b79691	-0.2816741799164016
85	0x3fe140e5bfc45a2b	0.5391720529031024
86	0xbfdead3c9b6ffed1	-0.47932353190843197
87	0xbfd6104996ddabc5	-0.3447441075610949
88	0xbfe4d4cfa045615a	-0.6509779100697799
89	0x3fc4de54142f2651	0.16303492532306277
90	0xbfe0441b72e523a4	-0.5083138698620258
91	0xbfe9bdace0479317	-0.8044037228069979
92	0xbfbe7fac6ab99e5e	-0.11913564305870625
93	0xbfd8b2873161b75b	-0.38589649031097445
94	0xbfe0b2aa4c70a8d0	-0.5218097203226311
95	0xbfe739379115dbb0	-0.7257345040987868
96	0xbfe23209d71a4e1d	-0.5686082078195259
97	0xbfe64eae85842b97	-0.6971047027339975
98	0x3fc650bbe81e8f82	0.17433880647615402
99	0xbfca35b4114fa194	-0.20476389737383427
100	0xbfe427e01382db34	-0.6298675900533
101	0xbfedff888455b98b	-0.9374430260339052
102	0xbfe53f62ed8a76e6	-0.6639876021833657
103	0xbfea2ed44f2b71a4	-0.8182164713176019
104	0x3f94f58883cfc973	0.02046788506044934
105	0x3fc0ae1f3574e4ff	0.1303137789744042
106	0xbfd97dd5682d7bb8	-0.3983052747116136
107	0xbfc27458fddda322	-0.14417564769544194
108	0xbfc5965e1480c5cf	-0.16865135193942968
109	0xbfd42266e9c36a1d	-0.3145997317166421
110	0x3f8016a54e4a03d3	0.007855693294233667
111	0x3fd4a589b3a50f50	0.3226036314338119
112	0xbfd7800f0824c03c	-0.36719108386296617
113	0xbfd1d09baef6f13b	-0.2783574303282596
114	0x3fd3ee0d101146d6	0.3114044815930418
115	0xbfe5294c96c161e1	-0.6612914032403375
116	0xbfe19c0bb0f3ec06	-0.5502985435590524
117	0x3fc0053b3f16bb8f	0.12515965061672005
118	0xbfbe55b20139ff78	-0.11849510698266197
119	0xbfe9608f1b292fbc	-0.793036988304713
120	0xbfedc54757eff956	-0.9303318707969008
121	0xbfcf9341c5d9fc50	-0.2466814247199829
122	0xbfda52cdbb39c5d0	-0.41130393298871315
123	0xbfd4b5381815c231	-0.32356073715257866
124	0x3fa8ad53f8ed854c	0.04819738782567615
125	0xbfe30539dc3c97c4	-0.5943879415033213
126	0xbfe30645e27ab2e8	-0.5945157454894714
127	0xbfd006e67c18c719	-0.25042116278483345
128	0xbfdf5901f921df7b	-0.48980759934737933
129	0xbfb02285a377c275	-0.06302676430619576
130	0xbfe3264508cfe0f3	-0.5984215900525939
131	0x3fd19cfd63d6f189	0.27520689725840747
132	0x3f9f9e868203ebbe	0.030878163991456146
133	0xbfd5ea9e2fe89292	-0.342444941316253
134	0xbfe6d57eb31c04a4	-0.713561391661774
135	0xbfe1796cd9380ccb	-0.5460724108274005
136	0x3fdba3bdc772c425	0.4318689773309095
137	0xbfcdd93127b0b7f5	-0.23319067419055242
138	0xbfe92afe66c68e12	-0.7864982611976663
139	0xbfd3658dbb828119	-0.3030733424329966
140	0xbfe0ba3e9d54f08f	-0.5227349350821145
141	0xbfe1c415359c55fb	-0.5551858946880083
142	0xbfdd6a984965e3ef	-0.4596310345437464
143	0xbfe27ae16320afea	-0.5775000511252959
144	0xbfe243cd538e5491	-0.5707766181900685
145	0xbfe7069548ba30dc	-0.7195536060767398
146	0xbfe1e3a868ad27bf	-0.559040264555044
147	0xbfd35e7b910c95de	-0.3026417652602883
148	0x3fd5a8c2a00c8ca6	0.3384253085116121
149	0x3fd77eed3e9da839	0.36712199320629996
150	0xbfa2d4d8e5d5f0cc	-0.03678014569865837
151	0xbfd45f399ebfb9d8	-0.31831207754922053
152	0x3fd1d8909eed3376	0.2788430740372897
153	0xbfe29ff3caa63e00	-0.5820254285808346
154	0xbfcd5982b0be12a9	-0.22929414396289374
155	0xbfe01bd12bca6abc	-0.5033956389700829
156	0x3fa3acc1c7440445	0.03842740590517527
157	0xbf947f4ffaed9a81	-0.020016908350408705
158	0xbfe965b9bee8c2c5	-0.7936676720329038
159	0xbfdba51702e38b92	-0.4319512870990191
160	0xbfe5c08a7c8166a4	-0.6797535354373463
161	0x3f5fbec0df6ee12f	0.0019375690005585912
162	0xbff211bdbaff32a9	-1.1293313316884144
163	0xbfc98fefd8efc605	-0.19970510571106118
164	0xbfd640d7c5bef00c	-0.3477076941596813
165	0x3fc5e5f02d715fbf	0.17107965678110124
166	0xbfd7783151f45c8e	-0.36671097758648663
167	0xbfd8f58d00599772	-0.3899872306268356
168	0xbfd1f493bab6ee7d	-0.2805527995476281
169	0x3fdb480e5166bd1e	0.4262729449209973
170	0xbfe9d40d53aa9eea	-0.8071352609740334
171	0xbf85d4e7ad8fa78d	-0.010659990295568434
172	0xbf97b94fa37df016	-0.023167843202358616
173	0xbfed6940c59e8222	-0.9190982684850193
174	0xbfd8b2c6a8fafa48	-0.38591162206640606
175	0xbfc35d102fb073ba	-0.15127756432130274
176	0xbfd6328f73812451	-0.34683595924122296
177	0xbfe5bdbb8f92a41f	-0.6794107250362947
178	0xbfd07c46f5606dc3	-0.25758527720037366
179	0xbfb2f90f0504630e	-0.07411283371437724
180	0xbfe36f18caf0e99d	-0.6073116267864865
181	0xbfc84354bade24f7	-0.189554778331775
182	0xbfa6311d1a37bfd7	-0.04334345765153074
183	0xbfbc59c4989bfde8	-0.11074475026907005
184	0xbfe15c865a889d63	-0.5425445335612661
185	0xbfd1ea3cbc467cca	-0.279921707022322
186	0x3f914cb0cc2b2661	0.0168941139807316
187	0x3fc5dd3800f38f4a	0.1708135609288724
188	0xbfdf1873ae692798	-0.4858674243192751
189	0xbfda5ff75007c084	-0.4121073037667957
190	0xbfe52b62048b98e6	-0.6615457619452882
191	0xbfdc15dd8e120c2d	-0.4388345611006937
192	0xbfeb4fd583f6023c	-0.8534953667986609
193	0xbfc9509ddc7c1500	-0.19777272477964658
194	0xbfd356678c855d11	-0.30214871142148164
195	0xbfa904db7424fcca	-0.048865182807725185
196	0x3fd00df3dc1f574f	0.25085159775095617
197	0x3fb442336d7b213e	0.07913514540553465
198	0xbfdc4f1f2ea428de	-0.44232921175774986
199	0xbfe5a5fef7d01550	-0.6765131797880404
200	0xbfd6f6369700b3bb	-0.3587776636730344
201	0xbfe192e79d5c8a37	-0.5491827081171498
202	0xbfeb73cbeaef402e	-0.8578853214803581
203	0xbfc27e07ae5b1fce	-0.14447113049959487
204	0xbf88436a021d15c3	-0.011847332181455955
205	0xbfc52e54b33bd085	-0.1654764056362447
206	0xbfe68aaff7d11019	-0.7044296112221701
207	0xbfd211f03ec8241d	-0.28234487658534296
208	0x3fcdd7022186b4ee	0.23312403332730675
209	0x3fc2871fa241cb11	0.1447486440916568
210	0xbfbc369d8b8015c2	-0.11020836501855683
211	0xbfb7a843824eaf8f	-0.09241125041324792
212	0x3fcc386c44b6b2e3	0.22047189097556616
213	0x3f927e5d5d4dd97e	0.018060168094473188
214	0xbfe7bde899f24b20	-0.7419322020308279
215	0x3fc2fea00958dbf1	0.14839554268266356
216	0xbfd09b939606f9ea	-0.2594956364736435
217	0xbfdf869752ec598d	-0.49258978937123105
218	0xbfd7faa39e86f59a	-0.3746727989308397
219	0xbfd59c13547664b5	-0.33765109298981183
220	0x3fd9ab51f9a354af	0.4010815561171723
221	0xbfe5ba5e88eb49b4	-0.6790001558495562
222	0xbfe0d91b433369ba	-0.5265022575870753
223	0xbfdc0c9c7c820dac	-0.43826973113047063
224	0xbfdb3b64d3659715	-0.42550011295530626
225	0xbfe84ba61091625b	-0.7592344592658934
226	0xbfca42fcb1d4c351	-0.2051692837062782
227	0xbfc44402162a3f42	-0.15832544405247445
228	0xbfec8266339cf3d3	-0.8909178741520186
229	0x3fe4466d58e21439	0.6335970626829585
230	0xbfd5fef84023d057	-0.3436871172300519
231	0xbfe54dd80bbe3f78	-0.6657524327620044
232	0xbfb3e5f26c6509c3	-0.0777274622569513
233	0x3fe106ae850086aa	0.5320656392761596
234	0xbfc772cee56a83bd	-0.1831911678500812
235	0xbfdb3432d3cdb177	-0.4250609463113259
236	0xbfe153ef0ba5b071	-0.541495821712955
237	0xbfe548819e8b9ff2	-0.6651008698072458
238	0xbfd7892d5cfc5adf	-0.36774763184204845
239	0xbfd2187e5a64814b	-0.28274496867563376
240	0xbfe55bad109d87de	-0.6674409222143785
241	0xbfd49b7ea3d29443	-0.32199064253137893
242	0x3fe5c35fa82be952	0.6800993237114119
243	0x3fbc9a10128a7d71	0.11172581150684892
244	0xbf8de83f5f6afdf3	-0.01460313329641758
245	0xbfbc98d9d8e240c3	-0.11170732064261117
246	0xbfe1123446edbcb6	-0.5334721932721525
247	0x3fc0b85fa8bf12b9	0.1306266378361636
248	0xbfec7248ed0227c5	-0.8889507893629732
249	0xbfd792f25a1787ac	-0.3683439140132758
250	0xbfda69d4f42abb73	-0.41270946354318666
251	0xbfe7eb468440c232	-0.7474701483789146
252	0xbfe905fe95a39348	-0.7819817469249779
253	0xbfc7e949bfee0dab	-0.18680688735558468
254	0xbfe3eb5613873fa4	-0.6224775678074264
255	0xbfe09fd4bacafc66	-0.5195106170939539

fc2.weight f8 [256, 256]
0	0x3fb71f313afa1626	0.09031970682016119
1	0xbf8b59261f913668	-0.013353631819110492
2	0x3fa467ebff68095d	0.03985536091569728
3	0xbf768de410c4380f	-0.005506411438785732
4	0xbfc6ff32bd78a0de	-0.1796630311157576
5	0xbfa859f8cf40f315	-0.04756143121674065
6	0x3fc39c421de388a0	0.15320612391866906
7	0xbfc4ffb51e7ad6d0	-0.16405357349656535
8	0xbfbb7bbee1e4c3bb	-0.10735695853214981
9	0x3fbcc05c10999d87	0.11231017499232197
10	0xbfb686a79d76187f	-0.08799216837187095
11	0xbfd0ec898aa0ad13	-0.26443708932738835
12	0xbfd30bf6ea0c1460	-0.29760525566263674
13	0xbf774aacf8bd6df7	-0.005686450643988198
14	0x3fcdfcfc417d4938	0.2342830009243444
15	0xbfbf0b34ffbba325	-0.12126475566368507
16	0x3f9349035cc079b3	0.018833210502742847
17	0x3fbc3d313d29a705	0.11030872100095841
18	0x3f9274b863cd4f9b	0.018023377505712906
19	0xbfc01670a228dd79	-0.12568481367064147
20	0xbfae689da19a6a93	-0.05939190480895209
21	0xbfd524e113173344	-0.3303759275848288
22	0x3fc15b76fb7babbd	0.13560378341148108
23	0x3fb0eb222707da48	0.06608785107514692
24	0x3fc27d72c5d90f99	0.14445337925473892
25	0x3fd34cf2f656cd80	0.30157159859228244
26	0x3fa077887c92e3e7	0.03216196556736133
27	0x3fa0ed60e43d50f5	0.03306105409743224
28	0xbfb58ec140e2013b	-0.08420951685002802
29	0x3fa8196c7fa6b560	0.04706896837465524
30	0x3fc22f782997e1f0	0.14207365065500666
31	0x3fcdf51fed304435	0.2340431125781223
32	0xbf8bb090b33eb620	-0.013520365209696072
33	0xbfc1e1a7d25abfd7	-0.13969896098342247
34	0x3f8384e6d350b3c5	0.00953083355315155
35	0x3fd1adf4bf699d2e	0.27624243443138397
36	0xbfc5c1d0eeac574d	-0.16997729925122443
37	0xbfe71d6a09ba960d	-0.7223406019226687
38	0xbfcb7aa0d57a88b8	-0.21467981742632047
39	0x3fb37351a32d7cad	0.07597837671117942
40	0xbfcecb93b0dc9341	-0.2405876744825495
41	0x3fb5206d852e9ca2	0.08252605916514935
42	0x3fb3b49690759ed7	0.07697430636255419
43	0xbfe4dc15b2b9e15c	-0.6518658152336161
44	0xbfca87c3f7f7f3cc	-0.20726823432769803
45	0xbfc2b42e62012d1c	-0.146123693326765
46	0x3fb01d6cd68ad50e	0.06294899213647318
47	0xbfb8b080643358d9	-0.0964431995992955
48	0x3fc2f8b43e92257b	0.14821484618395772
49	0x3fd631e5613dc39c	0.3467954110738505
50	0xbfdb0bba21a08b63	-0.42259076389216527
51	0x3f9b8418b7455bbb	0.026871095834703356
52	0xbf9b1e4f295e3bf9	-0.026482808017643553
53	0x3fc2a164e591ee81	0.145550357908963
54	0xbfb918ff2f3fce37	-0.09803767112298876
55	0x3fb69de0761efbd7	0.0883465088254377
56	0xbfc0da9fd1bb6387	-0.13167188397235582
57	0x3f834a5be24c1905	0.009419172137779439
58	0x3fd79e1ddb1e8b84	0.3690256728970598
59	0xbfddec872ee32621	-0.4675615270503802
60	0xbfb2f0cbf6708d49	-0.0739867664965931
61	0xbfb51d9aca1e04d6	-0.08248298105719995
62	0xbfd9adec60110eff	-0.4012404382849439
63	0x3f96a04403b8b08a	0.02209574005807772
64	0xbfe2db68863b8cda	-0.5892832395296879
65	0xbfcf3a1a81dcb5fe	-0.24396067944455518
66	0x3fd3ae14b9be2b28	0.3075000585455876
67	0xbfbde4014504c7db	-0.1167603295805572
68	0x3fdee355a9f7a951	0.48262540434247564
69	0xbfb5074ca9b667f4	-0.08214263099071656
70	0x3fc2900b73d321f9	0.14502089648728125
71	0xbfe683698d236cbf	-0.7035415417298266
72	0xbfd3cf78209133b0	-0.309537917903806
73	0x3fc2cabd86573fa4	0.14681214389429187
74	0xbfd4db53b0d1c7d3	-0.3258866526367658
75	0xbfb533429a50cb84	-0.08281341807814441
76	0xbfc38ccae38e56b8	-0.15273414717801415
77	0xbfb73a2b0e638923	-0.09073132611550654
78	0xbfd15f6e57505f43	-0.2714496472049072
79	0xbfd3c43b2fd843e2	-0.3088520018800961
80	0xbfe322429a6e3f4b	-0.5979321495269486
81	0xbfe0dfb97570a595	-0.5273101133108634
82	0x3fd6568ae89a49c6	0.34903214182955045
83	0xbf889b87a1e97ecb	-0.012015399578728566
84	0xbf779c48af81324d	-0.005764278343189999
85	0xbfeb8124d2df8245	-0.8595146292319177
86	0xbfc6a876700c9ecc	-0.17701607199818736
87	0x3fa14102baa05e0c	0.03369911697535252
88	0x3fb2e38e8db8923c	0.07378474197373291
89	0xbfe25dd87d981ff8	-0.5739557698261697
90	0x3fbfd38ab3eb0f7e	0.12432162182363801
91	0x3fc14358f23b9d18	0.1348677809503236
92	0x3fd26994da1ac2a9	0.28769418048163203
93	0x3fa6012fd1cf1256	0.042977804528651006
94	0x3fc2f73dbd088bf3	0.1481702015890672
95	0x3fcad37a3913ad35	0.20957877909618508
96	0xbfa999286a84ffe1	-0.049996626856682054
97	0xbfa9c92a77e2cb70	-0.05036289895487911
98	0xbfa6d0ea2823f610	-0.044562642478904846
99	0xbf76c14895183964	-0.00555542328358025
100	0xbfadcbf23b187469	-0.05819661113148628
101	0xbfcf6d267420ad63	-0.2455185000447769
102	0x3fd156468c711107	0.27089084353453113
103	0x3faf21f3472455b2	0.06080589526588244
104	0x3fd47d2b7574796a	0.32013975591862354
105	0x3fa5bc3b8d49dcbc	0.04245172595704491
106	0x3fa1480b66d2083b	0.033752781201670655
107	0x3fd7cebc5e6a3a49	0.37199315281114714
108	0x3fdb6ca146c2149e	0.42850524816487645
109	0xbfb578208391afef	-0.0838642426694489
110	0xbfe0c3b6ec7247d9	-0.5238909357160494
111	0xbfcc611bdc7ebcba	-0.22171352640495973
112	0x3fb01cf252eb7382	0.06294168972404005
113	0xbfcabd10a7829b5e	-0.20889480761726537
114	0xbfe5fec1a871b306	-0.6873482026981896
115	0xbfc2288f6493e5a2	-0.14186279688855757
116	0xbfcd5457cc5221ad	-0.22913644291498994
117	0xbfbb4990d62deaa8	-0.10659127453792883
118	0xbfd1f38182b83a7f	-0.2804874207076082
119	0xbfc530907b39e510	-0.16554456726934363
120	0x3fd1f7e0319242f1	0.2807541355223711
121	0xbfc2156efce41423	-0.14127909992399265
122	0x3f80616741c9315f	0.007998282141806255
123	0xbfcaa34b5e7e1f82	-0.20810834993266886
124	0xbfb2d4684e4b9286	-0.0735535803938295
125	0xbfeca5c8f1ed4e88	-0.8952374196182555
126	0x3fde404e59a85321	0.47267493014924084
127	0x3fd18e0b6b4e077c	0.2742947147272543
128	0x3f69588ae05664cc	0.003093978159722432
129	0x3fcd3de311498086	0.22845114082429435
130	0x3fb86c7c6823f3be	0.09540536444178735
131	0xbfca18acc6d2a40c	-0.20387801845689102
132	0xbfd8d561c62b9e4e	-0.38802379944397536
133	0xbfdee56daaeeb17a	-0.4827531975995708
134	0xbfdd09acf38d83e8	-0.4537155512280706
135	0x3fd301df288c5c56	0.29698924026292184
136	0xbfd359a75a45f487	-0.30234702888248716
137	0x3fa45e1a814f8647	0.03978045300005966
138	0xbfac899cdf725c7d	-0.05573740222569599
139	0xbfc4068a67ef220a	-0.15644960474880093
140	0x3fb3ec074dbf3a9f	0.07782025955314474
141	0xbfbab7c093fadf90	-0.10436633694450692
142	0xbf8252612bb8cd80	-0.008946189066682875
143	0xbfd29cfe0ef48e95	-0.2908320566223009
144	0xbfc0be0f7a4e5203	-0.13080018493623422
145	0x3fd9e633e68b29e8	0.4046754599955009
146	0x3f9742ce4e4c5678	0.022715781716291933
147	0x3fd06db065d80ac5	0.2566948885507084
148	0xbfe4b240c431c211	-0.6467593986436119
149	0xbfbcded41cba099f	-0.1127750940450256
150	0x3fa8d3d00d76990e	0.04849100269648164
151	0xbfe0e5e134c690cd	-0.5280614882253986
152	0x3f96a2fe2fb7fee2	0.022106143629570314
153	0x3fdc8c10c9397d04	0.4460489239772445
154	0xbfd04d5f0f024ac9	-0.254722370774442
155	0xbfc2eaa4ec3a092c	-0.1477857736063667
156	0xbfcde56706a2402e	-0.23356330703654876
157	0xbfb6caf63d0c2e36	-0.08903445234698712
158	0x3f917618ea82ee1d	0.01705206805557512
159	0xbfbf40882ab75083	-0.12207842867730005
160	0xbfbd85b1efc45517	-0.11532127479252484
161	0xbf8f0f07327d09f4	-0.015165382602963164
162	0x3fab7bc8ecff8925	0.05367877858204143
163	0x3fcafe6dcacac5b7	0.21088955308873178
164	0x3fb3b049e4af439b	0.07690870125885711
165	0xbfeccb5467fe841d	-0.8998205214630876
166	0xbfc9aac3219ceff8	-0.2005237497450023
167	0xbf86389be535b052	-0.010850160534310902
168	0x3fd547fda29195a2	0.3325189673981531
169	0xbfc1658bb0f7c059	-0.13591142788891622
170	0xbfb322946c57b2f3	-0.07474639554102307
171	0xbfe40977e32c0dd2	-0.62615579957531
172	0xbfb9dcc1778ead04	-0.10102471512680117
173	0x3fb6be9b9bd14c3c	0.08884594492092018
174	0x3f89fd73f9c85021	0.012690454540496944
175	0x3fc0f0d0818d75b7	0.13234907460984655
176	0x3f8c3b92d23648a3	0.01378550247207883
177	0xbfbe0bc6ad1fdcb2	-0.11736718870803278
178	0x3fc0c84cda2433e5	0.13111267711101884
179	0xbfc2b6fbee4a3f67	-0.14620923171286934
180	0x3fb3ba722b802ef0	0.07706368982342915
181	0x3fba1f1c2362be6e	0.10203719962987076
182	0xbfd313fa456b1139	-0.2980943372642915
183	0xbfe312e753c4fb99	-0.5960575710413308
184	0x3fc5706864fbaa76	0.16749291354001955
185	0xbfd7c0c7b148e9ef	-0.3711413604065958
186	0x3fb1749d5165e505	0.06818564641243448
187	0xbfac65b357b86dc6	-0.055463413675365156
188	0xbfcb56645bf0a635	-0.21357397546062065
189	0x3fc7cc7c4e1ae864	0.18592790425992967
190	0x3fb7ff02614c6f04	0.09373488307431549
191	0xbfa3b1f04a79908e	-0.03846693905941932
192	0x3faab21039a5fddb	0.0521397657748783
193	0xbf84c2a0dad8799b	-0.010136849096906533
194	0x3fc5bed4a7bcdee8	0.1698861903221236
195	0xbfcf45b102df5dc7	-0.24431431427249903
196	0x3fba642cf3b39c26	0.10309105825182083
197	0xbfd236be0d7e0d8f	-0.2845912105333008
198	0xbfd0221a9caabceb	-0.25208154010301936
199	0x3fb8959152d03079	0.09603222152526482
200	0xbfe403c622364b28	-0.6254606884197971
201	0xbf83be92b9e9b9d0	-0.009640833185781711
202	0xbfce99b51ecb37dd	-0.2390657806740241
203	0xbfcb334db323c79c	-0.21250315901812378
204	0xbfcb598324baa0f8	-0.21366919797333828
205	0x3fd85c49c11e32eb	0.38063281878639427
206	0x3fc5f6831fba7532	0.1715854554103458
207	0xbfd2b3102085b80f	-0.2921791379548048
208	0xbfcfe3039ff84f0e	-0.24911542235405942
209	0x3fc59837392f66b3	0.1687077550148409
210	0xbfe70c2bc7d32edc	-0.7202357199507463
211	0x3faa02bfd7f111da	0.050802226171558565
212	0x3fbbe86e5f21ef5b	0.10901536772320013
213	0xbfdfae5be72d7b8a	-0.4950170285791776
214	0x3fb36c1cbf996bd3	0.0758684127589924
215	0x3fbb6d71bd5c75f2	0.10713873742175631
216	0x3fcb30f4b03db3af	0.21243151288527204
217	0xbfc6ec5df8175a0e	-0.1790883504279041
218	0xbfb66fea6d5e101e	-0.08764519853690486
219	0x3fb012b69ce0fc20	0.06278554277467707
220	0xbfefd9c095c4b45b	-0.9953310895122159
221	0x3fb8fb20673750b9	0.0975818874351856
222	0xbfe0dd8bd75dc11d	-0.52704422057835
223	0x3fc89b1e3d1b5ab9	0.1922338293431574
224	0x3f9f61f05f5b32c4	0.03064704496391603
225	0x3fb7a588c6bb0c44	0.09236960269758848
226	0x3fbfbac89ad4491e	0.12394384174357184
227	0x3fa9f828f1e95076	0.05072143509883713
228	0xbf56b591c1d40903	-0.0013860629472338133
229	0xbfe6356193cef776	-0.6940162550815632
230	0xbfb138f7187af91d	-0.06727547023453835
231	0xbfb4a7ccc1da6db4	-0.0806854222559455
232	0x3f8906797cc38189	0.012219380493150538
233	0xbfd301e469ff095a	-0.296990493308973
234	0xbfc173957865d51a	-0.13633983973310465
235	0xbfc3eaa538919bfe	-0.15559830915591982
236	0x3fc8dc163f62f016	0.1942165193084981
237	0x3f8790a3702ca82a	0.01150634466246821
238	0xbfd0c4668f0033fb	-0.2619873424999352
239	0x3fb3cf0954c37b83	0.07737787551330481
240	0x3fbfde23fe6dd4ac	0.12448334657331611
241	0xbfbcf8ab6d21ced2	-0.11316939749104485
242	0xbfc2b249b4e1f45b	-0.1460659154144278
243	0xbf98737aaae0f2a7	-0.0238780180736621
244	0xbfcc1692e7dd01b3	-0.21943889924479051
245	0xbfc23f64a6987519	-0.1425596059279222
246	0xbfc04f36f4960da2	-0.12741743986781012
247	0xbfbfd32d0e07f848	-0.12431603996807994
248	0x3fb60eb8e54973e0	0.08616214368653585
249	0x3fa73a06ed60febe	0.04536458633128636
250	0x3fa9a1d7b8c40694	0.050062886528405987
251	0x3f75d28ad47c64cf	0.005327741913583497
252	0xbfbd39f32b06c710	-0.11416549492312478
253	0x3fcb999c75785c76	0.21562534080360124
254	0xbfbcb21adbe74e01	-0.11209266537417052
255	0xbfd03ed01d45fc86	-0.2538337980149169

fc2.bias f8 [256]
0	0x3fb78ee8762ee592	0.0920243538411312
1	0x3fb268b575e60b4d	0.07191022995361358
2	0x3fd33f707b8c9d80	0.3007470327888413
3	0x3fe0c9d0b805da9a	0.5246356577107065
4	0x3fd4b7295014ec2f	0.3236792833374151
5	0x3fa42e1f2f964407	0.03941438156028459
6	0xbfa2e4e84c28550b	-0.036902674957824365
7	0x3fc682ef62e4cb52	0.17587082222743305
8	0x3f8e75df0a78f0d8	0.014873259074299858
9	0x3f7f3407f019ac44	0.007617980010404205
10	0x3fd6e82f1a16328b	0.3579213862183585
11	0x3fa24b7ab57853b6	0.03573211159906668
12	0x3fc882d5a8b2e8cd	0.19149275529145485
13	0x3fc752c542ce16b6	0.18221345674480965
14	0x3fc1797f97b44f75	0.136520337175735
15	0x3fb4873c3867e46d	0.08018852593512955
16	0xbf72a01baf6ab407	-0.0045472222761136
17	0x3fd4f7ac537cbea9	0.327616769342948
18	0xbfce714022548005	-0.23783113170884476
19	0x3fd09b1296cd664e	0.2594648811987995
20	0x3fbf24c474dadd43	0.12165477612403656
21	0x3fc87ecdec34d5c2	0.191369762740278
22	0xbfc92adc19d382cb	-0.19662047635121946
23	0x3fb20f78c814313d	0.0705485809778041
24	0xbfc30efb7cff81e6	-0.14889472583219215
25	0x3fb95a8bc1a75c26	0.099037871149776
26	0x3fd50841b7422831	0.3286289491303505
27	0xbfc9fb136aa59d98	-0.20297472674722594
28	0x3fd7cf25e8dd5ed0	0.37201831570335475
29	0x3fb8191fb330de05	0.09413335919168027
30	0x3fca918d4403ce8d	0.2075668890098438
31	0xbfaa72f9b86c6ee5	-0.051658443224565954
32	0x3fbdf7475915a48c	0.11705442356982781
33	0x3fd9dc617ff307f1	0.40407598013928153
34	0x3fd1dc2a5494e19c	0.2790628267280455
35	0xbf81578860a16953	-0.008467736672333947
36	0xbfd0667a0c55bc45	-0.25625468449192496
37	0x3fcb285c826c9a84	0.21216923111315478
38	0x3fc98a0a50d29c5d	0.1995251555101473
39	0x3fb14995877de648	0.06752905424027589
40	0xbf890f5fe0874a11	-0.012236355819287533
41	0x3fd5b5e0795e1e8c	0.3392258820754044
42	0x3fe475f53ffb5272	0.6393991708415128
43	0x3fdc6839b84fea39	0.44386141776309135
44	0x3f983fa7a6a300bc	0.02368032412118802
45	0xbfb38a7b328dd71d	-0.07633180603246754
46	0x3fbe897208035ce4	0.11928475089677054
47	0xbfb7c64a48469edb	-0.09286941780612372
48	0x3fd71e6d84ced515	0.36123216599965363
49	0x3fd74e233d297f5a	0.3641441437994125
50	0x3fa44cbb72d68a9b	0.03964792038757033
51	0x3fce91552003c40e	0.23881019652574803
52	0x3fbc03a4c8a79096	0.10943059824745868
53	0x3fdbf6a65b98f4fc	0.43692931122843937
54	0x3fd154b99eedec82	0.27079620857666253
55	0x3fd32f3c3bbf849f	0.2997580131032666
56	0xbfcc868f4958544e	-0.22285643655109982
57	0x3fb1ef31cca5fd26	0.07005606886194879
58	0x3f8e572b1a7bab9e	0.014814697976779641
59	0x3fc0a9bce6108391	0.1301799891816953
60	0x3f9d4b6a40f2d8fc	0.02860799809851587
61	0x3fb9e3566b09d1dd	0.10112514603844809
62	0x3fd1fb51cfe99745	0.2809643297572289
63	0xbface11ecad24808	-0.05640503145072279
64	0x3fa04bb92ea0c037	0.031827723447691296
65	0xbfb5b0e05b1c0ae2	-0.08473016952852278
66	0x3fc52575994f21ff	0.16520566926762112
67	0x3fcd03ccd6237aaf	0.2266784711454952
68	0x3fd487b27149c92e	0.3207822901087124
69	0xbfc105f84e37e13a	-0.13299468821765875
70	0x3fd15b3a645d9760	0.27119312096907855
71	0x3fbd334aa623d96b	0.11406389766839246
72	0x3fc761017c970a35	0.1826478823041541
73	0xbfaa8785ec5f170e	-0.051815209487854216
74	0x3fd609b8700c57d5	0.34434328977783696
75	0x3fcd07402609d33c	0.22678377015440698
76	0x3fe082d1117f0a41	0.51596883218037
77	0x3fbf4bf1ec473d12	0.12225257891190136
78	0x3fcf76ccea4d3b22	0.24581300201904194
79	0x3fb85f6207edfc53	0.09520542806238667
80	0xbfc0a4a13f2f2fe7	-0.13002410493061164
81	0x3fc46e7f1fd39b86	0.15962208799393468
82	0x3fc66e1563b5305c	0.1752344834188787
83	0x3fc58fcb7c6df9f1	0.16845077109969922
84	0x3fc3075593a4e4d1	0.14866132458863615
85	0x3f96c9195d2ca1f0	0.022251507102881207
86	0x3fd3ce3fc113bdb1	0.3094634423750576
87	0xbfa284a4461314d8	-0.036168225816746336
88	0x3fd088308c463081	0.2583123559823051
89	0xbfa6da11685901f1	-0.044632476794962524
90	0x3fc57254c3bec95d	0.16755160863756205
91	0x3f7327ffe0f7f76c	0.004676818396090226
92	0x3fbc07b4646e930b	0.10949256374312825
93	0x3fdcc519b69b0100	0.44953005631033705
94	0x3fd515037b865bbc	0.32940756857845677
95	0xbfb7eedb71189897	-0.09348842154631352
96	0x3fcca246dc8c6f34	0.22370229500745042
97	0x3fd77134b06ebf11	0.3662845347380293
98	0xbfc03e8a44d07f2d	-0.12690857276992898
99	0x3f9fa43dbf2077c1	0.03089996794744088
100	0x3fddb9c55c3e4fe0	0.46446355827469965
101	0x3f7f91c1c71654a0	0.007707364029006986
102	0x3fba352a5ca896b1	0.10237374078914276
103	0x3f8013bd758758c1	0.007850151204291557
104	0xbfd2b948c73fda98	-0.29255885560943673
105	0xbfc4c0526064c83c	-0.16211919504854844
106	0x3fac1722acd9b373	0.05486400947561423
107	0x3fc37c3e3136610d	0.15222909357977024
108	0x3fc7689e8c53bafa	0.18288022853763392
109	0x3fce4ed23a7ebf14	0.23678043228346068
110	0xbfc053d09f36f703	-0.1275578286567268
111	0x3fd5893c3c234ddb	0.3365011775287862
112	0x3fd22c1ac7ffc1af	0.283941932021686
113	0x3fd11b52f34e8b9f	0.26729272613936844
114	0x3fd4ffd2d8f71468	0.3281142348099082
115	0xbfb42e5adaec3d6b	-0.07883231968684405
116	0x3fe216a775aaca22	0.5652653978525601
117	0x3fc0b72c822ecc14	0.13059002262670616
118	0x3fbd339d62680638	0.11406882908342986
119	0x3fb6d0f16246a97b	0.08912571572606069
120	0x3fc7ec6a88eefb2e	0.18690234838683167
121	0xbf9a0063cc05f5fd	-0.025392112090676367
122	0x3fda138af5f61a4e	0.4074427988020134
123	0x3f9c236f3f05d288	0.027478922101595887
124	0x3fd4384a8feb6853	0.31593574576038924
125	0x3fb106e9c04f2db1	0.06651173539210366
126	0x3fc2ffd1573f715e	0.14843193779132496
127	0xbfd51adec404b118	-0.32976502554335374
128	0xbfd3e06fd94d264b	-0.3105735418399475
129	0x3fb173cbb4ff0433	0.06817315262652883
130	0xbf9cba1debd550a9	-0.02805372955238342
131	0x3fbe2391ff6e0f04	0.11773025976259183
132	0x3fc08c01eb4bcbb6	0.12927268971506373
133	0xbf924de8b52c4b28	-0.017875324304507917
134	0xbfac5887cf531908	-0.05536293416803245
135	0x3fbe2a4f6b991f48	0.11783310295970495
136	0xbfb1fffa42f6d612	-0.07031215796345006
137	0x3fb63de462a22902	0.0868818989567082
138	0xbfcebb6952a9ca9a	-0.24009434257785217
139	0x3fded81ae64b4adb	0.481940007111161
140	0xbfa43a3428b76817	-0.0395065593435932
141	0x3fb4676e135e0a04	0.07970321629367311
142	0xbfacb82fe0266f35	-0.056092735397412254
143	0x3fb24a6968d74662	0.07144793328850477
144	0x3fd8c3e1153fc4e1	0.3869555194388124
145	0x3fd305dbe0e68e7e	0.29723259890509
146	0x3fb6dd0aba461780	0.08931033179950809
147	0x3fd1533fcbc056f3	0.2707061280974436
148	0x3fce9284c81c7d42	0.23884639521654988
149	0x3fd70075b45552c7	0.35940306292222285
150	0x3fc66b3e050cd9aa	0.17514777418700805
151	0x3fb91ca4b4d06b6a	0.09809331335456553
152	0xbfc6451e6c992ca0	-0.173984339739353
153	0x3fd3ed6bc5637a1c	0.31136602665165625
154	0xbfcc6f77d6a511f2	-0.2221517370291078
155	0x3fc16263cbee2cfd	0.135815119338396
156	0x3fc2ae4f864a6514	0.14594453866156043
157	0xbf95918ead5a6357	-0.02106306965888235
158	0x3fb9e86dc4d35cd1	0.1012028317958198
159	0xbfb3c48d8f7613e3	-0.0772179103133364
160	0x3fda00db04a64dfe	0.40630221799912636
161	0x3fd176cea97ffe1a	0.27287642052394434
162	0x3fd6a81b0fdc7541	0.354010358323496
163	0xbf41a4694258759f	-0.0005383981667283383
164	0x3fdc98f7edf32ec7	0.44683645474718187
165	0x3f7f46695a66f2d8	0.007635509048154097
166	0xbf9c0cdfb257625c	-0.02739285970696624
167	0x3fbeac83785a571f	0.11981984794905685
168	0x3fca3eb851029aac	0.2050390620763286
169	0x3f8bf53f3c3ae9c9	0.013651365304544154
170	0xbfb36576f9e1b8db	-0.07576697922351931
171	0x3f9287878bf983d5	0.018095128935218547
172	0x3fc11c14b35a77e1	0.13366945989122228
173	0xbf9f4722a0d755d9	-0.0305447970075273
174	0xbfc0be29101df28f	-0.13080323492967635
175	0x3fdc47864d0b0504	0.4418655159352769
176	0xbfb825287cfbfd2a	-0.09431698848128592
177	0x3fd176b8f9dc3d61	0.27287125015660335
178	0x3f9e4ced562877a9	0.029590328582450507
179	0x3fd6922739e19940	0.35267048504319476
180	0x3fd7a642fb2c9e6c	0.3695228054880093
181	0x3fae6b4789a436c8	0.05941222720330824
182	0xbf85c6a9c38bdcf6	-0.010632826118565291
183	0x3fd80261d8fdeb0b	0.37514539900409777
184	0x3fd6005ca94cf783	0.3437720921827962
185	0x3fd50437941f5598	0.32838239159658533
186	0xbf946f86c145faeb	-0.01995668940207455
187	0x3fc25ecd5582ba63	0.1435181300671103
188	0x3fc9295a1cc4b07b	0.1965744629354765
189	0x3fd8df7eb8fc2cbb	0.38864105286547684
190	0x3fd434b8331abdba	0.3157177447382896
191	0x3f994b0cccdbf6af	0.02470035553323296
192	0x3fc57015f62c9ffd	0.16748308677892956
193	0x3fd686bddc61d62e	0.35197397729584423
194	0x3fb32e86f294e880	0.07492869779972189
195	0x3fd801ccc8968e48	0.3751098593586204
196	0x3fb98bfb6395f5e8	0.09979220563214819
197	0x3fd8afcead9b5e8b	0.3857304282550806
198	0x3fc52ea59faad0f5	0.1654860524773835
199	0x3fcee116cd0b7a49	0.2412441731639368
200	0x3fca7a24a3b5b3d5	0.20685251229897852
201	0x3fe0c5378d3a3d7f	0.5240743406629206
202	0x3fb3136f676d68c4	0.07451530718882099
203	0xbfb3604cf313c1cd	-0.07568818029881826
204	0x3fd74e2356e494df	0.3641441677630847
205	0x3fcb42e98e2042a6	0.21297950210329936
206	0x3fd1b0458575f7c7	0.2763837626770251
207	0x3fc967219ca0ed12	0.1984598173893138
208	0x3fc4537ae8a5057c	0.15879761085129107
209	0x3fd33eb62633d2f8	0.3007026074476893
210	0xbfb850c5eeafba5a	-0.09498250081353757
211	0x3fc4a1e26c8878c6	0.1611903219172232
212	0x3fd121b28d3da593	0.26768173020408276
213	0xbfb84815bc19c885	-0.09484992830565105
214	0x3fc9f30e3a4a70c6	0.2027299675581899
215	0x3fd4a4708377e0a0	0.32253659094522824
216	0x3fd84979bbf07335	0.37948459008639485
217	0x3faaca07b04e1621	0.05232261683617546
218	0x3fd3afeadbe4a5f2	0.307612147082721
219	0x3fc9360b1649efa0	0.19696177089997224
220	0x3fdd22ab49e5e63c	0.4552410337124433
221	0x3fd67772cc12a06a	0.35104055336933604
222	0x3fa9202a5e1854e2	0.049073528276645254
223	0x3fc99987a8beeb8d	0.1999978612855923
224	0x3fc55b75778f7028	0.16685360277085803
225	0xbfb3b4cdeab8cc0f	-0.07697760563387156
226	0xbfa20b25fc7a730f	-0.03524130541811676
227	0x3fe375b5a8e0326d	0.6081188486437675
228	0x3fb5740eb4e1c667	0.08380214611113389
229	0x3fd17c1aebc745c4	0.2731997778438109
230	0xbfb45a99c503e3bd	-0.07950745639745001
231	0x3fc755dd0ec00cd6	0.18230784626221092
232	0x3fa47215a19a9938	0.03993289563850272
233	0x3fd82226ab7545a2	0.3770844149012992
234	0x3fd7c682dedc178f	0.3714911629070849
235	0x3fd006e9a781e222	0.25042191846981343
236	0xbfb0d99a6cddd05e	-0.06582036168930602
237	0x3fd1fbabe5fce5ba	0.2809858079886812
238	0xbfb02072de00404a	-0.06299512786813569
239	0x3fbd67a161ee2d1e	0.1148625244224388
240	0x3fdb58f239c2e33b	0.42730384484052636
241	0x3fd3b041ce47a085	0.3076328768206696
242	0x3fb410aca9710c03	0.07837943207509572
243	0xbf6bd5e07b1d6a58	-0.003397882880489516
244	0x3fc80fae21fabd7d	0.18797852191117306
245	0x3fc9528e238eda0f	0.19783188568335716
246	0x3f55eb2573e81d6c	0.0013378015279402423
247	0x3fd5559879a39b39	0.33334934119050136
248	0x3fce15ee37fc80a9	0.2350442670222084
249	0x3f87884b51a0abfc	0.011490429333283807
250	0x3f9d96c511373d3e	0.02889545362068912
251	0xbfcaf18fd1ecb104	-0.21049688101027908
252	0x3fc923231815de15	0.19638479877515694
253	0xbfd68d0a09da062c	-0.3523583503921113
254	0x3fd4a4eab70afb38	0.32256572604449074
255	0x3fcdb9e9aa6c95fc	0.23223610707752573
