Q3/700.ckpt (torch, 754704 bytes, 8 tensors)

fc1.weight f8 [256, 67]
0.013750197250618929 0.3457643848670324 -0.49726449603892947 0.09438209697181917 -0.30130722922741054 0.09668288624868046 0.692422155942548 -0.44554126138687505
1.5345377354149663 0.3994681357509213 1.1245274000978338 0.36820448931792604 -0.4241545094505094 -0.13549279537248682 -0.07381274686454097 0.094914403288428
0.29486498969899966 1.4387486903819058 0.7361638297965915 0.07596083070143321 -0.13864184999268656 -0.11754224646336679 1.480052746380472 -0.06502587400141276
0.06431519593161915 -0.1447331578275712 -0.5000339723926289 -0.011084505562358663 0.8398114223999659 -0.08802590877770533 0.08661622397614861 0.21464462998209202
0.3025447694692648 0.06274781494183611 -0.07504366567415027 0.6900579114630081 -0.09301073017109267 -1.1939989377051816 0.3335642443704835 0.49697399346828436
0.20152168668240097 -0.0401651660716296 -0.03618152109614464 0.024021499369266463 0.05073313683489319 -0.05688511858758501 -0.055311659634740946 -0.038502803582977384
-0.011153218918789802 -0.026315090267727197 0.0005581768945905456 -0.0588363539164298 0.03085106308838265 -0.001136651434744874 -0.002115329570675841 -0.03367036377023879
-0.00751373677715801 -0.028713402409616156 -0.006612881097032766 0.0026889458712679687 0.006004410321622128 0.012397436882752041 0.02753033422214239 0.0187771300911429
-0.00661689192107516 0.04858162943822626 -0.014543816243484721 -0.29294917296929446 -0.729187633292787 0.4501784392092253 -0.046352256428049576 -0.1446761823073158
0.23502609066253935 -0.489997114477578 0.5552630923463082 1.7481634561815647 0.23788344554165253 0.7990932895587134 -0.4718911161220832 0.06068090631232702
-1.2551948956474395 0.5718769397988588 -0.2865821053625511 -0.5725680881775075 0.33580454690595507 0.8705939670803199 -0.12205177173958855 0.6316601461225805
0.05470415020339751 0.5096207155268061 0.12256727189682923 -0.03190060077662021 -0.18015556846731343 -1.0300972515676183 -0.14953334000160104 1.0213428306010053
-0.12210016595488613 0.1494690950085945 0.08352718444747423 0.39882790795886164 0.15702551023747974 -0.2123044535096655 0.05119752884744669 -0.19037186132935005
-0.19610002182419004 -1.1221236747631211 1.050577099075735 0.07595262334496279 -0.43535712791125447 0.25911891988530306 -0.04093416879765054 0.021567770150688444
-0.08197971154283992 -0.014438971572827213 0.0022621349431054595 0.03915694508386856 0.016729934844375297 -0.05512618382301452 0.03776639225655278 0.026802210551486853
0.0060732095009986735 -0.005854868085319886 0.009201439183398441 -0.027100847473368876 0.04524557440977864 -0.013994607760605467 0.004634384884396901 0.005880705888072733
0.030211428302939734 -0.014455560739978618 -0.0052716572983580005 -0.0033125021618180214 -0.02169302574702803 0.001622993637048699 0.10639054621270652 -0.19386006979310136
-0.07328718087024266 -0.23989525139575069 -0.16111168694355743 -0.032664573351918996 -0.7345533795161134 1.075561162499823 0.32558443607988347 -0.12423220898534967
0.06517627367284547 0.20530213663962424 -1.9042836583800369 1.5114798792593456 -0.18650975931055855 -0.7864476626695684 0.7377800608532431 0.7729780800398087
0.6254863311142318 1.270891666019183 -0.3388184241921751 0.6315917844188361 -0.4869143337919685 -0.08235400661606672 -0.053266266114808204 0.2814113162482762
-0.3454227397503244 0.8582970013136674 -0.4231853476442647 0.09859632804176043 0.03992525694997453 0.1322458628016912 0.004223656080917301 -0.005227108995505334
0.16328532709167617 0.008961699510425122 -0.1178836608396298 -2.802090299353005 2.228946723732206 0.38243069181062334 0.10523484695451808 -0.08126806920065545
-0.20648268985485374 -0.012011316340689188 0.05523174487542959 0.09004784039348579 0.02908757030597354 0.05793742907912842 -0.0021104170248461857 0.039840254379824504
0.00959385249809238 0.03531434851197765 -0.019876139862541112 0.0023546719915722145 0.0003431379236906325 0.06353354228852587 -0.02592161519302816 0.0789411986503086
-0.02831312164077213 0.0028220419679545455 0.004209079358346111 -0.008694171573340846 0.006718301410419979 -0.0009957489773158715 -0.006304262618569495 0.00521182611532312
-0.0037838994990409716 -0.20085418251450482 0.015211449453926544 0.47748246555197577 -0.3647755422278041 -0.4756632129941287 0.4483605053113781 -0.7117125338051812
-0.6042465124178829 1.7824706483436181 0.6666693653815267 0.3536253008339217 0.29071817646339454 0.7937575796553157 0.47345206591882794 -0.37693751244415746
-1.810915435811685 0.8048805893594819 -1.38083583001572 0.29377233174919615 -0.0243185874202206 -0.4751972350674407 -0.3864998097315791 -0.13134410346128
0.06848737165285766 0.09719178099123486 0.2530691958747016 0.2649564341499272 -0.3098256900524574 0.09299047369307639 0.09869981357740817 -0.052678472725799126
0.34125467743751975 0.4610171163947762 0.018776737543714804 0.10264362163690252 0.12388474541954232 -0.0050144236233125 2.866993285608502 2.414416889941398
-0.30203287428909337 0.07635921294646458 0.05063678993238986 -0.7120039240520776 0.19746066274619603 -0.23366333617825247 0.018868364406821284 0.05325877133187783
-0.13265926992860483 0.08241726588194465 0.024214673532130276 -0.008112941908685369 0.02465095824645612 0.0058570417052447865 -0.003553151304550562 0.004309124115336785
00000000: 1d27 0a3c 1029 8c3f 9007 48f1 0021 d63f
00000010: 71be fc76 2ed3 dfbf ad65 d2d3 6c29 b83f
00000020: 6b20 e51d 9e48 d3bf 565e 85aa 35c0 b83f
00000030: dd91 5982 5228 e63f bd36 ab7e bf83 dcbf
00000040: e75c c170 778d f83f f008 b6cc e290 d93f
00000050: 8504 6e71 10fe f13f 8e18 f78f a990 d73f
00000060: 779d a2f4 5825 dbbf 34f6 7bf2 d357 c1bf
00000070: 37a6 cf65 64e5 b2bf 150c 0b72 4f4c b83f
00000080: 7086 df67 11df d23f 5ca6 c558 1d05 f73f
00000090: dd2e af72 a78e e73f ffbf a343 2b72 b33f
000000a0: dbaa c921 04bf c1bf 5b62 75a8 3f17 bebf
000000b0: 1df2 e0c9 4bae f73f b5d9 3a22 89a5 b0bf
000000c0: c781 29ef f576 b03f a713 c2b9 9d86 c2bf
000000d0: 0117 ca3e 4700 e0bf 55b0 0f27 79b3 86bf
000000e0: a97b 4034 bcdf ea3f f0a2 66af dd88 b6bf
000000f0: 65d3 4719 7b2c b63f 5d7e 04a9 7979 cb3f
00000100: 0691 9cbc e45c d33f df15 12a5 3d10 b03f
00000110: b4a9 d7c9 0f36 b3bf c48c 4254 f414 e63f
00000120: 6b0d 431c 8dcf b7bf a070 4ea1 9e1a f3bf
00000130: 5aea 2bd8 1d59 d53f c329 3a02 6cce df3f
00000140: 772a de6e 76cb c93f 259f 6e55 8790 a4bf
00000150: d8aa a763 6286 a2bf 437d c488 1799 983f
00000160: 2b08 0f97 b1f9 a93f caee ecd7 0b20 adbf
00000170: e1f8 6f52 cf51 acbf 0beb 62b4 a3b6 a3bf
00000180: a9b9 02b4 7fd7 86bf 4b5d 5dd0 57f2 9abf
00000190: 6aa6 fac0 534a 423f fc1d c66f cc1f aebf
000001a0: f1b5 0bcc 6b97 9f3f 9ebc 4e2f 769f 52bf
000001b0: 052b 71ea 2a54 61bf 8fa6 79ee 3d3d a1bf
000001c0: ce88 a85b b9c6 7ebf 9b89 39d1 0b67 9dbf
000001d0: 299a b4c0 1b16 7bbf b76b 7dd2 2007 663f
000001e0: fafc 689f 1498 783f aba3 b9cf d363 893f
000001f0: 6c38 8774 e930 9c3f 9fe5 9dde 4f3a 933f
00000200: f058 6f66 501a 7bbf ea44 3ffb b0df a83f
00000210: 6197 fff8 25c9 8dbf 86c6 52e3 adbf d2bf
00000220: 337c b44d 8155 e7bf 0a26 713a b9cf dc3f
00000230: 3897 e8a2 7bbb a7bf 2b91 c2c7 bf84 c2bf
00000240: 6519 8dbe 5515 ce3f 3a32 74db 1c5c dfbf
00000250: feb3 c91a b7c4 e13f 5dcb 853e 7af8 fb3f
00000260: a03b 6ef9 f672 ce3f 8b72 2317 2c92 e93f
00000270: 351b c1cb 7633 debf 7ec7 3458 9111 af3f
00000280: 1597 2e3e 4715 f4bf a0b9 38de d04c e23f
00000290: b5a9 8978 5c57 d2bf 9894 ae4f 7a52 e2bf
000002a0: 86c9 b35a d27d d53f 558e 16e1 e7db eb3f
000002b0: fd56 0af0 c83e bfbf dd0e b956 8f36 e43f
000002c0: 157b 28b0 2e02 ac3f f3a7 511a d04e e03f
000002d0: a658 5b98 9160 bf3f 37de 1d8a 4655 a0bf
000002e0: 0534 6171 560f c7bf 22eb 7241 477b f0bf
000002f0: a1f8 7b92 e823 c3bf 57f7 7694 6b57 f03f
00000300: cec6 9cdb f441 bfbf 7c8d 69a5 cd21 c33f
00000310: 7a63 879d 0962 b53f 0f96 5a7d 6586 d93f
00000320: bec8 8d73 6919 c43f d340 4fd6 ca2c cbbf
00000330: 6454 1200 9036 aa3f 857d 3eeb 1a5e c8bf
00000340: 8369 3d36 ce19 c9bf 94cc 52f4 37f4 f1bf
00000350: 314f a7ee 29cf f03f a1e0 4f91 a171 b33f
00000360: 9c65 9d24 e4dc dbbf 81a9 ab85 6795 d03f
00000370: 7fb9 8cc8 52f5 a4bf 3f87 c78d dc15 963f
00000380: 2a13 0354 9ffc b4bf e99a 8bf5 2d92 8dbf
00000390: 0d5f 3173 0a88 623f aecc 170d 610c a43f
000003a0: 514d 15ec a621 913f b5a4 58c9 7f39 acbf
000003b0: 6375 42d7 1d56 a33f 71d7 1de7 0972 9b3f
000003c0: 9548 04c3 38e0 783f 0c76 2e2f 46fb 77bf
000003d0: c05c f342 34d8 823f 2e36 5e16 53c0 9bbf
000003e0: 64e9 c18c 6d2a a73f 8499 3775 34a9 8cbf
000003f0: 58bd 3f38 81fb 723f d877 77f7 5d16 783f
00000400: 7636 1ba2 beef 9e3f a307 fd84 e09a 8dbf
00000410: 0c1e 13bb bb97 75bf 3577 7e0e d222 6bbf
00000420: 8101 8a50 b236 96bf d474 ef25 5497 5a3f
00000430: 8a4f 962c 693c bb3f ad7d e121 68d0 c8bf
00000440: 30c1 0ddd f2c2 b2bf f2ef 9a39 e3b4 cebf
00000450: 2a86 36c9 4e9f c4bf d48d 9134 69b9 a0bf
00000460: f603 c616 7681 e7bf 3c8d 1c9f 7f35 f13f
00000470: 512e 431a 60d6 d43f a6b0 b39a aecd bfbf
00000480: 8567 e66b 64af b03f 1343 5525 5747 ca3f
00000490: bbca 3024 f277 febf d7b1 9f86 052f f83f
000004a0: c3d4 4f42 8ddf c7bf 54ce e549 942a e9bf
000004b0: 9f2d 20ee e49b e73f 9877 c986 3cbc e83f
000004c0: 8261 07e9 fb03 e43f 45fb e47f 9255 f43f
000004d0: 6a02 cc78 33af d5bf b209 50f9 ff35 e43f
000004e0: bbc4 e5bc 9a29 dfbf 974e 1cf5 2615 b5bf
000004f0: 7de2 e24d b745 abbf a6ae 009c a402 d23f
00000500: 636e a1fa 671b d6bf cdb4 dc45 2b77 eb3f
00000510: 11d3 11ff 7715 dbbf b7ee 71e4 9b3d b93f
00000520: 13e2 c451 1571 a43f 52dd e1b3 6eed c03f
00000530: 4920 cb0b d34c 713f ca5e 0363 0569 75bf
00000540: b340 e399 88e6 c43f 78c6 82f2 825a 823f
00000550: abf9 09a4 9f2d bebf b147 a151 ae6a 06c0
00000560: 3da6 1705 e2d4 0140 d10c 9494 be79 d83f
00000570: 6db8 11c2 abf0 ba3f 7906 6df3 fbcd b4bf
00000580: 48f0 0e58 066e cabf 7dde eb96 6399 88bf
00000590: e0c8 e1d3 5547 ac3f 48c1 9011 600d b73f
000005a0: e3ad bccc 21c9 9d3f e9e5 3786 f9a9 ad3f
000005b0: 44cb 4883 dd49 61bf 6d57 401b f165 a43f
000005c0: 2c90 c615 f1a5 833f cc81 e0e7 b814 a23f
000005d0: 01aa b82a 695a 94bf bda0 4ae6 1a4a 633f
000005e0: 175d 0729 e67c 363f 4c08 54f6 bb43 b03f
000005f0: c1e0 0d26 328b 9abf e296 828a 7d35 b43f
00000600: 39a9 fa6d 1dfe 9cbf fccf ba3e 401e 673f
00000610: 64bc 0b23 8a3d 713f 7f24 96f4 3fce 81bf
00000620: 1892 7a4d a684 7b3f 3fe9 b952 7950 50bf
00000630: 53bb 5a9c 7fd2 79bf 06e9 7beb fe58 753f
00000640: a700 3193 69ff 6ebf 0c12 9500 97b5 c9bf
00000650: 5c5a 6f2f 2e27 8f3f 3f63 7d9d 128f de3f
00000660: 05f1 0f84 7b58 d7bf 8c15 ee1d 4471 debf
00000670: 8758 c842 f0b1 dc3f eb16 1b5d 59c6 e6bf
00000680: d6d1 31c8 fc55 e3bf bd73 4bf1 ff84 fc3f
00000690: 21e1 31fe 5a55 e53f b5ab 8703 cca1 d63f
000006a0: 97d5 1069 209b d23f 554b b24b 7666 e93f
000006b0: 8414 d6e4 094d de3f f553 2584 be1f d8bf
000006c0: d81f ca76 82f9 fcbf 687e 0ff0 94c1 e93f
000006d0: 2200 b14f e717 f6bf 0647 5577 2acd d23f
000006e0: 957a 9ec6 f8e6 98bf 00ea f0a9 a169 debf
000006f0: 4d45 adb2 69bc d8bf e4be 7132 e2cf c0bf
00000700: 2722 706d 6388 b13f 031f cc80 8fe1 b83f
00000710: 050a fa23 4932 d03f 4e7a e2d4 0bf5 d03f
00000720: 9819 8f21 2fd4 d3bf 8cef 5943 39ce b73f
00000730: 0eaf 6f17 6444 b93f 79fe 1e3b acf8 aabf
00000740: 13e0 ccdb 1dd7 d53f 5bf4 73ef 4d81 dd3f
00000750: e60c b486 353a 933f 86d0 1236 da46 ba3f
00000760: 39db 0c22 e9b6 bf3f fdd3 8617 018a 74bf
00000770: 2252 fc2c 9aef 0640 acaa 69cd b950 0340
00000780: c3dd 58b1 8154 d3bf 2476 5a02 478c b33f
00000790: a2d3 77b9 10ed a93f c7ac 0d74 bcc8 e6bf
000007a0: 1de6 5e18 6446 c93f e675 9421 aee8 cdbf
000007b0: c4a8 3980 3a52 933f eeec 30d2 bb44 ab3f
000007c0: 5663 ed9c fafa c0bf 50b4 9645 4c19 b53f
000007d0: 0882 9d3b bbcb 983f f490 60a1 849d 80bf
000007e0: 5c32 efcd 193e 993f e091 34a9 8dfd 773f
000007f0: ce39 d394 7f1b 6dbf f77b 65b2 71a6 713f

fc1.bias f8 [256]
-1.0832741355586675 -0.9577581691651821 0.23751364723464935 -0.6867995292899375 -0.5088801364252279 -0.8197213339438447 -0.559585184896451 -0.5407323062140468
-0.6065234200553264 -0.38999972693760376 -0.9526352186471203 -0.15845095748468482 -0.2758959437867628 -0.814410506967086 -0.15893649598501047 0.034712418788003935
-0.2575769461703319 -0.27174213815268294 -0.6397107582688306 0.03169925895561819 -0.5977478492437538 -0.8444140477994004 -0.35279681333763635 -0.4307731558586389
-0.4093639513938109 -0.7431914042753703 -0.717090906419015 -0.7021801912881316 -0.4730691280398975 -0.05743634219662452 -0.930151626529732 -0.857427403282516
0.13183153857740498 -0.3558075797596593 0.1301820733666092 -0.27062711927383043 0.4050485815006268 -0.47216503263561366 -0.5662691459988142 -1.124555286667568
-0.4716516952818017 0.10945624460775258 -0.5211955011044718 0.41217224788895085 -0.3228280675605538 -0.7137325074593057 -0.4739071275702169 0.6462700462090353
-0.6229678245625102 -0.3163712256183781 -0.3662436066191467 -0.6122459954651427 -0.015414382634865388 -0.7201080974766819 0.25908790296046486 -0.2670109405817493
-0.4755603024582835 -0.26401636187647326 -0.39899478226216845 -0.6980932465410138 0.015349329391705123 -0.8392927356058977 -0.42424498311238973 -0.5635973460207837
-0.03757447176441964 -0.5720371005563226 -0.7244034468518534 -0.37063251383034246 0.14820468122203243 -0.8779149004147261 -0.4354020501007846 -0.771945486414677
-0.021228717163418242 -0.8210982143888623 -0.02576653833162413 -0.2446740964800313 0.5350665070691292 0.1833968943356959 -1.1482378141561786 -0.48332385116911547
0.21134191115174986 -0.3885768667259043 -0.5326136811716203 -0.6304559135972769 -0.2001819706990922 0.5866374206444458 -0.47981973537560524 -0.45279419097684936
-0.7795882031637968 0.10854613018131347 -0.7680251611800981 -0.9154832970869061 -0.11563230928447217 -0.769615237632524 -0.46167459945672357 -0.8146377948599601
-0.5655643699885406 -0.8505256493817088 0.053522352510672416 -0.24126438384135815 -0.8083992303370375 -1.0380413322374695 -0.7301993693282258 -1.047240199760446
0.011238421026976874 0.19062360122818203 -0.522508538231216 -0.2256582766611568 -0.37082748424365775 -0.2803880669154412 -0.06181880802464145 0.2398120326364081
-0.4073184347875886 -0.47236618779292 0.23222630435524472 -0.786463869049907 -0.7347370512848124 0.24000883026953168 -0.3183609580264933 -0.9910600373007241
-1.03623587264853 -0.3061640922223468 -0.46741296978469943 -0.3498421171481637 0.08955535308134403 -0.8338669414867657 -0.6445343347410624 -0.23340229229336207
-0.5496428021487675 -0.13380837182607724 -0.7570151052750048 0.2095753301115628 -0.025057470910086633 -0.3881539259150239 -0.9140377095532883 -0.6957999808399915
0.47782862261015485 -0.21565433947593 -0.8806705531406622 -0.2539899184190167 -0.5290785586823452 -0.4570683049190296 -0.4362381700428945 -0.9190628893004616
-0.5537111204710283 -0.9468678053075407 -0.7588758560143769 -0.5575736851619711 0.262365437951387 0.32148310276275577 0.044645258486914356 -0.5784108661697576
0.12029330609750664 -0.58304655782009 -0.42058854061373696 -0.6719295631800811 -0.12745383120466 -0.09210761291371358 -0.9370399236871169 -0.6466667565568309
-0.8540642361561063 -0.10262484207559316 -1.3326651935741078 -0.23702077658193307 -0.5785293905791965 0.11103101668352242 -0.5952806759861237 -0.5509852551154144
-0.36555489047700546 0.48518497423527873 -0.9986517891138592 0.06661582901626331 -0.14270982806845528 -1.117480528793578 -0.5688450065877702 -0.20778465270394553
-0.38194159110991455 -0.7348266674174859 -0.35269636452901526 0.0032217084532887427 -0.7375547155644181 -0.3412305591421066 -0.10387028459993047 -0.1524589127828433
-0.696782196568122 -0.4050465551544601 0.3049239134220644 0.2148987528568852 -0.5707974245776658 -0.4102202842916496 -0.8426526666555131 -0.509745230575446
-1.1479788868020246 -0.2991106594848862 -0.19072464275227816 -0.1370823866642462 0.2337408690315521 0.05818387511659349 -0.6259969781566875 -0.9058941069720046
-0.4619687076265967 -0.5711412400637117 -1.03545562922642 -0.059754184106159285 0.03465708146485566 -0.22247838399305422 -0.9238969452425614 -0.34335067922354046
0.15005553397826293 0.02082087177111036 -0.2708828188119032 -0.2021450126383797 0.23647326161653887 -0.13488812356284052 -0.7618921466711224 0.1453212932392535
-0.1813930415247211 -0.5535995041267938 -0.2833470365471871 -0.5422480142586656 0.4407656394981682 -0.9145994674841986 -0.586491719350926 -0.6433848577676125
-0.44950022965365655 -1.0556642000135668 -0.22477163171278594 -0.10898525968824914 -1.0435143775745286 0.5847618273140148 -0.3793725306230722 -0.766864588029301
-0.24358532133823774 0.3908505370893536 -0.17649567828368976 -0.5509891735169012 -0.7040726893286144 -0.7974585537821117 -0.3939168097831381 -0.3342830530589752
-0.7621604869157171 -0.39851573838922827 0.6076032675843059 0.1325078400936754 -0.03952353681065852 -0.41491383676722754 -0.6598217927781941 0.20609422625090318
-1.0179893688410222 -0.44961677343014084 -0.5875146460416816 -0.9561557565053473 -1.2877668397232072 -0.37655741376591806 -0.8509390692300839 -0.7858715512361105
00000000: ff3b 8d42 1755 f1bf 4552 c175 f4a5 eebf
00000010: f2fd 9ce1 d866 ce3f d5ab a601 43fa e5bf
00000020: cff8 f0fe be48 e0bf f2e9 233c 283b eabf
00000030: 969a 8e30 1fe8 e1bf 448f 62d6 ad4d e1bf
00000040: 8ea9 accd a368 e3bf 0e57 296a c1f5 d8bf
00000050: 1c6e a3da fc7b eebf 6753 35f8 1e48 c4bf
00000060: e171 ea75 47a8 d1bf 4228 9e9f a60f eabf
00000070: 0cbf 32f6 0758 c4bf e447 eb7e d3c5 a13f
00000080: 0454 0004 247c d0bf 93e5 1323 3964 d1bf
00000090: 663f 35b2 8278 e4bf 5e2b 0ba1 e23a a03f
000000a0: 4a33 f818 c020 e3bf e09a f29b 7005 ebbf
000000b0: 36c3 da15 3994 d6bf 8b15 1a92 c991 dbbf
000000c0: c274 d9db 0433 dabf 33fe 0057 39c8 e7bf
000000d0: 6e84 eaa0 68f2 e6bf da68 af97 4278 e6bf
000000e0: 1f6e 6bbc c346 debf 4f38 acd6 4b68 adbf
000000f0: 6486 0858 cdc3 edbf 0e5d f997 0b70 ebbf
00000100: 82ba 6219 dbdf c03f 3f25 af27 8dc5 d6bf
00000110: 9e49 d161 cea9 c03f 5646 ac68 f451 d1bf
00000120: 4b87 b5e2 50ec d93f df05 5faf f337 debf
00000130: 698f d978 e01e e2bf 6d7f 2caf 2dfe f1bf
00000140: a3a6 9597 8a2f debf 06eb ee0e 5305 bc3f
00000150: fc1c 0230 a2ad e0bf 4b1e 40b5 0761 da3f
00000160: 3ed2 190e 37a9 d4bf 4627 348e e5d6 e6bf
00000170: 2c58 908f 7e54 debf 5945 1b85 3eae e43f
00000180: 9399 1e38 5aef e3bf ab49 db18 6d3f d4bf
00000190: be17 3306 8970 d7bf ee26 f4e9 8497 e3bf
000001a0: 012f 706a 9391 8fbf 7be8 0723 200b e7bf
000001b0: 6348 806d e594 d03f 8f42 5e0e b516 d1bf
000001c0: 7863 957a 946f debf 1c93 f7e1 a4e5 d0bf
000001d0: 48cd 4569 2189 d9bf c377 eea5 c756 e6bf
000001e0: 19f3 051e 786f 8f3f 9a53 6670 7cdb eabf
000001f0: 236d fd6d d426 dbbf 74b1 284d fd08 e2bf
00000200: 700a c90e f63c a3bf 439e dfbf 204e e2bf
00000210: 0cd4 2a23 502e e7bf e213 6f6f 71b8 d7bf
00000220: e33a 7bf9 5ef8 c23f 9d79 3efd e017 ecbf
00000230: 8ed4 728f a0dd dbbf 6744 4e05 c7b3 e8bf
00000240: 03c9 cf17 fbbc 95bf 4855 33c3 6f46 eabf
00000250: 82a0 dc1d 8b62 9abf ceb0 4715 7b51 cfbf
00000260: e67f a1cb 431f e13f 520d aea7 8c79 c73f
00000270: 0f4d 3d9d 2e5f f2bf d67a 8929 c7ee debf
00000280: 29e0 5572 400d cb3f 6679 a481 71de d8bf
00000290: d318 c1d8 2b0b e1bf 1c0b 4fe1 b12c e4bf
000002a0: 1962 b314 909f c9bf d6e2 08d7 bbc5 e23f
000002b0: 6778 dad5 5db5 debf 401e 847c 94fa dcbf
000002c0: fcf2 9df5 62f2 e8bf 0b71 3cdf adc9 bb3f
000002d0: bec1 b880 a993 e8bf 6fb8 a0a0 a34b edbf
000002e0: 2dde bc3a 149a bdbf 9651 8422 b0a0 e8bf
000002f0: addf 839e 138c ddbf 6e4a e047 8311 eabf
00000300: aa46 1c73 1a19 e2bf 821d 1091 8137 ebbf
00000310: 14d2 4623 4867 ab3f 87e4 2457 c0e1 cebf
00000320: bc17 0d10 68de e9bf 01b3 5d3a d19b f0bf
00000330: c262 5a11 cb5d e7bf 2471 90f0 7ec1 f0bf
00000340: e606 2856 2b04 873f f575 8faa 5a66 c83f
00000350: ceae 72d3 63b8 e0bf f06a 2ad3 5ee2 ccbf
00000360: ae34 5233 a3bb d7bf 6bca 65ca e0f1 d1bf
00000370: efb0 7cfd b6a6 afbf 062a ae22 29b2 ce3f
00000380: 571e 1e57 8111 dabf 61a2 1364 3f3b debf
00000390: 1c05 3d6f 97b9 cd3f 5fc2 a146 b62a e9bf
000003a0: 14b0 cd46 f782 e7bf 1c22 61fe 9bb8 ce3f
000003b0: 5502 c3a3 0660 d4bf 6688 128a c3b6 efbf
000003c0: b47a ff10 6c94 f0bf 0d7d d346 3198 d3bf
000003d0: b5e5 bc16 18ea ddbf 7e8b fa30 d063 d6bf
000003e0: e385 aa80 19ed b63f aad6 5cb9 09af eabf
000003f0: 5695 1b78 06a0 e4bf e80f 1b56 20e0 cdbf
00000400: 81be 7680 ac96 e1bf f245 76fa a120 c1bf
00000410: 197e f7bd 7739 e8bf 1754 704a 5dd3 ca3f
00000420: 4d32 5168 aaa8 99bf 439e 6790 83d7 d8bf
00000430: a6f2 ba02 cc3f edbf 707c 4852 fe43 e6bf
00000440: 8b03 cd80 be94 de3f a611 a5b7 8f9a cbbf
00000450: 8e42 0903 742e ecbf 89e5 47ee 5e41 d0bf
00000460: 92c6 5128 36ee e0bf b895 6a6b 9b40 ddbf
00000470: bb78 6680 53eb dbbf 7568 9093 f668 edbf
00000480: be58 3b62 00b8 e1bf 3fcc 2db6 bd4c eebf
00000490: bcc8 e904 b648 e8bf 0f30 dcc4 a4d7 e1bf
000004a0: ee85 e667 98ca d03f 074a 25dd 2d93 d43f
000004b0: dfda 3e4a bedb a63f 5c34 3b81 5782 e2bf
000004c0: 7fd3 9dc7 8acb be3f bf3e 3c41 51a8 e2bf
000004d0: 1a89 c032 ecea dabf 535e 626d 7280 e5bf
000004e0: c70f 633a 6850 c0bf a651 2d51 5d94 b7bf
000004f0: 430a 6926 3bfc edbf ae4d 5a7b 7eb1 e4bf
00000500: 8728 5f85 7e54 ebbf 56ca 7824 9f45 babf
00000510: 5eb1 eebc 9852 f5bf 9b2a f261 b256 cebf
00000520: abff 8911 5083 e2bf ee52 7f59 876c bc3f
00000530: 37a3 690f 8a0c e3bf c490 69d4 aba1 e1bf
00000540: 6176 df56 4065 d7bf d478 3647 450d df3f
00000550: cfbf ca98 f4f4 efbf c251 0527 bc0d b13f
00000560: 1697 2fce 5044 c2bf ff5c 5143 33e1 f1bf
00000570: 3232 7971 fa33 e2bf 68b1 fcff af98 cabf
00000580: 8627 b324 bb71 d8bf 3a2d 1937 b383 e7bf
00000590: 677e c4c5 9392 d6bf 1e3f 368e 6964 6a3f
000005a0: 2383 cb58 0c9a e7bf 2550 fab2 b8d6 d5bf
000005b0: a406 6233 3e97 babf 6069 310e c683 c3bf
000005c0: 7c3e 562d 0a4c e6bf 46bc ef62 48ec d9bf
000005d0: 6aa1 fa96 df83 d33f 645a bc65 cd81 cb3f
000005e0: 9d77 e6f5 f843 e2bf b00f 4c94 0c41 dabf
000005f0: 1786 a5b9 02f7 eabf f4a1 d33a d54f e0bf
00000600: cb02 f51b 1f5e f2bf 53d8 1709 a124 d3bf
00000610: d7c6 9443 aa69 c8bf eb4f ca67 ea8b c1bf
00000620: 5054 1d86 38eb cd3f bd85 8fe1 46ca ad3f
00000630: 557d 92d0 2a08 e4bf 30af 62a3 15fd ecbf
00000640: 0a06 c232 e590 ddbf 8e0e 6ffe c946 e2bf
00000650: 04c9 ffeb 3991 f0bf dffa 11b5 1998 aebf
00000660: 1cc7 eeae 92be a13f a996 a8f3 2b7a ccbf
00000670: 861d 9653 9090 edbf 7ec4 9420 75f9 d5bf
00000680: 4e9e 820d 0535 c33f 6013 530d 1152 953f
00000690: 531b f6e3 2456 d1bf 9869 2a45 e3df c9bf
000006a0: 12c0 827e c144 ce3f 501d a997 0344 c1bf
000006b0: bc03 a1a3 6b61 e8bf a500 f05c e399 c23f
000006c0: f70a 891e e337 c7bf 00ce a94e 16b7 e1bf
000006d0: 39e0 d89b 5b22 d2bf 2cfb f181 185a e1bf
000006e0: 1317 b615 8135 dc3f a613 391a 6644 edbf
000006f0: d095 3f48 8ac4 e2bf ee4f 5bd7 9b96 e4bf
00000700: 600b 7a9c 9cc4 dcbf 40dc e924 00e4 f0bf
00000710: 4932 a31b 51c5 ccbf b96a 1b3e 75e6 bbbf
00000720: 126a c921 3cb2 f0bf 9f69 886f 5eb6 e23f
00000730: f8b7 01b9 a347 d8bf ca7b c19a 278a e8bf
00000740: 1079 77c6 cd2d cfbf 4c0f 9bf8 b103 d93f
00000750: 8190 0e0f 6997 c6bf ac90 160c b4a1 e1bf
00000760: 968a d572 c387 e6bf aa1b 0dcd c784 e9bf
00000770: 2d3f d7d9 ee35 d9bf 82b3 1fbf e464 d5bf
00000780: f767 b363 9e63 e8bf 7aac d427 4881 d9bf
00000790: 60f4 6668 7c71 e33f 4e3d d553 04f6 c03f
000007a0: b94d 0cd4 6d3c a4bf 13ae e4c3 f28d dabf
000007b0: 2f74 a597 421d e5bf d22e d2ac 4b61 ca3f
000007c0: e290 6d38 af49 f0bf 4c64 676e 85c6 dcbf
000007d0: f470 d583 ebcc e2bf ca52 02f5 d398 eebf
000007e0: 4dc0 d766 b19a f4bf a938 4c44 8419 d8bf
000007f0: a56b 2792 e43a ebbf ea4e 6d18 dc25 e9bf

fc2.weight f8 [256, 256]
-0.20902094855710474 -0.3293192023072459 -0.0686186719350647 -0.4310097435138765 -0.37090706868439266 0.1175949884163557 0.015302791030237635 0.008329010009271366
-0.12415949533498115 -0.13364494848038133 0.045949922214680514 -0.005937300631433853 0.10322665712837013 -0.0598275525142254 0.06580276663783746 -0.33194147660342826
-0.4129207886654378 -0.6382652313691201 0.11921555020789014 -0.37398743347808333 -0.12800841109239613 -0.24808366260129014 0.24028219482741525 -0.11780581956501414
-0.25714820482436457 -0.006577295979716932 0.422401548630092 0.022211269242105414 -0.14248577022667455 -0.16680785911875143 0.13526608686853425 -0.21982749917966207
-8.596771609632911e-05 -0.2693672009029621 0.10832515196908883 0.026926671662414525 -0.3152082961822405 -0.4292243847365927 0.11967253832108111 0.046611664691063974
-0.1508375759798018 0.032601137575483725 0.10503172918764508 -0.7209941035749807 -0.13735492549851736 -0.5053090140370571 -0.11347706533654078 0.026298783107797406
0.18328207772159108 0.2233380605998597 -0.31731511461908074 0.06487129449218382 -0.39344622783677075 0.13822119816388248 -0.4657261296850839 0.365816944506594
-0.24892750183150275 0.157829965937148 0.044637921059254494 -0.6328675400202729 -0.08738597176193365 0.14755741017289895 -0.13002512663708818 -0.2666449534090877
-0.5317781195244461 0.1702211865084351 0.25432474825585527 -0.15938682420830622 0.30142335544813054 0.055747155157465415 -0.09076345221843284 -0.6808053269557962
-0.4107677106747016 0.14181060701758996 0.0004143465051272359 -0.7039863605856211 -0.06495987362053782 -0.2734690992048719 -0.2474202840992567 -0.07692238330720633
-0.19184058442690013 -0.5850043539764579 0.04833247370423532 0.0665175135869405 -0.04954732655813057 -0.4730699002229517 -0.10609602427070214 -0.23504666375645905
0.04896950278303214 -0.6153636705796207 0.13061614752123346 0.17613635643225226 0.026242752995385085 -0.0053606186421893895 0.02356172580685623 0.3185176135296573
0.06352036480027924 -0.030625412284627132 -0.34486127761631546 -0.040632305371218834 0.14879814764830226 0.0719234717622428 0.35936640599302216 0.13333354345048876
0.2275693419421803 -0.25488410074379564 0.24545308971113972 0.3572249896353732 0.6757806126440478 -0.08018000082049971 -0.7242222088005924 -0.017298347354431715
0.35629472363042675 -0.1399741342146328 -1.3561657440650488 -0.1418967803964291 -0.37094429434486875 0.0030297875813197926 0.011844674091623507 -0.19139840878228556
0.11463103262064517 -0.16197128344639858 0.12137782358659752 -0.17390834859814935 -0.2356311133319029 -0.46936696634272257 0.2171351332793545 0.15157790177479927
-0.03667555313617517 0.03983499878908505 0.3253260658841224 0.17200376810817222 -0.39861749594212004 -0.27126522849205226 -0.10959353393320342 0.3397851875842216
-0.4387302202804133 0.09009886495392366 -0.2129102196364726 -0.09255371860041382 -0.03336919327207707 -0.3352754620270083 -0.1729274844376007 -1.109256358214441
-0.05577079700889945 0.35369501547840226 0.07920696513640182 0.24794405736291628 -0.5938109977929663 0.2728898514316528 -0.019746569332475046 -0.6346121103473297
0.14198508964377732 -0.39353342905058114 -0.8186514914422597 0.009241855802451288 -0.35377460476726097 0.051670525243641546 0.09006854409520448 -0.6962902077990939
-0.23100900581400577 -0.060785128963895735 0.06600259231615657 0.1776861403594411 0.14499294815540253 -1.7066916241765377 0.11540733708771259 -0.08014806504466855
0.4383336874884116 -0.225423004830377 -0.02010317855669122 -0.7285290590710625 -0.16787996180333176 0.29048052082766224 0.1659550975992179 -0.04571924456700961
0.03844440246683051 0.10828720742142729 0.15921607473535287 -0.8170575726158573 0.14676370678392223 0.23108828862054193 -0.44152180401526253 -0.3140307791636474
0.18355419703777903 -0.19307005943927244 0.20101919633673965 -0.4612875092262786 -0.1903418937462605 0.17301507526864174 0.39845767727516324 -0.08396007821464814
0.11847058462680206 0.2361239254816658 -0.012679208761039902 -0.16485315615335 -0.21703262848327257 -0.30574142840247287 0.011726545048094617 0.24684163803858794
-0.05005448083924942 -0.1439890755363608 -0.289348465650762 -0.9931110989195823 -0.28065335453433643 0.36360130711173705 0.12179969813356396 -0.24648455599209462
-0.11124507438902048 0.05181478714860208 -0.012053190897892904 -0.20233548311374444 0.24058621003036906 -0.5167741205237311 0.09715160700942398 -0.021976826062573843
0.03382386624128128 -0.3609441678542835 -0.14190794956333289 0.3452209314105241 -0.6434291992777644 0.0915084967635516 8.688725050355414e-05 -0.007405273347767853
-0.1204050782906129 -0.04295490125504517 -0.040751459229254175 0.013374777885426197 0.09879725379191605 -0.47070983158407886 -0.04243391556196759 -0.0030703002855818067
0.11382177703743311 -0.8748745278867822 0.11251321669095476 -0.155466194431175 0.14965485973881387 -0.373429330813213 -0.1616075687722472 0.170199094634256
0.1157527746109218 -0.25031671706938174 -0.5114147727909728 -0.08473769905308266 -1.1813207333388582 -0.15413038700975654 0.08334375146740812 -0.21123326134763273
0.31542660371547143 -0.003327170763089325 0.1585550095266692 -0.3194926032366695 -0.0733697754658125 -0.011672655814181946 -0.4416579050786609 -0.05734799750209045
00000000: 24a7 1dcd 32c1 cabf f6ae f6d8 9013 d5bf
00000010: 7b26 db47 fe90 b1bf 8d90 29e4 a995 dbbf
00000020: 47b3 7600 f1bc d7bf 95f7 6b85 b41a be3f
00000030: 6461 19d8 1157 8f3f d473 c8cc cc0e 813f
00000040: 9f9c f3ab eac8 bfbf 14da 7f15 471b c1bf
00000050: 4ee3 548a bf86 a73f 1cd0 9d00 b651 78bf
00000060: db16 71ec 0f6d ba3f 498a e58a b7a1 aebf
00000070: 0822 b23a 73d8 b03f afa6 8c76 873e d5bf
00000080: 7405 ca50 4b6d dabf 91ef dc34 ab6c e4bf
00000090: eb49 5109 e984 be3f 61d0 f9fc 68ef d7bf
000000a0: 249c a061 9462 c0bf 31b0 c598 34c1 cfbf
000000b0: 0224 4c24 91c1 ce3f 196a 4fae 8528 bebf
000000c0: 4187 7cbe 1d75 d0bf a35e 1072 cbf0 7abf
000000d0: 0b58 4981 a008 db3f ed6e fd0b 8dbe 963f
000000e0: 8d6c a245 f93c c2bf 79be d0bd f559 c5bf
000000f0: 20db ad2d 6650 c13f 917a deb7 4e23 ccbf
00000100: 8154 d81d 3289 16bf f791 9fed 4f3d d1bf
00000110: 8d9d 0a79 32bb bb3f 7086 b858 aa92 9b3f
00000120: 6df5 e16a 5f2c d4bf 85b8 c58d 6978 dbbf
00000130: 657f 5106 dca2 be3f 47a4 ebee 7bdd a73f
00000140: 42ab eb4b a54e c3bf 59f0 65a7 18b1 a03f
00000150: 543c e701 5ce3 ba3f 00d4 ee39 6212 e7bf
00000160: 88f6 7aa0 d894 c1bf a638 35cf 7d2b e0bf
00000170: 686c 773c d50c bdbf 7987 7d75 11ee 9a3f
00000180: bfea e080 c975 c73f 4b3e 1d71 5796 cc3f
00000190: 3930 f40d e44e d4bf 8c09 4bb8 679b b03f
000001a0: a0c8 5216 392e d9bf e528 dd72 3bb1 c13f
000001b0: 3df7 f8f7 74ce ddbf 399f 3e79 8b69 d73f
000001c0: 027c b83b dbdc cfbf 2eb1 03b7 c533 c43f
000001d0: 85cb 3816 c8da a63f 0fc9 626d 7340 e4bf
000001e0: 51c0 d852 ed5e b6bf b9ce 7c45 29e3 c23f
000001f0: 3f43 48d1 a9a4 c0bf 3b45 a2fe b510 d1bf
00000200: 7dbf 028c 5304 e1bf 00ed 91ce cec9 c53f
00000210: 14a1 144f db46 d03f 35a9 b196 c966 c4bf
00000220: 959e 792f 854a d33f cf21 7e20 e48a ac3f
00000230: 1f42 f30a 463c b7bf a9f7 c640 28c9 e5bf
00000240: c770 e6a6 044a dabf 10e8 ae97 d926 c23f
00000250: 97d4 50b0 9427 3b3f 2673 7167 0e87 e6bf
00000260: 0aa4 c0d4 35a1 b0bf d94b 6389 8480 d1bf
00000270: 1663 49c6 77ab cfbf 0e84 a270 2fb1 b3bf
00000280: 2d5c 1476 3b8e c8bf 7b16 0b0d 5bb8 e2bf
00000290: 0ff8 c9b3 08bf a83f d296 77b1 4a07 b13f
000002a0: 24c2 5766 445e a9bf ec7d 8bf9 c646 debf
000002b0: 1471 7aea 1b29 bbbf 5a17 ef52 0216 cebf
000002c0: c0b4 e8d9 8712 a93f d126 0927 0fb1 e3bf
000002d0: 6673 f7a8 07b8 c03f 01ae 41d9 a28b c63f
000002e0: 0f1e 7d57 61df 9a3f 788f 121c 04f5 75bf
000002f0: e16e 1ca7 9020 983f 81d4 53b3 9762 d43f
00000300: f97a 72e1 de42 b03f a486 c1a0 445c 9fbf
00000310: de34 4109 3512 d6bf 2b00 76ed c1cd a4bf
00000320: 516b ed54 d10b c33f d19a 089f 9369 b23f
00000330: 8459 41f4 dbff d63f c831 4ad4 1211 c13f
00000340: 4161 9b00 fe20 cd3f 18c2 3d67 0550 d0bf
00000350: ce78 81c0 016b cf3f 4010 f333 c6dc d63f
00000360: 0677 d2a9 fe9f e53f 893a 5131 ad86 b4bf
00000370: d3bb ba0d d42c e7bf 0506 a670 a8b6 91bf
00000380: ffb8 6e62 88cd d63f 016f 5e24 acea c1bf
00000390: 3170 ebd9 dab2 f5bf faec 9a77 ac29 c2bf
000003a0: 2a56 3623 8dbd d7bf 2647 6bd2 ecd1 683f
000003b0: 4ca8 d73e 0542 883f 39f9 1c39 be7f c8bf
000003c0: 8c5e 3698 7558 bd3f 0d8f a59a 79bb c4bf
000003d0: a69b c3f6 9d12 bf3f 5e7e ddf6 a042 c6bf
000003e0: a81d d70a 2929 cebf 46f1 90be 1b0a debf
000003f0: bfab 1f84 15cb cb3f dda3 7599 e766 c33f
00000400: aaae 905a 23c7 a2bf 7315 12c2 4065 a43f
00000410: ac8d 606b 24d2 d43f 6d1c 682f 3804 c63f
00000420: 10d4 2bf5 f282 d9bf cc94 3ad5 685c d1bf
00000430: ec9e 1864 520e bcbf aab9 155f 0abf d53f
00000440: 94c2 f7ea 2714 dcbf 3442 621e b810 b73f
00000450: 6452 295f a440 cbbf 1710 83ba 99b1 b7bf
00000460: 8b4e 9853 c415 a1bf a6aa 2336 2775 d5bf
00000470: fe98 1ee1 7c22 c6bf ce93 5698 83bf f1bf
00000480: 643d 736a fd8d acbf 993a 0f6b f0a2 d63f
00000490: 7252 e05c e846 b43f 353e ce80 a1bc cf3f
000004a0: 53d4 f0eb 7f00 e3bf b6ca d3fe 0677 d13f
000004b0: 12f7 f6d5 7138 94bf 5ccb 720e be4e e4bf
000004c0: 5013 4542 912c c23f 3beb e9d5 a62f d9bf
000004d0: bb1d d29c 6432 eabf bd31 68e3 64ed 823f
000004e0: 945d 683d 3ea4 d6bf bc5a 2d20 8f74 aa3f
000004f0: 6088 496b bb0e b73f 79b5 e066 0248 e6bf
00000500: 89bc 86fe b391 cdbf 8c55 f779 3a1f afbf
00000510: 18f9 72bf 8be5 b03f 05ec e560 6bbe c63f
00000520: a431 3d01 218f c23f 2a20 63e0 9b4e fbbf
00000530: ba9a 82d2 558b bd3f 395c 3466 9584 b4bf
00000540: 28dc 1fbd a80d dc3f 3b9a c138 a9da ccbf
00000550: 485b c979 ed95 94bf eeaa 5c2c 1c50 e7bf
00000560: 50ad cc30 177d c5bf 5d1c 459c 3b97 d23f
00000570: 4085 6542 043e c53f a21f 6d48 8368 a7bf
00000580: 685c 9e16 fcae a33f 3940 73de b5b8 bb3f
00000590: c22f fe3c 3161 c43f 32b2 2aec 5525 eabf
000005a0: 0737 7034 27c9 c23f 3292 0e11 4d94 cd3f
000005b0: b6da 2dab e441 dcbf 347f 9c8d 1419 d4bf
000005c0: 0210 a934 b47e c73f 1771 900b 85b6 c8bf
000005d0: 4a37 113d ffba c93f d287 8b0b bc85 ddbf
000005e0: 6b75 5988 1f5d c8bf aa34 ffa4 5b25 c63f
000005f0: 2a2a 2fa1 5480 d93f f1fc 195e 687e b5bf
00000600: e996 8296 1654 be3f 479a df0c 4f39 ce3f
00000610: 041a be97 8ef7 89bf 2a17 2981 e819 c5bf
00000620: cd12 c0a4 b9c7 cbbf 3057 017f 4491 d3bf
00000630: 2027 d03b 1604 883f dc59 55bd 8198 cf3f
00000640: 6a17 72ac bda0 a9bf 0679 34e9 3b6e c2bf
00000650: 128a 476d af84 d2bf 6def 64ed 90c7 efbf
00000660: f535 cf7c 39f6 d1bf 11fa b46a 3e45 d73f
00000670: d975 25d8 432e bf3f 9c41 7a51 ce8c cfbf
00000680: bc88 57a4 8e7a bcbf bd40 81c0 7787 aa3f
00000690: f84b c0e5 57af 88bf 469e 650d 21e6 c9bf
000006a0: 9079 f967 87cb ce3f de31 62e1 6989 e0bf
000006b0: 6bfc db7e edde b83f 71a4 d5d4 1781 96bf
000006c0: fc41 a99e 5c51 a13f e46d 2791 b519 d7bf
000006d0: 095e 3529 0a2a c2bf 1062 9388 1918 d63f
000006e0: 1910 06d5 f896 e4bf d4d3 e7d0 196d b73f
000006f0: 6ac3 ef98 e7c6 163f f8af 8bed fd54 7ebf
00000700: face 8701 ded2 bebf bcc8 2f50 2ffe a5bf
00000710: 22cf 4e11 60dd a4bf 4994 df4c 3c64 8b3f
00000720: 578c f8dd c64a b93f 5acb 2321 1c20 debf
00000730: 8be5 28ef e5b9 a5bf 815b 18ea e226 69bf
00000740: f7c8 f289 6c23 bd3f c611 acdd f8fe ebbf
00000750: 7c2f 0e8a aacd bc3f a694 5bf6 50e6 c3bf
00000760: 9001 22f4 e327 c33f 3f6f cd22 44e6 d7bf
00000770: 02d9 548b 8eaf c4bf f9a7 a17c 15c9 c53f
00000780: 070b 604d f9a1 bd3f 0620 5d68 3005 d0bf
00000790: 1083 7a83 825d e0bf 05d9 2bae 5eb1 b5bf
000007a0: 236f bc91 b0e6 f2bf cf6b c365 8bba c3bf
000007b0: 67e3 e01e 0456 b53f 6b62 a806 b109 cbbf
000007c0: 69c3 cf10 f32f d43f 309e b333 9541 6bbf
000007d0: 875a 44d2 874b c43f 1ac9 8d1a 9172 d4bf
000007e0: a2f9 2392 5cc8 b2bf efc2 d557 d5e7 87bf
000007f0: 4c4b 9584 1f44 dcbf 566f 867b b75c adbf

fc2.bias f8 [256]
0.2574141177843509 0.1202452269070623 0.29371870961761604 0.7052953038654062 0.26720098560633976 -0.06567983833086431 -0.036902674957824365 0.15870798277628337
-0.018262534225325616 -0.041549507671552105 0.3515384868099356 0.0622192881001128 0.2976918591732359 0.17459686438602898 0.11601563238422939 0.07380206326721149
0.10349539000092964 0.37124886165609844 -0.1785843174453924 0.32071881522328166 0.14315142484560997 0.18064068977888856 -0.14305139913210768 0.09794034747850006
-0.23402517289819258 0.09753050545355588 0.4645196859121841 -0.39305430022929755 0.408053143403544 -0.07642897627120886 0.17941891211564823 -0.051658443224565954
0.23635305057646686 0.6074687113908959 0.19337434558984382 -0.11668642913333607 -0.13338696540993125 0.32635588473938076 0.2035611454281804 -0.04160874366825615
0.005759831212263069 0.35354732489966184 0.8396510143101935 0.46203993962783657 0.022490148322900406 -0.18130161623316268 0.34171142982378966 -0.3824934977955148
0.5408963704498528 0.3339821270719793 0.0972723224547539 0.30585068989043374 0.20534702408171873 0.6456461057382301 0.2344155404420371 0.4148503630736961
-0.3824519946025534 0.07135809281896893 0.08885633432602044 0.3174128178289441 0.039294099337549196 0.039227634902806625 0.21525101355095477 -0.026345076205463572
0.21404292843405479 -0.08473016952852278 0.05675729497737296 0.2592204462046463 0.1942390593234817 -0.2847060158557735 0.12077424820432091 0.1329892979814778
0.2962481365419691 -0.051815209487854216 0.33328104897818933 0.15893165149702454 0.6299581371160423 -0.06254681640605925 0.2964822471064907 0.07298205401172828
-0.15189919730700743 0.3253310064766303 0.39364895449184434 0.4539145077152895 0.08701610689587354 -0.006530128181737814 0.26064047234465076 -0.036168225816746336
0.39118896318677926 -0.044632476794962524 0.16105259126955665 -0.054248586851391015 0.08593931869795939 0.43065183020056647 0.2208752040192005 -0.09348842154631352
0.14370054198273743 0.44786852900667373 -0.20877793236608774 0.07748342790168827 0.5361100128247405 -0.05939607359369414 0.07247797463663978 0.16079969969269486
-0.5034406759920103 -0.3284102666258806 0.013315498247425806 0.1589452396063558 0.24589599497632617 0.004164992795984537 -0.40820096713404863 0.5061037303145562
0.2547655125035349 0.3176838432881217 0.4649015890058687 -0.23598953791602847 0.8425836619857979 0.2308700763243178 0.02707238115196731 0.12427356180440166
0.30909433887206633 0.046599133745125434 0.47736681450265944 0.20368236273545617 0.2893253877145682 0.021547642994331456 0.1420723234798807 -0.38935313981041914
-0.07255445126643761 -0.14768367424575174 -0.08037728895537251 0.13991790608744087 0.23362672223773898 0.0912288899681024 -0.05536293416803245 0.08347149938190677
-0.11607521743777897 0.038001498771242835 -0.2578122028630224 0.5050026708722667 -0.0395065593435932 -0.014844450777599919 -0.17406905806549453 0.0012271291592206512
0.6751021496565272 0.28253234878079697 0.34616143359006657 0.42804556375880615 0.3033670487070802 0.3758274735121244 0.16458326267979834 -0.10545564865844276
-0.3293073656430287 0.42684223390536896 -0.2328984180764293 0.10873901610099225 0.11939376023865819 -0.17083546886526385 0.0986067400723034 -0.0772179103133364
0.4908471857472167 0.35176112140262566 0.4275715487905992 -0.0005383981667283383 0.6566827425765301 0.003939299170454798 -0.12430811435020284 0.11101489261614399
0.14672867643790646 0.013651365304544154 -0.07576697922351931 0.05014512284516802 0.29854913626635043 -0.14434700250838187 -0.04970905181276022 0.5213954644001633
-0.25856766704909967 0.3175638946164282 -0.03649315151318393 0.3362279525953429 0.42480089952914957 0.016461795530226832 -0.05846421485326603 0.5667901202536957
0.24738559089714526 0.39354756241861316 -0.01995668940207455 0.32469343101756226 0.3261708213607439 0.542190657547037 0.4300765726835304 -0.013130394279922974
0.1865346300354413 0.3959897375381948 0.16302989914964877 0.5458889003849737 0.1901189042891334 0.504206035984927 0.19446570482743664 0.3665594514474008
0.2593909962195577 0.4283144044275928 -0.03861943106365934 -0.07883512557030717 0.4326135220255121 0.18869025234705675 0.13220822594915552 0.20931197378946886
0.2140188588346082 0.5424376055962906 -0.10761388675686043 0.11321084091919865 0.29907260372546723 -0.049936030206559325 0.41040228983527405 0.2626042207659091
0.515987426950803 0.11877243716358624 0.5384917584054898 0.4277417931394964 0.7370312948319763 0.15757640290097064 -0.07398144528038617 0.38573080998205816
0.2923345487342935 0.06070998323602578 0.0015655559765911085 0.5521412566070283 0.025331510464115185 0.3472572770369817 -0.01173608665740957 0.1900355440716456
0.007969264129421678 0.39434499418679264 0.3957588966313622 0.41710347153422955 -0.19848874932022081 0.3836499379086743 -0.1546566544659789 0.029205976763372787
0.593030027363345 0.44330354791088716 0.0016508939920568853 0.08105290790517727 0.2631355475112475 0.21794611583232978 -0.16124410678337806 0.4116990619142197
0.20355936205372877 0.012922510879375421 -0.11753965392828994 -0.24106228921501285 0.1754870192135145 -0.24010734388319294 0.23490258365821282 0.26158803742812387
00000000: 0f66 5a10 7979 d03f e8e0 1025 64c8 be3f
00000010: 9afb 018f 49cc d23f 48fa 0375 c791 e63f
00000020: 34d8 a829 d219 d13f af3b a3d5 64d0 b0bf
00000030: 0b55 284c e8e4 a2bf c7b2 d10d 8b50 c43f
00000040: 589c f5ec 69b3 92bf b47a 3a21 fa45 a5bf
00000050: 7893 0848 9b7f d63f b109 24df 34db af3f
00000060: 9dce db27 620d d33f 89d5 42a7 3059 c63f
00000070: ff3e ea52 33b3 bd3f b728 1c28 b1e4 b23f
00000080: ee3b 5783 ac7e ba3f f75e df95 8ac2 d73f
00000090: 1dd3 80d5 d9db c6bf 9922 a635 a886 d43f
000000a0: a539 0b30 c952 c23f bfae 76ef 3b1f c73f
000000b0: 62b0 751c 824f c2bf 5c08 615d 9e12 b93f
000000c0: 00ed 0470 89f4 cdbf 260e 495b c2f7 b83f
000000d0: 51d3 d5c6 b0ba dd3f 2e5e 4239 cd27 d9bf
000000e0: a1af 7cee 8a1d da3f cb35 8d71 d990 b3bf
000000f0: a909 e9eb 32f7 c63f e56e 6cb8 f972 aabf
00000100: c193 4417 d140 ce3f 948c 1839 6270 e33f
00000110: d1cd 1895 7dc0 c83f 62c3 036d 29df bdbf
00000120: bdfc 12f7 d212 c1bf af04 f4ca 03e3 d43f
00000130: c5d7 2ca7 4a0e ca3f 1ccc 90c2 bd4d a5bf
00000140: e990 feea 9e97 773f c311 82f5 84a0 d63f
00000150: 0d7f d0cd 6bde ea3f 8d6e 89f7 0f92 dd3f
00000160: 5dbe 1d4e a807 973f e178 3730 e434 c7bf
00000170: 0ace f09d 99de d53f 78b8 fd01 c67a d8bf
00000180: 566e b3e7 054f e13f 2e40 4e92 f65f d53f
00000190: 46c7 bfc3 d6e6 b83f fa75 a2c5 0e93 d33f
000001a0: 2686 61b0 cf48 ca3f 42ef 9d05 22a9 e43f
000001b0: 1eb5 ef13 5401 ce3f f3a7 8889 e88c da3f
000001c0: 6ae8 46ee 177a d8bf 1c60 f622 8644 b23f
000001d0: de02 f9e9 49bf b63f 6f04 fad9 7d50 d43f
000001e0: ba3d 292f 5b1e a43f 3993 0302 a515 a43f
000001f0: 0cec d05f 588d cb3f 4435 da22 34fa 9abf
00000200: 173c c838 c265 cb3f e20a 1c5b e0b0 b5bf
00000210: c677 79cb 4a0f ad3f abd2 b95a 1197 d03f
00000220: 5f38 b353 d3dc c83f e0cc c494 9f38 d2bf
00000230: 378e 3ca6 0feb be3f 7a33 c616 cb05 c13f
00000240: 7fb7 7cbe baf5 d23f 0e17 5fec 8587 aabf
00000250: b639 6f09 7a54 d53f 8a4f bd52 df57 c43f
00000260: 4866 98f7 9d28 e43f 34d5 ee72 1103 b0bf
00000270: 9baf caac 90f9 d23f 0edf 2caf f3ae b23f
00000280: a172 5cd2 6e71 c3bf f347 4c24 39d2 d43f
00000290: 7e69 6962 8b31 d93f 804b 746f ef0c dd3f
000002a0: f5cf 5705 b046 b63f fe03 abef 55bf 7abf
000002b0: 3dfe 2e60 55ae d03f d814 1346 a484 a2bf
000002c0: 1760 dc6e 3d09 d93f f101 5968 11da a6bf
000002d0: a12a 380e 5f9d c43f 920a c384 78c6 abbf
000002e0: c38d 3f83 1e00 b63f 7522 abb1 cc8f db3f
000002f0: ed40 e180 a345 cc3f 9798 1871 dbee b7bf
00000300: d5dd 1d84 c764 c23f 5071 3fc3 e0a9 dc3f
00000310: bbc5 d13b 3cb9 cabf 80d9 d134 f4d5 b33f
00000320: 2a7e 842f d027 e13f f002 3183 2969 aebf
00000330: b3a3 bea2 ea8d b23f e280 b1a5 1595 c43f
00000340: 0094 db9e 2f1c e0bf 040b b57e ac04 d5bf
00000350: ad67 05ec 2745 8b3f 516a fb4e 5158 c43f
00000360: 7f02 521c 8579 cf3f c39c 8cbd 4f0f 713f
00000370: e652 02f3 f61f dabf 3bb5 4273 0032 e03f
00000380: b57c 1602 144e d03f f0f6 589d ee54 d43f
00000390: 77df 2898 f2c0 dd3f 4b14 c6b9 e734 cebf
000003a0: f7ee 0b03 72f6 ea3f 5d0f b891 268d cd3f
000003b0: 01b0 b0be dcb8 9b3f 3a14 b563 64d0 bf3f
000003c0: 9f64 359f 33c8 d33f da1b ea76 d7db a73f
000003d0: 0704 1f8a 2d8d de3f f542 5c7f 4312 ca3f
000003e0: e7bd 88a1 4e84 d23f e8bb ddd7 9510 963f
000003f0: 1aa4 8107 6d2f c23f a129 856e 29eb d8bf
00000400: f45a 5eb3 ed92 b2bf 8af1 8473 4ce7 c2bf
00000410: 258b 6723 9b93 b4bf 169b 6277 d4e8 c13f
00000420: 3dcb bdfd 7ae7 cd3f 9f06 ddca c65a b73f
00000430: 0819 53cf 8758 acbf bf4d fe5f 635e b53f
00000440: 2b77 c5fe 1ab7 bdbf 33cb d7b4 ee74 a33f
00000450: 0a9c f3c0 fe7f d0bf cb3f 795c fb28 e03f
00000460: 1768 b728 343a a4bf 555b ef74 c466 8ebf
00000470: 7383 d117 e547 c6bf 6126 d6e6 f31a 543f
00000480: 997d c7d2 6f9a e53f 71d6 848f 0215 d23f
00000490: d2f8 1949 8227 d63f 65af 6238 1965 db3f
000004a0: 7661 38a0 5d6a d33f 7a10 ebac 8e0d d83f
000004b0: 02e0 5679 1011 c53f 4c9e 2a32 24ff babf
000004c0: bf32 7133 5f13 d5bf 8735 cb16 6251 db3f
000004d0: c8d5 7688 9dcf cdbf 71f6 f3f5 51d6 bb3f
000004e0: f64d 92e7 9690 be3f 12f6 e2c7 efdd c5bf
000004f0: 4f95 c693 4a3e b93f e313 768f 8dc4 b3bf
00000500: 378c 8750 0a6a df3f 936d 1b14 4183 d63f
00000510: 425d b00e 555d db3f 9f75 5842 69a4 41bf
00000520: 51d7 e686 8b03 e53f 2241 b391 a722 703f
00000530: e8f4 c215 a8d2 bfbf 1bc1 27d5 786b bc3f
00000540: 8dd4 5759 01c8 c23f c9e9 3a3c 3ff5 8b3f
00000550: dbb8 e1f9 7665 b3bf 4e09 591d 9fac a93f
00000560: 5dd5 20d6 6d1b d33f e549 866b f679 c2bf
00000570: f3b2 b3ff 7673 a9bf b434 7c8a 45af e03f
00000580: 7fd9 7166 5f8c d0bf 1626 7183 f752 d43f
00000590: c6df 8df8 3aaf a2bf 6c79 193f c284 d53f
000005a0: 4680 b21c f02f db3f b738 be65 5cdb 903f
000005b0: b0eb 8f85 05ef adbf ddef c508 2523 e23f
000005c0: ebd2 33bf 54aa cf3f a58a 801d e22f d93f
000005d0: ebfa 45c1 866f 94bf d592 dcf4 c6c7 d43f
000005e0: bbd8 a994 fbdf d43f 708f cb38 a059 e13f
000005f0: dee5 9ce3 5f86 db3f 6678 20b0 1be4 8abf
00000600: 566e c9e3 5de0 c73f 8acd 1157 e557 d93f
00000610: fe17 8fea 29de c43f 43e4 ccff eb77 e13f
00000620: a1f7 22f6 d055 c83f b008 60b2 7422 e03f
00000630: 04b6 3691 40e4 c83f ff66 00c6 b575 d73f
00000640: 77f3 68b1 dc99 d03f cb05 dbd1 8069 db3f
00000650: 982c d112 edc5 a3bf dabb 19ee 892e b4bf
00000660: 790b 3aa0 f0af db3f cdc9 738f 0027 c83f
00000670: d95d 5bfb 32ec c03f 1822 0b19 bcca ca3f
00000680: 4200 b64f f864 cb3f fd02 051c a65b e13f
00000690: 7656 376c 958c bbbf 39f5 4cbb 62fb bc3f
000006a0: 4959 086b 0124 d33f cd2b 4221 3791 a9bf
000006b0: eaf1 42f7 0744 da3f 0fcb feee 81ce d03f
000006c0: 13d4 7c10 f882 e03f 4aa8 48d5 de67 be3f
000006d0: 2e8c 7011 533b e13f 7fa8 2a1d 1f60 db3f
000006e0: e5d1 6da7 c295 e73f d45d 8aac 762b c43f
000006f0: 5e75 fdaf 72f0 b2bf 93ae 7b47 d0af d83f
00000700: 5980 93f7 9bb5 d23f 5831 1401 6115 af3f
00000710: 7a8d 0cee 6aa6 593f f4c8 fc23 24ab e13f
00000720: 3eb2 01e4 80f0 993f 90ff 0a96 7639 d63f
00000730: cb44 03e3 1609 88bf a5c1 6eaf 1553 c83f
00000740: 44f0 7886 3052 803f cfe8 57c9 f23c d93f
00000750: e67e 881f 1d54 d93f c267 52c2 d2b1 da3f
00000760: 3226 7a4f 1468 c9bf 2e88 1b78 b88d d83f
00000770: b123 850c cacb c3bf 4389 2fec 2be8 9d3f
00000780: 274a a21b 1afa e23f 0998 1ed8 155f dc3f
00000790: 517e 1fed 590c 5b3f b8cc b224 e2bf b43f
000007a0: 8774 be7a 36d7 d03f 7b21 e587 a8e5 cb3f
000007b0: ef56 a79a a5a3 c4bf fac9 ad05 4759 da3f
000007c0: a65e 68b1 3b0e ca3f 2a7b df0c 1e77 8a3f
000007d0: faeb 9a29 1417 bebf 951a 3d0c 21db cebf
000007e0: 3881 32d0 5b76 c63f 9afd c062 d6bb cebf
000007f0: 306a 47b1 4911 ce3f d8d4 71c0 dbbd d03f
